en/hey_wire_tap/hey_wire_tap.onnx (onnx, 206983 bytes, 9 tensors)

const_fold_opt__23 f4 [32, 1]
-0.35235205 0.03137474 0.068040945 -0.039700545 0.0476542 -0.3575886 -0.0051586297 0.1544355
0.16403916 0.082429476 0.14743811 -0.37029698 0.20758131 0.111063145 -0.24896315 -0.35980043
0.12939662 -0.07325127 -0.31071374 -0.35261163 -0.05006851 0.14627889 0.22406179 0.10125234
0.06317322 0.11944329 -0.33202857 -0.24888171 -0.06814474 -0.14989494 0.08851244 0.028469436
00000000: 7d67 b4be cd82 003d 0d59 8b3d 0a9d 22bd
00000010: 0d31 433d da15 b7be b909 a9bb 5724 1e3e
00000020: e2f9 273e c9d0 a83d 04fa 163e 9197 bdbe
00000030: 3290 543e 1375 e33d 32f0 7ebe c337 b8be
00000040: 8c80 043e c304 96bd df15 9fbe 8389 b4be
00000050: a314 4dbd 22ca 153e 7470 653e 635d cf3d
00000060: f660 813d af9e f43d a6ff a9be d9da 7ebe
00000070: 788f 8bbd 0f7e 19be 0346 b53d bc38 e93c

const_fold_opt__22 f4 [32, 32]
-0.091753274 -0.17706023 0.06895325 -0.14311792 -0.15755595 -0.14339826 0.11475562 0.010686928
-0.17540032 -0.02690243 -0.005041632 -0.1528318 -0.059073735 -0.04420203 -0.16722555 -0.035384774
-0.02828075 0.15743895 0.045553602 -0.015523817 0.07438834 0.005298355 -0.14275573 0.049468316
-0.09387152 0.040119294 -0.022051003 -0.005145058 -0.10631234 0.11892714 -0.12676656 -0.004827581
0.08089925 -0.13057008 -0.069464944 0.08299693 -0.069434874 -0.01746262 -0.0908618 -0.007615374
-0.020425271 0.061904185 0.19275051 0.03213065 0.10069351 0.08987471 -0.20564659 -0.14026327
0.14987256 -0.04818821 -0.012332408 -0.12322909 -0.07044191 -0.07788305 -0.01755916 0.0022452897
0.009571008 -0.14080735 -0.12048603 0.019231189 0.042521305 0.10792728 0.1595144 0.06991426
0.07643753 0.14992547 0.07773567 -0.027926814 0.034731187 -0.00015235906 -0.07217472 -0.08721034
-0.034665987 -0.05386179 -0.091217645 0.16161786 -0.13575353 -0.10851418 -0.039471027 0.07774187
-0.051238116 -0.1386556 0.09895155 0.07511815 -0.11385048 0.010063665 -0.04842563 0.034865603
-0.093997605 0.09739967 -0.07987994 -0.09760639 -0.081849776 0.18385735 -0.07295404 0.13831078
0.02112069 -0.1193801 0.117525674 -0.13125087 -0.019876415 -0.07152595 -0.07376656 -0.04868294
-0.07409657 0.120009236 0.17132336 0.062366456 0.17833444 -0.087019 0.058907025 0.15639949
0.14023623 0.032536816 0.022091538 0.17139973 -0.15386765 -0.034473673 0.10022366 0.060457844
0.086169384 0.09368266 0.120448574 -0.11713864 0.016410602 0.062012568 0.087965846 0.05602612
0.1465356 -0.13868888 -0.1349666 0.087011136 -0.09782225 0.14308746 0.08941574 0.052074183
0.1362598 0.028613029 -0.03299614 -0.07699199 -0.031806525 -0.10856107 -0.07937465 -0.0006382149
0.103347555 -0.065141946 0.10889757 0.1124206 0.10388024 -0.09245038 0.071109466 -0.123906426
0.16887385 -0.19890161 0.08865778 0.12623668 -0.034759745 0.19347033 0.07821836 -0.060102433
0.0750154 -0.10943014 0.11097171 -0.13541596 -0.078087665 -0.11610886 -0.06286876 -0.14308499
-0.14756359 -0.16856374 -0.105887875 -0.11743545 -0.069936395 -0.11051204 0.025768023 0.074408226
0.027885078 0.03506602 0.022886083 0.112366624 0.013394585 -0.016722593 0.047098055 0.14881086
0.11614864 -0.12175677 0.024006102 -0.13311546 0.0025426678 -0.069905385 -0.028641097 0.018090114
0.019512381 0.08033013 0.12823696 0.1045445 0.18879643 -0.19105652 -0.035979904 0.12690242
0.18973614 0.17952229 -0.03605354 -0.14670582 0.19306573 0.03616068 0.12998678 -0.07025919
0.076352164 0.13467877 0.09323362 -0.0524496 0.05645969 0.12464856 0.21362996 -0.0065798196
0.06480268 0.010926557 -0.14929573 -0.071220346 -0.03869761 -0.043520745 -0.016369032 0.02636237
0.14695482 -0.17540756 0.1380194 -0.08463193 0.08263999 0.11402604 -0.14925773 -0.015815763
-0.035753317 -0.02510661 -0.074029155 0.016401798 0.06650774 -0.105203554 0.09248633 0.08027001
0.043540027 -0.00048979145 -0.00015908005 0.110619865 0.068326846 -0.19758789 -0.064780325 -0.043813393
-0.14224398 0.008856105 0.124065705 -0.015233739 -0.09791034 0.015333598 0.1384299 0.0136104245
00000000: 24e9 bbbd 474f 35be 5d37 8d3d 818d 12be
00000010: 5956 21be fed6 12be ff04 eb3d 3a18 2f3c
00000020: 249c 33be 7c62 dcbc 4634 a5bb f07f 1cbe
00000030: 4df7 71bd 300d 35bd 2d3d 2bbe a0ef 10bd
00000040: 08ad e7bc ad37 213e 6a96 3a3d 9c57 7ebc
00000050: ea58 983d d39d ad3b 8f2e 12be 4a9f 4a3d
00000060: b63f c0bd 2154 243d 4ea4 b4bc e097 a8bb
00000070: 49ba d9bd 1390 f33d 18cf 01be af30 9ebb
00000080: 82ae a53d 2ab4 05be a343 8ebd 4bfa a93d
00000090: df33 8ebd c50d 8fbc c015 babd 638a f9bb
000000a0: e652 a7bc 3e8f 7d3d 6460 453e 6e9b 033d
000000b0: 6638 ce3d 3b10 b83d 0595 52be 2da1 0fbe
000000c0: 3178 193e 0061 45bd de0d 4abc 885f fcbd
000000d0: d943 90bd 2681 9fbd 3ad8 8fbc b625 133b
000000e0: b8cf 1c3c cd2f 10be 61c1 f6bd ba8a 9d3c
000000f0: d22a 2e3d fa08 dd3d be57 233e 352f 8f3d
00000100: 488b 9c3d 1086 193e e133 9f3d c6c6 e4bc
00000110: 4a42 0e3d 93c2 1fb9 57d0 93bd 569b b2bd
00000120: ecfd 0dbd 2e9e 5cbd 51d0 babd 277f 253e
00000130: f902 0bbe af3c debd 5fac 21bd 2137 9f3d
00000140: 0fdf 51bd bcfb 0dbe 1ca7 ca3d 8bd7 993d
00000150: 712a e9bd 12e2 243c f459 46bd 3ccf 0e3d
00000160: d181 c0bd 7a79 c73d 1898 a3bd dce5 c7bd
00000170: dba0 a7bd 1a45 3c3e ed68 95bd 57a1 0d3e
00000180: 4c05 ad3c 8e7d f4bd 4db1 f03d a166 06be
00000190: ddd3 a2bc 337c 92bd ec12 97bd c367 47bd
000001a0: f1bf 97bd 67c7 f53d 646f 2f3e f873 7f3d
000001b0: 4e9d 363e 0437 b2bd 7e48 713d 3027 203e
000001c0: 169a 0f3e 5345 053d 50f9 b43c 6983 2f3e
000001d0: 7b8f 1dbe 4434 0dbd 1042 cd3d a5a2 773d
000001e0: 9379 b03d b2dc bf3d bead f63d 62e6 efbd
000001f0: 876f 863c e400 7e3d 7027 b43d a57b 653d
00000200: 6e0d 163e 7504 0ebe af34 0abe e532 b23d
00000210: 0857 c8bd 8585 123e 991f b73d bd4b 553d
00000220: b087 0b3e df65 ea3c f626 07bd faad 9dbd
00000230: 8f47 02bd 4455 debd 2d8f a2bd e04d 27ba
00000240: e2a7 d33d 2469 85bd b005 df3d c63c e63d
00000250: 2abf d43d a056 bdbd d7a1 913d a7c2 fdbd
00000260: 44ed 2c3e ddac 4bbe 3692 b53d 3044 013e
00000270: 3c60 0ebd 161d 463e f330 a03d f82d 76bd
00000280: ada1 993d e91c e0bd 2345 e33d 7baa 0abe
00000290: 6dec 9fbd 7bca edbd 56c1 80bd df84 12be
000002a0: e91a 17be f99b 2cbe bedb d8bd ff81 f0bd
000002b0: d03a 8fbd 2354 e2bd 7617 d33c 5763 983d
000002c0: 3f6f e43c 63a1 0f3d 987b bb3c 7920 e63d
000002d0: f674 5b3c d2fd 88bc e4e9 403d e061 183e
000002e0: 57df ed3d 9d5b f9bd 72a8 c43c 6b4f 08be
000002f0: e3a2 263b 8e2a 8fbd bca0 eabc b831 943c
00000300: 6ed8 9f3c 2084 a43d 8d50 033e 6d1b d63d
00000310: da53 413e 52a4 43be aa5f 13bd b5f2 013e
00000320: 314a 423e b1d4 373e e0ac 13bd 0d3a 16be
00000330: 06b3 453e 391d 143d 411b 053e 0de4 8fbd
00000340: 865e 9c3d 3be9 093e 45f1 be3d 64d5 56bd
00000350: 4742 673d bf47 ff3d d0c1 5a3e 879b d7bb
00000360: 44b7 843d 4d05 333c fbe0 18be f9db 91bd
00000370: 6381 1ebd cf42 32bd 5918 86bc e6f5 d73c
00000380: 537b 163e 0a9e 33be f554 0d3e 8153 adbd
00000390: 283f a93d 7c86 e93d 05d7 18be 0f90 81bc
000003a0: 1272 12bd 61ac cdbc 999c 97bd 105d 863c
000003b0: 3635 883d f674 d7bd 7969 bd3d 9a64 a43d
000003c0: 0757 323d 5965 00ba bace 26b9 ab8c e23d
000003d0: f2ee 8b3d 7b54 4abe 8cab 84bd ac75 33bd
000003e0: 68a8 11be 3219 113c 2916 fe3d ef96 79bc
000003f0: 3785 c8bd c539 7b3c 91c0 0d3e 42fe 5e3c

const_fold_opt__21 f4 [1536, 32]
0.009251129 0.07413656 -0.05733753 0.046363737 -0.031233367 -0.01265859 0.07488942 -0.0652129
-0.05723849 0.012189841 0.0049353424 0.05183623 0.049043983 0.004783751 0.016427288 0.0135983005
0.0026726995 -0.008692288 0.011838404 -0.02634727 -0.027644264 0.05296217 0.018298382 0.051500477
-0.0100516705 -0.041665945 -0.0100039495 -0.06584827 0.038269024 0.023086326 0.03987061 0.026549052
-0.020916605 -0.006676963 0.019816583 -0.015419719 0.021551786 -0.008648949 -0.014503698 -0.0034333817
-0.020631727 0.009869409 -0.01009394 -0.015168603 -0.0039419397 0.015745679 -0.0037793114 -0.015839461
-0.0051384983 -0.019155724 0.022951132 -0.0066788667 0.013299731 -0.006271485 -0.0058895485 0.01268853
0.013766808 0.008883708 -0.008966411 0.0013279665 0.007931018 -0.02591234 0.025388211 0.013834792
-0.022453953 -0.009550417 0.02020694 -0.025823316 -0.000445681 -0.015978318 -0.020987624 0.016495021
0.0036733341 0.0048279692 0.004547659 -0.03331822 -0.029132944 0.0076525747 -0.010012086 -0.025942527
0.00065365457 -0.024368169 0.016389836 -0.0043468014 0.00029945577 0.0031989736 -0.0047869813 -0.022637662
0.003692169 0.017276622 0.0121078165 0.0056102094 -0.031694807 -0.020529285 0.0070899925 0.007013449
-0.013141562 -0.033665158 0.027856424 -0.027244437 0.0113436505 -0.01645155 -0.04764892 0.04529162
0.014365734 0.0049649607 -0.027800636 -0.05567318 -0.018134886 -0.016855337 0.004207401 -0.04804245
-0.00071009464 -0.029144157 -0.040130638 -0.008558444 0.011594507 -0.068715915 -0.03199072 -0.0428543
-0.004580121 0.017465806 0.035051692 0.017642617 -0.051017106 -0.037037082 -0.009761225 0.014814717
0.016710643 0.009059608 0.009754704 0.031183882 0.008116619 4.5970482e-06 0.005533497 -0.01055638
0.0077273627 0.025348514 0.024879491 0.009953269 0.023246884 0.009492172 -0.014772027 0.002935293
-0.024075747 -0.0041562705 0.012149191 0.018718455 -0.0008622716 0.019209938 0.021385085 0.026102995
0.005070699 0.0017654527 -0.020301975 -0.0093283495 0.02550287 -0.00090654695 0.024076542 0.0009655973
-0.02052728 -0.012988927 0.001400802 0.0018192738 -0.012727319 0.024171783 -0.013322904 -0.0055728736
-0.019516619 -0.0033798888 0.010193539 -0.012930973 -0.0070132 0.01179211 -0.0016761866 0.007918186
0.011030073 -0.0116080055 0.010466319 -0.023488805 0.008256764 0.017032966 0.01908793 -0.0037715235
-0.006164892 -0.0036654782 0.026621506 0.012951315 0.0007483759 -0.00079169753 -0.0028176482 0.014114856
0.003800607 0.02143584 -0.02489963 -0.018335003 0.0061390707 -0.0050867316 0.028682636 -0.01745224
-0.008403651 0.024377147 0.009369661 -5.67454e-05 0.024184465 0.023252001 0.016382169 -0.011881191
0.017532332 0.0039175726 -0.018423844 -0.020141676 -0.008597118 -0.0021839826 -0.013371857 0.023152374
0.018996509 -0.010953927 -0.017881302 -0.006956526 0.011629535 0.017735971 0.021137416 0.019373666
0.017803745 0.009515729 -0.022341944 0.013246573 -0.0013641953 -0.01788131 0.0036724606 -0.0077495053
-0.014724812 0.040544212 0.016172182 0.0028582225 0.013846484 0.032626085 -0.0038488284 0.017930431
0.035469253 0.021395907 -0.0036052547 0.0055606943 -0.008809842 0.005712957 0.01963809 0.03606573
0.020842746 -0.019118823 0.014545417 -0.05629766 0.022899516 -0.008206866 0.02515751 0.036953215
00000000: 0c92 173c e9d4 973d c2da 6abd e7e7 3d3d
00000010: 1edd ffbc fa65 4fbc a05f 993d 578e 85bd
00000020: e872 6abd e6b7 473c a7b8 a13b 3a52 543d
00000030: 58e2 483d 03c1 9c3b 8592 863c 68cb 5e3c
00000040: 7528 2f3b 196a 0ebc def5 413c 3bd6 d7bc
00000050: 3976 e2bc dcee 583d 7de6 953c 2af2 523d
00000060: c3af 24bc e9a9 2abd 9be7 23bc 75db 86bd
00000070: fbbf 1c3d 891f bd3c 5d4f 233d 667d d93c
00000080: 4d59 abbc 6dca dabb 6356 a23c fda2 7cbc
00000090: 5f8d b03c 52b4 0dbc eba0 6dbc 9602 61bb
000000a0: de03 a9bc 4db3 213c 0e61 25bc bb85 78bc
000000b0: 632b 81bb 15fd 803c 53ae 77bb c2c1 81bc
000000c0: d960 a8bb 77ec 9cbc 0304 bc3c 65da dabb
000000d0: 1de7 593c 0781 cdbb 1dfd c0bb 8de3 4f3c
000000e0: 2e8e 613c f98c 113c dbe7 12bc 290f ae3a
000000f0: 1af1 013c 1e46 d4bc f0fa cf3c 53ab 623c
00000100: 5af1 b7bc 5a79 1cbc 0689 a53c 6b8b d3bc
00000110: 4baa e9b9 f6e4 82bc 3dee abbc 9120 873c
00000120: 52bc 703b f133 9e3b 8704 953b b078 08bd
00000130: 36a8 eebc 73c2 fa3b bb09 24bc 6c85 d4bc
00000140: 045a 2b3a c19f c7bc fa43 863c 9d6f 8ebb
00000150: 4600 9d39 dfa5 513b 1cdc 9cbb 9e72 b9bc
00000160: 51f8 713b b487 8d3c dd5f 463c d9d5 b73b
00000170: 6ad2 01bd 082d a8bc 2b53 e83b 13d1 e53b
00000180: b54f 57bc 7ae4 09bd 2833 e43c ba2f dfbc
00000190: b8da 393c 67c5 86bc 842b 43bd b583 393d
000001a0: 415e 6b3c 1cb1 a23b 29be e3bc 8f09 64bd
000001b0: 9d8f 94bc 3414 8abc 3dde 893b 29c8 44bd
000001c0: a525 3aba babf eebc 0660 24bd b738 0cbc
000001d0: e3f6 3d3c eeba 8cbd b408 03bd fe87 2fbd
000001e0: d714 96bb 7314 8f3c 5d92 0f3d 4087 903c
000001f0: 50f7 50bd 32b4 17bd 8ced 1fbc 6db9 723c
00000200: c2e4 883c c06e 143c 32d2 1f3c 5775 ff3c
00000210: 91fb 043c 5840 9a36 5652 b53b abf4 2cbc
00000220: d135 fd3b b0a7 cf3c 13d0 cb3c 0913 233c
00000230: 4070 be3c 0e85 1b3c 5f06 72bc 0b5e 403b
00000240: 803a c5bc 5331 88bb 670d 473c 7257 993c
00000250: 110a 62ba 295e 9d3c c62f af3c f3d5 d53c
00000260: 1b28 a63b c366 e73a 5450 a6bc efd5 18bc
00000270: 65eb d03c 56a5 6dba 2b3c c53c 2320 7d3a
00000280: d428 a8bc 82cf 54bc 1e9b b73a b374 ee3a
00000290: 3f86 50bc e703 c63c 4f48 5abc a79c b6bb
000002a0: 51e1 9fbc 2081 5dbb cd02 273c 6fdc 53bc
000002b0: fcce e5bb b233 413c 7db3 dbba 47bb 013c
000002c0: 7bb7 343c 812f 3ebc ec7a 2b3c 986b c0bc
000002d0: 6147 073c b888 8b3c 4a5e 9c3c aa2b 77bb
000002e0: dd02 cabb 8538 70bb 5815 da3c c131 543c
000002f0: a82e 443a ec89 4fba 4ba8 38bb ff41 673c
00000300: 9b13 793b 379a af3c 4ffa cbbc 4a33 96bc
00000310: 422a c93b 99ae a6bb d9f7 ea3c 00f8 8ebc
00000320: 78af 09bc 95b2 c73c 3583 193c e901 6eb8
00000330: 801e c63c fb7a be3c e633 863c 54a9 42bc
00000340: f79f 8f3c fb5e 803b 9aed 96bc 2800 a5bc
00000350: edda 0cbc 2621 0fbb a215 5bbc 0caa bd3c
00000360: 919e 9b3c 1a78 33bc cf7b 92bc 92f3 e3bb
00000370: ce89 3e3c 074b 913c 6028 ad3c 86b5 9e3c
00000380: 29d9 913c dce7 1b3c 7406 b7bc 2708 593c
00000390: ccce b2ba d37b 92bc aaad 703b 90ef fdbb
000003a0: 5640 71bc b011 263d 867b 843c 0451 3b3b
000003b0: 5ddc 623c eea2 053d a03c 7cbb d7e2 923c
000003c0: 3548 113d 7846 af3c 2346 6cbb 7c36 b63b
000003d0: 2857 10bc c233 bb3b 0fe0 a03c a9b9 133d
000003e0: 68be aa3c 149f 9cbc e74f 6e3c 6098 66bd
000003f0: c497 bb3c 1776 06bc 1f17 ce3c 415c 173d

Const_7 f4 [32]
0.2771285 0.030338727 0.030705098 -0.02432507 0.026107468 0.26335308 -0.0013897808 0.038300294
0.041217346 0.00033549752 0.09129095 0.25881055 0.055025004 0.032503173 0.2882743 0.24061865
-0.0007533202 -0.040712968 0.2865402 0.2613284 0.004612378 0.0015564931 0.05922084 -0.039436653
0.042495184 -0.00079225993 0.2784225 0.2993607 -0.023092447 -0.032949403 0.023116952 -0.0019773068
00000000: c9e3 8d3e ec88 f83c 4289 fb3c 5f45 c7bc
00000010: 54df d53c 37d6 863e 4e29 b6ba c5e0 1c3d
00000020: 85d3 283d b7e5 af39 c0f6 ba3d d182 843e
00000030: e661 613d 0c22 053d b098 933e bc64 763e
00000040: 767a 45ba a4c2 26bd 66b5 923e d6cc 853e
00000050: 6e23 973b 3e03 cc3a 8d91 723d 5488 21bd
00000060: 6e0f 2e3d aaaf 4fba 658d 8e3e ce45 993e
00000070: 5f2c bdbc f4f5 06bd c35f bd3c b495 01bb

Const_6 f4 [32]
1.3128048 1.017866 1.0366551 0.9523138 1.0223688 1.280412 0.99951154 1.0781596
1.098723 1.0026358 1.1184564 1.270316 1.0606421 1.0438775 1.2810807 1.20699
1.0127064 0.97751254 1.3132364 1.2720878 1.0033585 0.9997393 1.0805129 0.98103833
1.0576352 1.0115521 1.3002564 1.3016232 0.9758431 0.98528486 1.040098 0.9985067
00000000: fd09 a83f 6f49 823f 1db1 843f d6ca 733f
00000010: fbdc 823f 8ae4 a33f fddf 7f3f 2201 8a3f
00000020: f5a2 8c3f 5f56 803f 9429 8f3f b799 a23f
00000030: 1fc3 873f c79d 853f 74fa a33f a67e 9a3f
00000040: 5da0 813f 433e 7a3f 2118 a83f c6d3 a23f
00000050: 0d6e 803f eaee 7f3f 3f4e 8a3f 5425 7b3f
00000060: 9760 873f 8a7a 813f cd6e a63f 979b a63f
00000070: dad0 793f a13b 7c3f ee21 853f 239e 7f3f

Const_5 f4 [32]
-0.023297882 -0.04239376 0.06553298 -0.1269122 0.0028528036 0.079634145 -0.082232974 -0.04328683
0.021395369 0.15044409 0.20273483 0.17656861 0.09388971 -0.013686384 0.12877008 0.08310246
0.08780322 0.0033335206 0.07476004 -0.105173916 -0.11935016 -0.08007466 0.09076876 -0.119006164
0.17852937 0.13070801 0.0010224887 0.120354846 0.08074371 -0.114279054 -0.08053487 -0.08552916
00000000: 33db bebc 14a5 2dbd 2836 863d 46f5 01be
00000010: 1af6 3a3b 3a17 a33d c369 a8bd 884d 31bd
00000020: 5745 af3c 040e 1a3e b899 4f3e 67ce 343e
00000030: 4049 c03d db3c 60bc 4edc 033e 9f31 aa3d
00000040: 2dd2 b33d 3277 5a3b cb1b 993d 6c65 d7bd
00000050: db6d f4bd 2ffe a3bd f9e4 b93d 81b9 f3bd
00000060: 67d0 363e 52d8 053e 0705 863a 9a7c f63d
00000070: f55c a53d 230b eabd 77ef a4bd ea29 afbd

Const_3 f4 [32]
-0.00096843997 0.016341956 0.01746006 0.024488518 0.016683763 0.009543583 0.013227759 0.02004375
0.018563138 0.0012256855 -0.0011311814 0.014776075 -0.0006927415 0.04231493 -0.0040496415 -0.0008473868
-0.0048674825 -0.0039069946 -0.0011794255 0.005619495 0.024895763 0.019129606 -0.010741991 0.022248369
-0.006549584 0.008687518 0.020420326 0.02240135 0.011427827 -0.004200348 0.02129723 -0.0015622483
00000000: e8de 7dba 91df 853c 6608 8f3c 259c c83c
00000010: 63ac 883c b05c 1c3c 3eb9 583c ca32 a43c
00000020: b911 983c 2ea7 a03a 2644 94ba 5a17 723c
00000030: 1899 35ba 6c52 2d3d dbb2 84bb 2a23 5eba
00000040: 677f 9fbb 3f06 80bb f496 9aba be23 b83b
00000050: 33f2 cb3c b1b5 9c3c 2dff 2fbc 3642 b63c
00000060: e59d d6bb 1756 0e3c 8748 a73c 0983 b73c
00000070: c83b 3b3c 13a3 89bb 8777 ae3c 5bc4 ccba

Const_2 f4 [32]
0.9993309 1.0214343 1.0352635 1.0143676 1.0089682 0.99761426 1.0340581 1.038076
1.0130146 0.998858 0.9993457 1.0156652 0.9993318 1.0385028 0.99889433 0.99937314
0.99874705 0.9988856 0.9991922 0.95224583 1.0220969 1.029953 0.9969443 1.0201279
0.9986354 0.9757216 1.0141054 1.0479633 1.0201815 0.9988918 0.98416424 0.9992137
00000000: 26d4 7f3f 5cbe 823f 8483 843f ccd6 813f
00000010: df25 813f a663 7f3f 045c 843f addf 843f
00000020: 76aa 813f 28b5 7f3f 1fd5 7f3f 5101 823f
00000030: 35d4 7f3f a9ed 843f 8ab7 7f3f ebd6 7f3f
00000040: e3ad 7f3f f7b6 7f3f 0fcb 7f3f 62c6 733f
00000050: 12d4 823f 80d5 833f be37 7f3f 8d93 823f
00000060: 92a6 7f3f e4c8 793f 35ce 813f a923 863f
00000070: 4f95 823f 5fb7 7f3f 30f2 7b3f 78cc 7f3f

Const_1 f4 [32]
-0.00794108 -0.004412898 -0.002378515 -0.023142716 -0.0071573756 -0.006185528 0.0013063216 0.019844078
-0.0053333435 -0.023102276 -0.0025368803 -0.0009801845 0.004537966 0.024505168 0.019236933 -0.0014763669
0.0068144603 0.023300456 -0.019202946 -0.010413527 -0.012715253 0.016830033 0.021990778 -0.014777729
0.017724114 0.008117932 0.024245845 -0.002149305 -0.024982521 -0.0018972612 -0.0048070312 0.008787838
00000000: 4e1b 02bc 129a 90bb dce0 1bbb cb95 bdbc
00000010: 6b88 eabb f8af cabb e138 ab3a 0c90 a23c
00000020: 54c3 aebb fc40 bdbc ca41 26bb 8979 80ba
00000030: 38b3 943b 10bf c83c c696 9d3c a782 c1ba
00000040: d64b df3b 99e0 be3c 7f4f 9dbc 7f9d 2abc
00000050: a353 50bc 23df 893c 0126 b43c 4a1e 72bc
00000060: 2932 913c 1301 053c 399f c63c 5bdb 0cbb
00000070: 25a8 ccbc 86ad f8ba 4d84 9dbb ddfa 0f3c
