en/scarlett/Scarlett.onnx (onnx, 205649 bytes, 9 tensors)

const_fold_opt__23 f4 [32, 1]
0.16287003 0.119473174 0.14976615 0.008725484 -0.03563639 -0.33447254 0.07235133 0.09909038
-0.021575682 0.034427095 -0.35168347 -0.045022238 0.17315522 -0.32875404 -0.311461 0.0912937
0.14005047 -0.34712818 0.20729466 0.11957062 -0.30575946 0.1733016 0.07239447 0.122543484
-0.122741796 -0.3506082 -0.029542243 -0.34963125 -0.38433114 0.19477119 0.051702127 0.001029039
00000000: 67c7 263e 5aae f43d 4c5c 193e 55f5 0e3c
00000010: 77f7 11bd fc3f abbe ef2c 943d e6ef ca3d
00000020: 7cbf b0bc 6d03 0d3d db0f b4be 3d69 38bd
00000030: 9a4f 313e 7352 a8be d177 9fbe 31f8 ba3d
00000040: 6469 0f3e c9ba b1be 0d45 543e 71e1 f43d
00000050: 818c 9cbe fa75 313e 8d43 943d 14f8 fa3d
00000060: 0d60 fbbd eb82 b3be 9302 f2bc de02 b3be
00000070: 0dc7 c4be 1972 473e 9cc5 533d d2e0 863a

const_fold_opt__22 f4 [32, 32]
0.041858356 -0.11595039 -0.02500122 0.10888491 0.1581829 -0.14448825 0.04489499 0.01879643
-0.018723669 -0.05012528 0.124707006 -0.09450885 -0.038550243 -0.039104793 -0.19401124 0.14891967
0.052497163 -0.15701103 0.00449606 0.043227952 -0.14790663 0.10521345 0.10826581 -0.036856078
0.13547044 0.026844852 -0.014204551 0.091467686 -0.19550999 -0.14275612 -0.08747497 -0.01738181
-0.14627193 0.12867765 0.13753855 0.012091867 -0.047124177 0.05899114 0.038084548 0.14625514
-0.030952917 -0.13343121 0.0077970806 -0.14141339 0.0007538098 0.11999116 0.061800994 0.0065899095
-0.06156121 0.043612715 -0.1441796 -0.104195505 -0.012797852 -0.15488724 0.035733342 0.02596614
0.1231698 0.16845869 -0.07034517 -0.12583345 -0.07794745 0.1644396 -0.010410515 0.10962945
-0.09242073 -0.0008569542 0.10014782 0.13846764 0.0705914 -0.04335902 -0.10539223 -0.029326636
-0.05545353 0.04683639 0.013847422 -0.15443383 -0.12099839 0.05802865 -0.032839872 -0.020209318
0.005977227 -0.013137425 0.13170491 0.0052393605 0.13992433 0.10575025 -0.018926749 -0.0444063
-0.11614071 -0.067420095 0.078810066 0.013728143 -0.07151494 0.028053118 -0.066200286 -0.06561843
0.004633004 0.021958845 0.03782816 -0.09537995 0.053144954 0.1457364 -0.022907266 -0.06877096
0.056309618 0.13616158 -0.0662579 0.15831126 0.07285732 0.16036743 0.09286734 -0.12111686
0.11094734 -0.10183972 0.015997788 0.09048009 0.11750879 0.041969668 0.14358 -0.081276394
0.13981916 0.14061907 0.12038476 -0.023940122 0.05356233 -0.16894686 -0.16886997 -0.12306553
0.1332139 0.20112045 0.009423398 -0.22249235 -0.12593223 -0.06580997 0.08289921 -0.081872
0.085160166 0.036688857 -0.029566273 -0.07019266 0.1701784 -0.111386135 -0.09659712 0.105669126
0.209323 -0.008501008 0.07447174 0.013923151 0.16691035 0.23636678 0.096860625 0.069599055
-0.071364574 0.18169211 0.10518522 -0.05248462 -0.16963218 0.11160645 -0.0070578856 0.08026305
0.0060230936 -0.021171328 0.042188313 -0.06879604 0.17285955 0.12332298 0.09156318 0.076837905
-0.110832565 -0.15633416 -0.08157099 0.05421069 -0.06057614 -0.17660813 0.08308361 0.1930225
-0.040570777 0.07834748 0.15499265 0.018531764 -0.044063345 -0.012676802 0.017148621 -0.02188853
-0.13707958 -0.12842993 0.033717614 0.06144414 0.08319609 0.023724465 -0.1191155 0.014732856
-0.05556879 -0.12907933 0.1792424 -0.1299924 0.06613547 -0.041767657 -0.1815369 -0.057684142
-0.042257067 -0.17033182 0.024783574 -0.11908872 0.2610876 -0.0054867626 -0.055052415 -0.093713984
0.18883376 -0.15454727 -0.0059459433 -0.10714938 0.13026567 -0.036922287 -0.15559953 0.06453349
0.109203614 0.05637701 -0.08945759 -0.027044445 -0.029978953 0.07604816 -0.12168652 -0.1447082
-0.09777687 -0.14523491 0.16595788 0.013673618 -0.17268313 -0.15092406 0.04286625 0.09318756
0.11963479 0.10252494 0.18211119 -0.10524813 -0.106354095 -0.015913961 0.037560508 -0.020143913
-0.06578869 -0.095632926 -0.05343579 -0.118040144 -0.055689905 -0.0182984 0.004691299 -0.01430575
-0.058849327 -0.006267003 -0.013353072 0.12205588 0.0068272073 0.1145786 0.09091026 -0.04607473
00000000: ab73 2b3d 6677 edbd 5ccf ccbc 0dff de3d
00000010: b3fa 213e baf4 13be cfe3 373d f9fa 993c
00000020: 6162 99bc 2a50 4dbd 6366 ff3d db8d c1bd
00000030: dce6 1dbd 592c 20bd e2aa 46be 667e 183e
00000040: 4407 573d 80c7 20be af53 933b cb0f 313d
00000050: d674 17be 267a d73d 77ba dd3d 66f6 16bd
00000060: c3b8 0a3e bce9 db3c 34ba 68bc 6953 bb3d
00000070: c533 48be a92e 12be 1426 b3bd 4c64 8ebc
00000080: 4fc8 15be 13c4 033e e8d6 0c3e f71c 463c
00000090: 4805 41bd b2a0 713d 8bfe 1b3d e8c3 153e
000000a0: f990 fdbc 31a2 08be a77e ff3b acce 10be
000000b0: 529b 453a edbd f53d 0a23 7d3d 2bf0 d73b
000000c0: 9b27 7cbd 3fa3 323d d1a3 13be 7464 d5bd
000000d0: 15ae 51bc c39a 1ebe 205d 123d f1b6 d43c
000000e0: 7340 fc3d 6f80 2c3e 2111 90bd 7cda 00be
000000f0: eaa2 9fbd db62 283e dd90 2abc 6885 e03d
00000100: 1447 bdbd 39a5 60ba 4d1a cd3d 76ca 0d3e
00000110: 3992 903d 3a99 31bd e2d7 d7bd 6a3e f0bc
00000120: 3e23 63bd 84d7 3f3d 4ce0 623c e723 1ebe
00000130: 01ce f7bd 73af 6d3d 1a83 06bd 038e a5bc
00000140: 9ddc c33b 5b3e 57bc a7dd 063e f1ae ab3b
00000150: 5348 0f3e 9693 d83d 450c 9bbc 61e3 35bd
00000160: 2edb edbd 8c13 8abd 2c67 a13d 01ec 603c
00000170: 6d76 92bd a7cf e53c 0494 87bd f562 86bd
00000180: 74d0 973b 09e3 b33c b3f1 1a3d 9056 c3bd
00000190: 86ae 593d ec3b 153e 05a8 bbbc cad7 8cbd
000001a0: eaa4 663d f16d 0b3e 39b2 87bd 591c 223e
000001b0: 3836 953d 5c37 243e 3b31 be3d 1e0c f8bd
000001c0: 5c38 e33d 5891 d0bd cb0d 833c a04d b93d
000001d0: 73a8 f03d 63e8 2b3d a306 133e 3d74 a6bd
000001e0: c12c 0f3e 72fe 0f3e 498c f63d 131e c4bc
000001f0: 2c64 5b3d 6800 2dbe 40ec 2cbe c809 fcbd
00000200: 3969 083e 85f2 4d3e 9964 1a3c 09d5 63be
00000210: 61f4 00be 61c7 86bd 10c7 a93d 82ac a7bd
00000220: 7468 ae3d 0e47 163d f834 f2bc 2bc1 8fbd
00000230: 3f43 2e3e 6a1e e4bd b6d4 c5bd 0e69 d83d
00000240: c558 563e d047 0bbc a484 983d ee1d 643c
00000250: 8cea 2a3e 220a 723e dd5e c63d f389 8e3d
00000260: 9727 92bd 7f0d 3a3e 596b d73d 1dfa 56bd
00000270: 0fb4 2dbe ec91 e43d d645 e7bb f460 a43d
00000280: 5f5d c53b 7e6f adbc a7cd 2c3d f0e4 8cbd
00000290: 1802 313e c290 fc3d 7a85 bb3d 315d 9d3d
000002a0: 2ffc e2bd 1016 20be b10e a7bd 070c 5e3d
000002b0: b01e 78bd c3d8 34be bd27 aa3d b1a7 453e
000002c0: 8b2d 26bd a574 a03d 65b6 1e3e edcf 973c
000002d0: c47b 34bd 5db2 4fbc 447b 8c3c 934f b3bc
000002e0: 975e 0cbe 2383 03be 7b1b 0a3d daac 7b3d
000002f0: b662 aa3d cf59 c23c d4f2 f3bd 1462 713c
00000300: 199c 63bd 5f2d 04be 528b 373e ba1c 05be
00000310: 0972 873d 9014 2bbd cfe4 39be 3546 6cbd
00000320: bf15 2dbd 776b 2ebe ec06 cb3c c9e4 f3bd
00000330: 46ad 853e 4dca b3bb a47e 61bd 1eed bfbd
00000340: a35d 413e a441 1ebe 30d6 c2bb 2271 dbbd
00000350: 5d64 053e d33b 17bd 7c55 1fbe 222a 843d
00000360: 25a6 df3d 94eb 663d 8a35 b7bd 508c ddbc
00000370: 6c96 f5bc 23bf 9b3d c836 f9bd 632e 14be
00000380: 3d3f c8bd 76b8 14be ddf0 293e 5007 603c
00000390: d9d3 30be d68b 1abe 8594 2f3d 1fd9 be3d
000003a0: 1603 f53d 99f8 d13d 5b7b 3a3e 558c d7bd
000003b0: 2dd0 d9bd ff5d 82bc 0cd9 193d d904 a5bc
000003c0: 38bc 86bd 32db c3bd 7ddf 5abd 08bf f1bd
000003d0: 191b 64bd 87e6 95bc 78b9 993b aa62 6abc
000003e0: fe0b 71bd 6e5b cdbb d8c6 5abc 6ff8 f93d
000003f0: c4b6 df3b 2fa8 ea3d 292f ba3d dbb8 3cbd

const_fold_opt__20 f4 [1536, 32]
-0.0065885275 -0.008984429 -0.0050926013 0.014813964 0.015026087 0.0046025882 -0.012753848 0.008699817
0.015623604 -0.0012547435 -0.016111314 0.016792953 -0.0023088935 -0.007248383 -0.022137873 0.023311272
0.0067291707 -0.005031387 -0.021778883 -0.014356446 -0.004234581 0.009160083 0.020426307 -2.8187533e-05
0.012063327 -0.014744727 -0.022817789 -0.024028093 -0.0050192415 0.030573027 -0.008428243 -0.00075720355
0.008503501 -0.015230183 -0.01018159 0.025253138 0.0068525616 0.015243101 -0.008585958 0.018148165
-0.01457364 0.011722321 -0.018851425 0.0076151844 -0.015200538 -0.019820038 -0.012431235 -0.0127104195
0.00034261285 -0.006597019 0.017230986 0.0052781217 -0.017801393 -0.019252114 0.0058876127 -0.009311156
0.014895862 -0.0014220902 -0.017433034 -0.015251345 -0.020262929 0.002829723 -0.017227253 0.025057495
-0.01762094 -0.013910985 -0.016448062 0.011121028 -0.011276971 0.014910377 0.0049248966 0.021500027
0.004441757 -0.02325783 -0.013044264 -0.008692484 -0.008829629 0.013786317 -0.014833587 0.016691023
-0.03156007 -0.020291805 0.011875934 0.021888351 -0.00088645914 -0.034654666 -0.01209264 0.01872928
-0.0043521165 -0.0017779313 0.014234789 -0.017925346 -0.010381466 0.002881433 0.017300682 -0.006318083
-0.017796736 -0.026221076 -0.026877932 -0.008273998 -0.046977337 -0.0089779375 -0.032347627 0.003982978
0.0037238516 0.010044797 0.025112651 -0.050962042 0.0071824715 -0.007279062 0.046447575 0.0012316079
0.0059724348 0.023802098 -0.0076781884 -0.0015074374 0.009027899 -0.0037178544 -0.019252941 -0.010640467
-0.011070147 -0.058706954 -0.012982161 -0.023735505 -0.023289036 -0.033929244 -0.0029252153 0.017342903
0.0017296458 -0.01774307 -0.006341982 0.002379629 0.007862008 -0.008668214 0.0062574 -0.013059249
-0.0054985816 0.010337316 0.010292471 0.02665225 0.024538623 -0.0010181462 -0.02473924 0.007287779
-0.021309225 -0.00086050085 0.008222219 -0.019373372 0.013970226 -0.019689877 0.019729318 0.0121359
-0.005395978 0.0068576033 0.0023044106 -0.019380642 -0.014061698 -0.007914716 0.024102602 -0.00955262
0.00019761352 -0.003654737 0.014552214 0.0100953095 0.0012078492 -0.01771188 -0.008669205 0.0032636253
-0.017423058 0.009350595 -0.011331758 -0.009274697 0.018807737 -0.0036897417 0.023066593 -0.012297071
0.019682098 0.015091908 0.013521561 0.015958259 0.018485658 -0.007893228 -0.011051382 -0.009562091
-0.006065495 0.0061762733 0.0150857335 -0.01944206 0.009644239 -0.026791366 0.0018364097 0.002786724
0.01903264 -0.02344808 -0.0010977632 -0.0027571344 0.02036362 -0.00039276617 -0.01525575 -0.0031411317
-0.013265012 -0.014653466 -0.016439611 0.00790332 0.002947075 0.009939347 0.026580533 0.011796171
0.00058614294 -0.004486045 -0.02006909 0.021717796 0.010340631 0.0017270065 0.021383572 0.033779014
0.012411097 0.0048268773 -0.0051945024 -0.008127517 0.022650871 0.023934236 -0.01848661 -0.018276908
0.0017342521 -0.007773657 0.019721435 0.01193558 0.006903216 0.0081324885 -0.003349248 0.0067073214
0.0010625045 0.010097316 0.012607007 -0.013063155 -0.0035774552 0.013308187 0.00893458 0.004286487
-0.022301741 -0.012702288 0.0001315497 -0.00042803027 -0.015662936 -0.030128691 0.0066228365 0.00603614
0.026801595 -0.0201753 -0.0016087864 0.004087116 -0.010597879 0.006304991 0.026391182 -0.023514744
00000000: 93e4 d7bb 6d33 13bc d6df a6bb 45b6 723c
00000010: fa2f 763c 4fd1 963b 84f5 50bc ad89 0e3c
00000020: 25fa 7f3c 3576 a4ba e0fb 83bc 6091 893c
00000030: ce50 17bb d883 edbb 7c5a b5bc 48f7 be3c
00000040: 6080 dc3b 55de a4bb a169 b2bc 4d37 6bbc
00000050: 3dc2 8abb 2c14 163c 1255 a73c 4474 ecb7
00000060: 43a5 453c de93 71bc 5fec babc 90d6 c4bc
00000070: 7378 a4bb 4974 fa3c 9d16 0abc 127f 46ba
00000080: 4552 0b3c 0488 79bc afd0 26bc abdf ce3c
00000090: 748b e03b 33be 793c 1eac 0cbc 76ab 943c
000000a0: 47c6 6ebc fa0e 403c 4e6e 9abc cc88 f93b
000000b0: ad0b 79bc a25d a2bc 61ac 4bbc 5d3f 50bc
000000c0: b8a0 b339 ce2b d8bb ff27 8d3c 18f4 ac3b
000000d0: 3ad4 91bc 9cb6 9dbc e0ec c03b d28d 18bc
000000e0: c60d 743c 6e65 baba b9cf 8ebc c7e0 79bc
000000f0: 71fe a5bc e072 393b 2b20 8dbc 6045 cd3c
00000100: ca59 90bc e6ea 63bc 16be 86bc f934 363c
00000110: 0bc3 38bc a74a 743c 0761 a13b d320 b03c
00000120: 298c 913b 3487 bebc 9cb7 55bc ec6a 0ebc
00000130: 26aa 10bc 01e0 613c 9308 73bc 9dbb 883c
00000140: 2245 01bd 003b a6bc 4793 423c 334f b33c
00000150: 4461 68ba 0df2 0dbd 3520 46bc 266e 993c
00000160: 339c 8ebb 7a09 e9ba 0839 693c 2dd8 92bc
00000170: 0617 2abc 6dd6 3c3b 29ba 8d3c ec07 cfbb
00000180: 76ca 91bc 95cd d6bc 1c2f dcbc aa8f 07bc
00000190: 4f6b 40bd 3318 13bc f27e 04bd a483 823b
000001a0: dd0b 743b ef92 243c 0cb9 cd3c 93bd 50bd
000001b0: f05a eb3b 3385 eebb d03f 3e3d e76d a13a
000001c0: 6ab4 c33b 9efc c23c 5099 fbbb 3595 c5ba
000001d0: c1e9 133c 3fa7 73bb 58b8 9dbc 5a55 2ebc
000001e0: 905f 35bc b476 70bd 21b3 54bc f670 c2bc
000001f0: a6c8 bebc 64f9 0abd f8b4 3fbb b412 8e3c
00000200: 48b5 e23a ea59 91bc 67d0 cfbb 8df3 1b3b
00000210: a7cf 003c 2005 0ebc e00a cd3b 76f6 55bc
00000220: 722d b4bb d95d 293c c1a1 283c d255 da3c
00000230: 3905 c93c 5173 85ba f2a9 cabc 52ce ee3b
00000240: af90 aebc 3c93 61ba 7cb6 063c e8b4 9ebc
00000250: 60e3 643c aa4c a1bc 619f a13c a7d5 463c
00000260: bfd0 b0bb bfb5 e03b 9805 173b 27c4 9ebc
00000270: 0963 66bc baac 01bc d272 c53c 9882 1cbc
00000280: 7a36 4f39 5084 6fbb 696c 6e3c cc66 253c
00000290: b250 9e3a 8118 91bc 4809 0ebc 8ce2 553b
000002a0: cdba 8ebc 3d33 193c d7a8 39bc e6f4 17bc
000002b0: af12 9a3c 98cf 71bb 27f6 bc3c a779 49bc
000002c0: 5a3c a13c 0d44 773c 8a89 5d3c e5ba 823c
000002d0: 3c6f 973c 9952 01bc db10 35bc 51aa 1cbc
000002e0: 0fc1 c6bb 5662 ca3b 272a 773c f444 9fbc
000002f0: df02 1e3c 9179 dbbc afb3 f03a 78a1 363b
00000300: 57ea 9b3c 3016 c0bc d2e2 8fba 0ab1 34bb
00000310: 9bd1 a63c 2fec cdb9 41f3 79bc 72db 4dbb
00000320: 7e55 59bc 1715 70bc 5dac 86bc ed7c 013c
00000330: b723 413b a5d8 223c 6bbf d93c ba44 413c
00000340: 63a7 193a acff 92bb ef67 a4bc 85e9 b13c
00000350: c06b 293c b95c e23a 9a2c af3c dd5b 0a3d
00000360: ea57 4b3c c82a 9e3b a536 aabb 4729 05bc
00000370: 528e b93c bb11 c43c 3b71 97bc 74b9 95bc
00000380: d84f e33a 29ba febb d98e a13c 738d 433c
00000390: 5f34 e23b 213e 053c 0f7f 5bbb 17c9 db3b
000003a0: bc43 8b3a 366f 253c 9f8d 4e3c d806 56bc
000003b0: bd73 6abb 950a 5a3c 5862 123c a975 8c3b
000003c0: 24b2 b6bc 421d 50bc 9bf0 0939 4069 e0b9
000003d0: 8f4f 80bc 72d0 f6bc 6104 d93b d0ca c53b
000003e0: 058f db3c ac46 a5bc eadd d2ba 37ed 853b
000003f0: baa2 2dbc 199a ce3b 5232 d83c fea1 c0bc

Const_7 f4 [32]
-0.0022485822 0.033723924 0.0008990873 -0.036929246 0.0061860066 0.26046395 0.03462117 0.017364394
-0.024032975 0.0056415657 0.26201096 -0.0013417313 0.05897714 0.2988317 0.26164496 0.035898738
0.013938261 0.3120755 0.036578402 0.03246303 0.30349123 0.041044183 0.00021078564 0.026138254
0.09018581 0.26536003 0.0020753138 0.26266658 0.25380206 0.024112115 -0.001728893 -0.0020039966
00000000: f35c 13bb 1922 0a3d bab0 6b3a 1f43 17bd
00000010: fcb3 ca3b 885b 853e eece 0d3d c63f 8e3c
00000020: cde0 c4bc e2dc b83b 4d26 863e 08dd afba
00000030: 0392 713d 7800 993e 54f6 853e 8e0a 133d
00000040: 4e5d 643c 5cc8 9f3e 3cd3 153d f4f7 043d
00000050: 3463 9b3e f21d 283d 5706 5d39 e41f d63c
00000060: 57b3 b83d 45dd 873e fd01 083b 3c7c 863e
00000070: 58f2 813e c586 c53c 069c e2ba 7c55 03bb

Const_6 f4 [32]
1.0041353 1.031933 1.0002083 0.95042634 1.00192 1.2475423 1.0672917 1.0256615
0.9834585 1.0068334 1.262046 1.001925 1.07684 1.3394618 1.2371848 1.0405874
1.0141413 1.3762467 1.086915 1.0377489 1.3363422 1.0616925 1.0067674 1.0222881
1.0695214 1.2668688 1.0016824 1.2627673 1.2530826 1.0343217 0.9986141 0.99817145
00000000: 8187 803f 6116 843f d306 803f 244f 733f
00000010: ea3e 803f 77af 9f3f 049d 883f e048 833f
00000020: f0c3 7b3f ebdf 803f b98a a13f 143f 803f
00000030: e5d5 893f 7c73 ab3f 125c 9e3f f831 853f
00000040: 62cf 813f da28 b03f 0820 8b3f f5d4 843f
00000050: 430d ab3f 8ae5 873f c1dd 803f 56da 823f
00000060: 14e6 883f c228 a23f 2137 803f 5ca2 a13f
00000070: 0365 a03f a764 843f 2ca5 7f3f 2a88 7f3f

Const_5 f4 [32]
0.044090066 0.12386466 0.11281338 0.15755682 0.09828423 0.068141155 -0.010194512 -0.059327498
-0.16140883 0.1206221 0.104025975 0.058467142 0.056853097 0.09987246 0.09967626 -0.08100642
-0.1179774 -0.04192494 0.11164508 0.11416335 0.041533887 0.13831879 0.09990076 -0.077206194
0.16411513 -0.085156396 -0.1587668 0.1471654 0.033093687 -0.009179498 -0.07195582 -0.015259218
00000000: c997 343d c1ac fd3d b40a e73d 9356 213e
00000010: 3e49 c93d 978d 8b3d e206 27bc 6401 73bd
00000020: 5b48 25be b808 f73d 920b d53d 3e7b 6f3d
00000030: cbde 683d ef89 cc3d 1123 cc3d b2e6 a5bd
00000040: 239e f1bd 7cb9 2bbd 2da6 e43d 79ce e93d
00000050: 701f 2a3d 71a3 0d3e c598 cc3d 481e 9ebd
00000060: cc0d 283e 7a66 aebd c493 22be 87b2 163e
00000070: 3f8d 073d 9b65 16bc 935d 93bd cd01 7abc

Const_3 f4 [32]
0.0056009563 -0.0118116345 -0.010090934 -0.005139349 0.07821109 0.0035859938 0.019765139 0.0063591204
0.017174954 -0.0048671616 0.033247195 -0.019859761 -0.011753117 0.013165296 0.033670783 -0.005357993
0.015077621 0.02347479 0.0018069783 0.020891726 -0.008931673 0.03509926 -0.012107874 0.0029103633
0.012121086 0.046077795 -0.012056264 -0.005637055 -0.0036839587 0.07793407 -0.007494209 0.0117554525
00000000: 3a88 b73b 9685 41bc 7254 25bc fc67 a8bb
00000010: 232d a03d fe02 6b3b 80ea a13c 2b60 d03b
00000020: 7db2 8c3c b67c 9fbb 362e 083d f0b0 a2bc
00000030: 2590 40bc 41b3 573c 60ea 093d 1a92 afbb
00000040: 2008 773c 344e c03c 21d8 ec3a 2025 ab3c
00000050: 2756 12bc 3ec4 0f3d 1b60 46bc cbbb 3e3b
00000060: 8597 463c 12bc 3c3d a387 45bc 0bb7 b8bb
00000070: 926e 71bb e69b 9f3d fb91 f5bb f199 403c

Const_2 f4 [32]
1.0148237 0.99758995 0.99423057 0.9920835 1.0704622 0.9801678 0.99825555 0.9717216
1.0057532 0.9998837 1.0150852 0.98585683 0.9975101 0.9588218 1.0300784 0.9947439
1.0049827 1.0330441 0.9829033 1.0006747 0.9930021 1.0460438 0.99863267 0.9964677
0.96997595 1.0297922 0.99805343 0.9961262 0.9944964 1.0588492 0.99263024 1.015131
00000000: bee5 813f 0e62 7f3f e585 7e3f 2ff9 7d3f
00000010: e804 893f 47ec 7a3f ad8d 7f3f bfc2 783f
00000020: 85bc 803f 61f8 7f3f 50ee 813f 1d61 7c3f
00000030: d25c 7f3f 5875 753f 9cd9 833f 89a7 7e3f
00000040: 46a3 803f ca3a 843f 8d9f 7b3f 1c16 803f
00000050: 6335 7e3f c3e4 853f 64a6 7f3f 8218 7f3f
00000060: 5850 783f 3bd0 833f 6e80 7f3f 2002 7f3f
00000070: 5197 7e3f 5f88 873f 041d 7e3f d0ef 813f

Const_1 f4 [32]
-0.014748239 -0.002372167 0.018224696 0.015709674 0.008719899 -0.00059839524 -0.026421268 -0.015482183
-0.019713389 0.006327197 -0.013293496 -0.022846123 0.0042205285 0.024159841 -0.006776727 -0.0021980929
0.017589584 0.008062307 -0.009640479 -0.013373736 0.011678562 -0.011323784 -0.022600008 -0.02663193
0.022027625 -0.016945492 0.010817663 -0.01970487 0.009616109 -0.015934788 -0.020875055 -0.0016103089
00000000: 99a2 71bc 5c76 1bbb f54b 953c 93b1 803c
00000010: e8dd 0e3c a0dd 1cba 6a71 d8bc fba8 7dbc
00000020: f97d a1bc 6054 cf3b f7cc 59bc cb27 bbbc
00000030: 5c4c 8a3b dcea c53c 4e0f debb e10d 10bb
00000040: 0818 903c c417 043c 1af3 1dbc 841d 5bbc
00000050: 7057 3f3c 6487 39bc a723 b9bc 352b dabc
00000060: 4773 b43c 46d1 8abc 913c 313c 1c6c a1bc
00000070: e28c 1d3c ac89 82bc 2a02 abbc 0011 d3ba
