en/hola_casita/Hola_casita.onnx (onnx, 205655 bytes, 9 tensors)

const_fold_opt__23 f4 [32, 1]
0.14529645 -0.4558484 0.18797265 0.18341564 0.17182714 0.11669202 0.05902301 -0.1210287
-0.12583247 0.1074982 0.08305766 0.13305247 -0.08801836 0.20994748 -0.013771481 -0.024432465
-0.14382826 -0.410243 0.1644432 0.17897917 -0.35555798 0.19119693 -0.02703259 -0.41037837
0.02677038 0.09714173 -0.35590205 0.15042393 -0.006723354 -0.11766482 0.18578325 0.23237117
00000000: 98c8 143e f664 e9be e77b 403e 4fd1 3b3e
00000010: 74f3 2f3e 3afc ee3d 1dc2 713d e5dd f7bd
00000020: 3ada 00be 0428 dc3d 221a aa3d e83e 083e
00000030: f842 b4bd 79fc 563e c7a1 61bc 9826 c8bc
00000040: b747 13be 5f0b d2be cc63 283e 5146 373e
00000050: b20b b6be 21c9 433e 7373 ddbc 1d1d d2be
00000060: 8e4d db3c 3ef2 c63d cb38 b6be bb08 1a3e
00000070: 954f dcbb 41fa f0bd f73d 3e3e b5f2 6d3e

const_fold_opt__22 f4 [32, 32]
0.113143854 -0.13775153 0.006502848 -0.030987142 0.06856725 0.1628573 0.1662561 0.0056812936
0.09461765 0.13873874 0.14143293 -0.17057991 -0.1681092 -0.13357538 -0.045058545 -0.015055479
0.0721972 0.0117211575 0.12290568 -0.11357566 0.035057463 -0.16011922 0.07219715 -0.025294736
-0.13680309 0.08158818 0.1606668 0.09226252 0.1439516 0.15356441 -0.089347936 -0.06252233
-0.0714762 0.17977706 0.07687045 -0.07499902 0.13541052 -0.12602615 0.010120208 0.1243766
0.14633796 -0.12711789 0.13263437 -0.11505298 -0.032290645 -0.16728047 0.027146863 0.05832005
-0.08230352 0.14541586 -0.008053093 -0.16823815 0.027715534 0.07672683 0.12207825 0.035684094
0.10096463 -0.028686397 -0.07939401 0.078526214 0.08304769 -0.024252785 -0.10296727 -0.1491181
-0.054157797 -0.038712822 0.12105839 0.08707823 0.057586204 0.09786739 -0.13167842 -0.11453764
-0.06348806 0.14064032 0.024222894 0.11804386 0.094348036 -0.14481363 -0.048844356 0.09545028
0.03692937 0.10237267 -0.033598028 0.03524713 0.06606447 0.14115845 -0.12725297 0.09139367
0.11314788 0.046264306 0.17197026 -0.16113028 -0.07446029 -0.007982324 0.09913577 -0.13639934
0.18814965 0.016995193 0.09096372 0.06127867 0.19263189 -0.042285796 -0.024294294 0.047022812
-0.025550105 0.16378678 -0.037698943 0.09912332 0.0071498146 0.12614413 -0.008725655 0.16990662
-0.14060576 0.049015395 0.17676438 0.21006143 -0.16986181 0.20320569 0.13766651 0.021220196
0.12823243 -0.1176984 -0.058457077 0.06161476 -0.07834379 -0.032887544 -0.039562937 0.07034962
-0.027011756 0.06936292 0.056898575 -0.13754548 0.14820515 -0.07984863 0.024655806 -0.120766364
0.08842974 -0.028172206 0.0047484403 -0.0082468605 0.106784634 0.02257213 0.024914358 0.07132769
-0.14679597 -0.08923437 -0.13338682 -0.15905152 0.042987503 -0.0446901 -0.048015457 0.07268848
-0.15670158 -0.116147764 -0.037670013 -0.07010799 0.088791326 -0.09943329 0.097151324 0.078703955
0.08008822 -0.14532717 0.053958822 -0.0640343 -0.1495995 0.106114954 -0.116763815 -0.0161644
-0.13493782 -0.07282618 0.14968613 0.0277987 -0.05921263 0.11493238 -0.07970963 -0.15166649
0.007895267 0.100942515 0.12799996 -0.02168592 -0.11408149 -0.018359186 -0.026189212 -0.077954546
0.12832685 0.10549557 -0.13800935 -0.03440914 0.01905413 -0.103366375 0.102477744 -0.10586895
0.03638904 -0.105242565 0.0002882954 -0.12349519 0.040091664 0.15557808 0.0071641263 -0.0111063775
-0.14412358 -0.1770447 0.0074140895 0.0053213104 -0.115140855 0.16705035 0.071984135 0.058845855
-0.014883561 0.16655444 -0.17514895 0.12422822 -0.06683043 0.041013543 0.13575803 0.17511643
-0.12329985 0.010130034 0.15788741 0.027465243 -0.13643785 -0.13279267 -0.1360809 -0.11810844
0.055958796 -0.031135252 0.05882014 -0.06449252 -0.13051763 0.20047487 -0.028904008 -0.055556297
-0.14270277 -0.1455582 0.053260345 0.020735638 0.048133515 0.07861151 -0.004572279 0.01512614
0.074209034 -0.19972467 0.0016843613 0.1719464 0.13959663 -0.13722347 -0.06812091 0.025485406
0.10662578 -0.07134439 0.084263705 0.12729698 0.10109005 0.0843663 0.16883886 0.20494643
00000000: f7b7 e73d bd0e 0dbe d815 d53b bfd8 fdbc
00000010: fd6c 8c3d 10c4 263e 0a3f 2a3e 252a ba3b
00000020: e6c6 c13d 8711 0e3e cbd3 103e 80ac 2ebe
00000030: d124 2cbe fcc7 08be 4f8f 38bd 41ab 76bc
00000040: 20dc 933d 190a 403c f9b5 fb3d 5b9a e8bd
00000050: 6a98 0f3d 4bf6 23be 19dc 933d e836 cfbc
00000060: 1c16 0cbe b417 a73d d685 243e 22f4 bc3d
00000070: 0c68 133e fd3f 1d3e 0dfc b6bd b50b 80bd
00000080: 1d62 92bd 7a17 383e 416e 9d3d 1699 99bd
00000090: 0ea9 0a3e 000d 01be 3bcf 253c 29b9 fe3d
000000a0: 9ed9 153e 312b 02be 4ed1 073e e6a0 ebbd
000000b0: 3243 04bd 924b 2bbe 1963 de3c 01e1 6e3d
000000c0: bf8e a8bd e5e7 143e 1ff1 03bc 9f46 2cbe
000000d0: b00b e33c f522 9d3d 2904 fa3d 7c29 123d
000000e0: 8bc6 ce3d bcff eabc 5499 a2bd 5ad2 a03d
000000f0: e814 aa3d c7ad c6bc 81e0 d2bd 6ab2 18be
00000100: 91d4 5dbd 5691 1ebd 76ed f73d 1256 b23d
00000110: 83df 6b3d b36e c83d b5d6 06be b692 eabd
00000120: 0706 82bd 0404 103e 176f c63c fbc0 f13d
00000130: 8b39 c13d 064a 14be 0511 48bd 707b c33d
00000140: 4043 173d c3a8 d13d 169e 09bd 4b5f 103d
00000150: cf4c 873d d78b 103e 9a4e 02be 9b2c bb3d
00000160: 13ba e73d a47f 3d3d f918 303e 56ff 24be
00000170: a37e 98bd 4bc8 02bc b207 cb3d 45ac 0bbe
00000180: 4daa 403e 8139 8b3c 304b ba3d 58ff 7a3d
00000190: 4b41 453e df33 2dbd d404 c7bc fe9a 403d
000001a0: 744e d1bc b9b7 273e 356a 1abd 2b01 cb3d
000001b0: fe48 ea3b ed2b 013e 0df6 0ebc 00fc 2d3e
000001c0: f5fa 0fbe 5ec4 483d b901 353e 581a 573e
000001d0: 41f0 2dbe 2715 503e 73f8 0c3e fad5 ad3c
000001e0: 5d4f 033e dc0b f1bd b070 6fbd c25f 7c3d
000001f0: b572 a0bd 17b5 06bd bf0c 22bd 7613 903d
00000200: c247 ddbc 260e 8e3d 7b0e 693d b9d8 0cbe
00000210: 17c3 173e ae87 a3bd f9fa c93c 5b54 f7bd
00000220: a71a b53d 66c9 e6bc ce98 9b3b d71d 07bc
00000230: e7b1 da3d 30e9 b83c 3219 cc3c 4014 923d
00000240: af51 16be 82c0 b6bd 8e96 08be 67de 22be
00000250: aa13 303d f70c 37bd dbab 44bd b3dd 943d
00000260: 6176 20be e1de edbd df4b 1abd c794 8fbd
00000270: 3ad8 b53d aea3 cbbd 46f7 c63d 8a2f a13d
00000280: 4b05 a43d a5d0 14be ed03 5d3d 6a24 83bd
00000290: 9c30 19be cc52 d93d de21 efbd 346b 84bc
000002a0: 242d 0abe e425 95bd 5247 193e 19ba e33c
000002b0: f188 72bd ab61 eb3d cd3e a3bd 764e 1bbe
000002c0: 265b 013c f3ba ce3d 6c12 033e aca6 b1bc
000002d0: 8ea3 e9bd 0166 96bc c28a d6bc a2a6 9fbd
000002e0: 1d68 033e 100e d83d 5352 0dbe 99f0 0cbd
000002f0: 6817 9c3c c0b1 d3bd dadf d13d d2d1 d8bd
00000300: ad0c 153d 6a89 d7bd 5b26 9739 0ceb fcbd
00000310: 2837 243d dc4f 1f3e 0cc1 ea3b 86f7 35bc
00000320: 2295 13be 354b 35be e4f1 f23b 635e ae3b
00000330: f8ce ebbd 3f0f 2b3e 6b6c 933d 5a08 713d
00000340: 2eda 73bc 3f8d 2a3e 3f5a 33be 5d6b fe3d
00000350: 64de 88bd d1fd 273d 2704 0b3e b951 333e
00000360: a284 fcbd 71f8 253c 3dad 213e cafe e03c
00000370: 5db6 0bbe cdfa 07be cb58 0bbe d6e2 f1bd
00000380: 0d35 653d 5b0f ffbc 63ed 703d a814 84bd
00000390: 6aa6 05be 4949 4d3e 19c8 ecbc 008f 63bd
000003a0: ad20 12be 350d 15be 8527 5a3d c9dd a93c
000003b0: a627 453d 12ff a03d 0ed3 95bb a1d3 773c
000003c0: e8fa 973d a084 4cbe c9c5 dc3a b812 303e
000003d0: 6bf2 0e3e 4f84 0cbe fa82 8bbd c5c6 d03c
000003e0: 9e5e da3d 021d 92bd 7392 ac3d 245a 023e
000003f0: 4d08 cf3d 3dc8 ac3d 18e4 2c3e 7add 513e

const_fold_opt__21 f4 [1536, 32]
-0.007590087 -0.0153201185 0.026368612 0.014993791 0.008568131 -0.009283887 -0.012707958 0.015138637
0.0092591345 0.016717361 -0.011303042 0.0018705177 -0.017718656 -0.019198554 -0.015490793 0.01623434
0.006073586 0.020293873 -0.008589705 -0.018027345 -0.0052169506 -0.011905922 0.01745864 0.0077450536
0.033647854 0.018640889 -0.01051665 0.012212607 -0.011719618 -0.010543997 -0.009355422 -0.007958487
0.004839808 -0.006803067 -0.021451356 -0.0042712395 -0.018676013 0.018531095 0.024130411 0.0038224405
0.013941034 0.01732495 -0.0067626764 -0.023651892 -0.024934571 0.0065948726 -0.022387868 -0.0036535272
0.019225126 -0.018250415 0.008479127 0.014599857 0.018272161 -0.008377195 0.00989592 0.009329567
-0.017608264 -0.024043145 0.02488375 -0.010741467 -0.008881048 -0.0016477418 0.005918256 0.021392254
0.00041624697 -0.0021600698 0.000636926 0.0044515217 -0.005981557 0.011831492 0.0055903923 0.022333603
0.010400462 0.021840015 -0.008579196 0.022553908 -0.002161107 0.006928546 -0.02319134 -0.004853188
0.012873743 -0.007910964 -0.008037004 -0.01818305 0.0059413626 -0.0051072333 0.012319259 0.027989166
-0.0007617586 -0.02187059 -0.012381097 0.011603282 0.00862978 0.010963068 0.0147492485 0.00035644075
-0.04040044 0.032058578 0.015416833 -0.044167124 0.040873535 -0.0037538616 -0.005108843 -0.01888871
0.039269295 -0.006888591 0.0019730811 -0.026310846 -0.010463547 0.012776119 -0.014289111 -0.0068212403
-0.012992678 -0.016879277 -0.009207314 -0.014577162 -0.03213895 0.021163689 -0.03598232 0.027795313
0.003720701 -0.011977616 0.0030348268 -0.00080039405 -0.009443182 0.0071867937 -0.04045632 -0.004731574
0.02301547 -0.0061713746 -0.006006334 0.023666231 -0.0231964 -0.010110632 0.0026036762 0.026383897
-0.01885834 0.0081144795 0.0040543787 -0.0048947036 0.020244563 -0.0027916415 0.019058358 -0.0032511884
-0.018604266 0.03924726 0.016119443 0.004285457 0.03131958 -0.028861916 0.038948905 -0.021500126
0.0035517265 -0.0025404952 0.023277547 0.0085308105 0.03991932 -0.019390283 0.0067224978 0.0030160379
-0.0018883483 0.006821594 0.007421088 -0.009788189 -0.009997773 0.0066119116 -0.013566037 -0.0076629897
1.921176e-05 0.0072691855 -0.020235263 -0.02205848 0.007989189 -0.013451082 -0.0018578068 0.021995967
0.014781184 0.017788831 0.01334604 -0.007598365 -0.012160267 0.020570917 0.0005240839 0.012326722
0.0056367144 0.012758657 0.009136244 0.021375675 0.004448466 0.025263984 0.008079312 -0.005012876
-0.023570986 -0.007914617 -0.023016555 0.004758526 -0.0026337295 0.02233194 -0.023655364 -0.007845881
0.012183463 -0.0049616145 0.017606422 -0.0012530906 -0.018325903 -0.0013208238 -0.018662352 0.010932476
0.0012031016 -0.007846077 0.00069543894 -0.028046096 0.0071186638 -0.004416676 -0.018147968 -0.0113098165
0.0216439 -0.01823389 -0.004570071 0.0085179815 0.010119672 -0.020406907 0.0032367986 -0.0140790725
-0.0061236895 -0.018663956 -0.02301822 0.018458141 -0.027845997 -0.022752907 -0.0064205388 0.026806686
0.015664637 -0.007067634 -0.0030091347 -0.018514996 -0.025387479 -0.001863854 0.032552145 -0.0089015355
0.00039682668 0.030137122 0.008104482 4.124482e-05 0.019304916 -0.040912867 0.014314246 0.008063011
-0.027301213 0.02259916 0.00831557 0.014126506 -0.0069583477 -0.009445446 -0.0043239384 -0.008924096
00000000: 44b6 f8bb 3c01 7bbc fd02 d83c 84a8 753c
00000010: 5961 0c3c 721b 18bc 0a35 50bc 0c08 783c
00000020: a0b3 173c d9f2 883c 6530 39bc 292c f53a
00000030: b726 91bc 4946 9dbc 18cd 7dbc e1fd 843c
00000040: ef04 c73b 563f a63c d6bb 0cbc 15ae 93bc
00000050: f4f2 aabb 0e11 43bc 6c05 8f3c 38ca fd3b
00000060: 55d2 093d c7b4 983c 074e 2cbc 6317 483c
00000070: a403 40bc bbc0 2cbc 7c47 19bc 5064 02bc
00000080: 4197 9e3b 43ec debb c1ba afbc c1f5 8bbb
00000090: 70fe 98bc 86ce 973c 24ad c53c e981 7a3b
000000a0: ef68 643c 0eed 8d3c 7199 ddbb 9dc1 c1bc
000000b0: 9643 ccbc cd19 d83b c366 b7bc 0470 6fbb
000000c0: 037e 9d3c e581 95bc 09ec 0a3c 3d34 6f3c
000000d0: 80af 953c 8140 09bc 7f22 223c 0adb 183c
000000e0: 353f 90bc 21f6 c4bc 02d9 cb3c fafc 2fbc
000000f0: d181 11bc 0af9 d7ba eeed c13b cf3e af3c
00000100: b93b da39 f58f 0dbb 61f7 263a 12de 913b
00000110: f000 c4bb e0d8 413c 9c2f b73b f6f4 b63c
00000120: b366 2a3c d5e9 b23c c28f 0cbc f9c2 b83c
00000130: 5ca1 0dbb db08 e33b c4fb bdbc 7e07 9fbb
00000140: 64ec 523c fd9c 01bc a3ad 03bc 9ff4 94bc
00000150: c3af c23b 945a a7bb b8d6 493c 8949 e53c
00000160: c1b0 47ba f429 b3bc 16da 4abc b11b 3e3c
00000170: ec63 0d3c 719e 333c d5a6 713c abe0 ba39
00000180: ef7a 25bd db4f 033d e296 7c3c 96e8 34bd
00000190: 026b 273d 5903 76bb 1568 a7bb 7fbc 9abc
000001a0: d7d8 203d b1b9 e1bb cf4e 013b d889 d7bc
000001b0: 4c6f 2bbc ed52 513c e01c 6abc b684 dfbb
000001c0: 3edf 54bc 6946 8abc 46da 16bc 0dd5 6ebc
000001d0: 22a4 03bd 795f ad3c 3262 13bd ffb2 e33c
000001e0: 01d7 733b c33d 44bc f2e3 463b 89d1 51ba
000001f0: 93b7 1abc 327f eb3b 87b5 25bd 520b 9bbb
00000200: f08a bc3c 3e39 cabb c8d0 c4bb afdf c13c
00000210: 6006 bebc 10a7 25bc 70a2 2a3b 0b23 d83c
00000220: ce7c 9abc 98f2 043c 98da 843b c063 a0bb
00000230: edd7 a53c f9f3 36bb 4620 9c3c e411 55bb
00000240: f967 98bc bcc1 203d ec0c 843c 056d 8c3b
00000250: f648 003d d36f ecbc e388 1f3d 0821 b0bc
00000260: 15c4 683b 707e 26bb 8eb0 be3c d0c4 0b3c
00000270: 7182 233d 5fd8 9ebc 6648 dc3b b8a8 453b
00000280: 7482 f7ba ae87 df3b 992c f33b a45e 20bc
00000290: b3cd 23bc bca8 d83b 1544 5ebc d119 fbbb
000002a0: f128 a137 5932 ee3b 6cc4 a5bc fcb3 b4bc
000002b0: 16e5 023c ed61 5cbc a781 f3ba e330 b43c
000002c0: c72c 723c e2b9 913c 59a9 5a3c b5fb f8bb
000002d0: db3b 47bc 5784 a83c ad62 093a 05f6 493c
000002e0: 30b4 b83b b009 513c 2fb0 153c 0a1c af3c
000002f0: 70c4 913b 6af6 ce3c 175f 043c 0d43 a4bb
00000300: f117 c1bc 4fac 01bc 378d bcbc 69ed 9b3b
00000310: a69a 2cbb 79f1 b63c e5c8 c1bc 038c 00bc
00000320: 269d 473c 0a95 a2bb 583b 903c be3e a4ba
00000330: 3420 96bc 7e1f adba cae1 98bc 211e 333c
00000340: 64b1 9d3a d58c 00bc 1e4e 363a edc0 e5bc
00000350: ae43 e93b c3b9 90bb 0cab 94bc cf4c 39bc
00000360: 8c4e b13c 3d5f 95bc 89c0 95bb 018f 0b3c
00000370: fbcc 253c 632c a7bc 7820 543b e9ab 66bc
00000380: 3ba9 c8bb 27e5 98bc b590 bcbc 8735 973c
00000390: 4a1d e4bc 4e64 babc 6263 d2bb b299 db3c
000003a0: 2053 803c 9c97 e7bb e734 45bb c3ac 97bc
000003b0: 67f9 cfbc 904c f4ba 6655 053d bfd7 11bc
000003c0: 2d0d d039 20e2 f63c a9c8 043c 4afe 2c38
000003d0: 5825 9e3c 4094 27bd 4d86 6a3c b81a 043c
000003e0: cba6 dfbc e021 b93c 073e 083c dc72 673c
000003f0: da02 e4bb 12c1 1abc d3af 8dbb 5f36 12bc

Const_7 f4 [32]
0.036296837 0.29717723 -0.007198397 0.015456958 0.0036869228 -0.0008945981 0.00438707 0.09750406
0.0677613 -0.0039370973 -0.010618968 -0.010149839 0.021039935 0.016878268 0.041411363 0.05068682
-0.004437282 0.43717098 0.012543762 0.0036279985 0.30091494 0.018626701 0.051666766 0.29594466
-0.0018970192 -0.017289197 0.3049954 0.03981856 0.01396699 -0.021784773 0.006595088 0.011963104
00000000: feab 143d 9d27 983e 88e0 ebbb 2e3f 7d3c
00000010: 4da0 713b 7683 6aba 69c1 8f3b 35b0 c73d
00000020: 70c6 8a3d c402 81bb 2efb 2dbc 834b 26bc
00000030: f15b ac3c 4b44 8a3c f69e 293d fc9c 4f3d
00000040: 9f66 91bb e0d4 df3e 5a84 4d3c b7c3 6d3b
00000050: 8611 9a3e 0697 983c 88a0 533d 0f86 973e
00000060: 67a5 f8ba 13a2 8dbc 5b28 9c3e c918 233d
00000070: cdd5 643c fb75 b2bc 9c1b d83b e500 443c

Const_6 f4 [32]
1.0528374 1.3152324 1.0141368 1.0232487 1.0114454 1.0141019 1.005447 1.0571946
1.0263962 1.0163614 0.9954479 1.00843 0.99863577 1.070487 1.0159688 1.0254943
0.99422365 1.5491955 1.0438728 1.0510138 1.2811134 1.0339825 1.0294274 1.2985263
1.006382 0.99172467 1.2944852 1.072425 0.99970365 0.98268646 1.036785 1.0571378
00000000: 60c3 863f 8959 a83f 3ccf 813f d0f9 823f
00000010: 0b77 813f 17ce 813f 7db2 803f 2752 873f
00000020: f360 833f 2118 823f acd5 7e3f 3c14 813f
00000030: 98a6 7f3f b805 893f 440b 823f 6643 833f
00000040: 7185 7e3f 0a4c c63f a09d 853f 9f87 863f
00000050: 86fb a33f 8a59 843f 47c4 833f 1c36 a63f
00000060: 20d1 803f abe1 7d3f b1b1 a53f 3945 893f
00000070: 94ec 7f3f 5791 7b3f 5fb5 843f 4b50 873f

Const_5 f4 [32]
0.01487537 -0.108423665 0.09703776 -0.0015877042 0.09258091 0.13372523 -0.13839896 0.031781156
-0.061283585 0.14545146 0.10036436 -0.09928806 -0.115745425 0.17905419 -0.15003961 0.12577006
-0.06284977 -0.16576053 0.00047678355 0.09278826 0.15037797 0.052188244 -0.0662265 -0.039775286
0.1056979 0.014402817 -0.060580745 0.20662683 -0.10416216 -0.06546649 0.03324153 -0.13749634
00000000: d3b7 733c 3a0d debd bcbb c63d 831a d0ba
00000010: 0f9b bd3d 44ef 083e 75b8 0dbe f52c 023d
00000020: 7f04 7bbd 3af1 143e d48b cd3d 8a57 cbbd
00000030: f00b edbd fb59 373e fca3 19be dec9 003e
00000040: 61b7 80bd 21bd 29be cef8 f939 c507 be3d
00000050: affc 193e 57c3 553d c2a1 87bd 69eb 22bd
00000060: 2478 d83d cbf9 6b3c 8423 78bd fc95 533e
00000070: f852 d5bd 4c13 86bd 4528 083d d7cb 0cbe

Const_3 f4 [32]
-0.014974224 0.015992474 -0.026844362 -0.0011334654 0.011005411 -0.012570569 -0.013544291 0.007993173
0.017696239 -0.009907873 0.0066299895 -0.015401837 -0.01798405 0.015033619 -0.00029549413 -0.007837479
-0.045140646 -0.0034922112 -0.015773578 -0.009862509 -0.0039116633 0.021405691 0.00023808409 0.016902298
-0.01589695 -0.014666233 -0.023627106 0.033954617 -0.014772008 -0.013652397 -0.024957137 -0.011658585
00000000: 7356 75bc a602 833c b5e8 dbbc ca90 94ba
00000010: 0a50 343c caf4 4dbc e0e8 5dbc ccf5 023c
00000020: b4f7 903c a254 22bc 6240 d93b fd57 7cbc
00000030: 4953 93bc 914f 763c 8dec 9ab9 c568 00bc
00000040: 66e5 38bd 95dd 64bb 9737 81bc 5c96 21bc
00000050: 692d 80bb fd5a af3c 36a6 7939 b076 8a3c
00000060: 523a 82bc a44a 70bc a28d c1bc ff13 0b3d
00000070: 4b06 72bc 4eae 5fbc e972 ccbc a603 3fbc

Const_2 f4 [32]
0.99821407 1.0362123 0.9875998 1.0285075 0.95144403 0.99117917 0.99077296 0.995194
1.02385 0.99729615 0.97420573 0.9942411 0.9963721 1.008103 1.0107212 0.9821091
0.96307 1.0101657 0.979941 0.98357785 1.0312662 1.0462732 1.0131521 1.0151805
1.0067831 0.98465747 0.9786848 1.0293512 0.97461194 1.006113 0.9856992 0.9886631
00000000: f58a 7f3f 9ba2 843f 57d3 7c3f 22a6 833f
00000010: d691 733f ebbd 7d3f 4ca3 7d3f 09c5 7e3f
00000020: 840d 833f cd4e 7f3f 8c65 793f 9686 7e3f
00000030: 3e12 7f3f 8509 813f 505f 813f 816b 7b3f
00000040: c18b 763f 1c4d 813f 6add 7a3f c2cb 7b3f
00000050: 8800 843f 48ec 853f f8ae 813f 6ff1 813f
00000060: 45de 803f 8312 7c3f 168b 7a3f c8c1 833f
00000070: 2b80 793f 50c8 803f c856 7c3f 0619 7d3f

Const_1 f4 [32]
-0.024490906 -0.011249313 0.023122344 -0.0074275713 0.026956571 0.0039182254 0.016908519 -0.002802698
0.011423787 -0.015057784 -0.014407685 0.02265146 0.0047177467 -0.019524952 -0.01209181 -0.015852684
0.0007364906 0.021506663 -0.011383726 0.024083756 0.02057588 0.032421384 -0.010062321 0.025746379
0.024053559 -0.0057301754 0.021823855 0.0023596964 -0.024842871 -0.023064958 -0.016996145 0.0004747327
00000000: 27a1 c8bc 0a4f 38bc 126b bd3c fc62 f3bb
00000010: 07d4 dc3c 7564 803b bc83 8a3c 78ad 37bb
00000020: d62a 3b3c ecb4 76bc 360e 6cbc 8e8f b93c
00000030: 5497 9a3b cbf2 9fbc ba1c 46bc 7ddd 81bc
00000040: 0c11 413a be2e b03c cf82 3abc 4c4b c53c
00000050: bf8e a83c 49cc 043d 6fdc 24bc 12ea d23c
00000060: f80b c53c 32c4 bbbb f1c7 b23c 23a5 1a3b
00000070: 4783 cbbc b9f2 bcbc 803b 8bbc 8be5 f839
