en/mr_wick/Mr._Wick.onnx (onnx, 205648 bytes, 9 tensors)

const_fold_opt__23 f4 [32, 1]
0.108127594 0.1133709 0.06727292 0.10498414 0.16307034 -0.3604775 -0.34612563 0.06465498
0.03159957 -0.36568594 0.11401357 0.011491643 0.21776955 0.22625886 -0.067235515 -0.37332374
0.05194996 -0.37345245 0.05213348 0.15121178 -0.037834246 0.1281795 -0.008928914 0.23223229
0.053809214 0.01530955 -0.3222856 -0.3087968 -0.3688935 0.008443797 -0.053995054 0.20092756
00000000: 0072 dd3d 012f e83d 62c6 893d ed01 d73d
00000010: e9fb 263e 8290 b8be 6137 b1be d569 843d
00000020: 8d6e 013d 303b bbbe f27f e93d 7247 3c3c
00000030: fbfe 5e3e 67b0 673e c6b2 89bd 4a24 bfbe
00000040: 7bc9 543d 2935 bfbe ea89 553d 43d7 1a3e
00000050: 15f8 1abd 7d41 033e 944a 12bc 4dce 6d3e
00000060: 0d67 5c3d e8d4 7a3c 9e02 a5be 9d1a 9ebe
00000070: 9cdf bcbe da57 0a3c eb29 5dbd f4bf 4d3e

const_fold_opt__21 f4 [32, 32]
-0.08102955 0.03838471 -0.05764667 0.0680254 -0.034130625 -0.011447118 0.014172512 0.048566923
0.14568913 0.030043375 0.0404567 -0.15149935 0.05830582 0.07598147 -0.015075466 0.05104483
-0.11096813 0.06855152 0.13419841 0.11088121 -0.091652304 -0.15013747 0.0036054472 0.1312043
-0.16359288 -0.13710606 0.02786711 0.10791635 -0.114400774 -0.1669394 -0.18314242 0.19702633
-0.0712777 -0.009052859 0.050502144 0.06791371 0.10180794 -0.03799135 -0.15937684 0.017244266
0.089361995 -0.11108198 0.16049357 0.12913835 -0.080863714 0.12957186 -0.07901649 -0.06566635
-0.13365841 0.056828286 0.022429897 -0.018793708 -0.13975598 0.032351907 0.11332406 -0.105465144
-0.052324664 0.08559459 -0.014426026 0.079433784 -0.05516809 0.060658995 -0.0003208468 0.15892951
0.18562736 -0.06620586 0.050240736 0.060094345 0.09941123 0.11365215 0.15358019 0.018625213
-0.054639168 0.07841894 0.087441094 -0.053815298 -0.07749902 0.05036419 -0.06568149 -0.13123068
0.1067796 -0.15080562 0.03459904 0.16546728 -0.12943612 0.05478196 -0.03796159 0.13624802
-0.073451124 0.17684473 0.021671228 -0.07414067 0.08239981 0.14011598 -0.0830607 0.07757838
0.043675076 0.1694956 0.13422303 -0.15808797 -0.17380087 0.14346115 -0.025339523 0.14474283
-0.15849085 -0.040347345 -0.061789732 0.05596526 0.009451704 -0.0016074718 0.14600721 -0.028150385
0.007387577 -0.120028146 0.11619889 -0.08990399 -0.020749854 0.057436623 0.052139103 -0.10207807
-0.14442761 -0.07512093 -0.030384466 -0.0017882684 0.09549689 0.1159299 -0.09908521 0.0030789385
0.071390465 0.08680118 -0.034166705 0.099144146 -0.15659727 0.06936647 0.17282765 -0.08300007
-0.07957427 -0.1612942 0.09441536 0.02729915 -0.13779981 -0.11871159 0.0052095517 0.01707692
0.15230095 -0.14811525 -0.04348344 -0.008038989 0.16448236 -0.06048989 -0.029059617 0.08188892
-0.15149528 -0.15416472 0.030097203 -0.059798226 -0.08969751 -0.16235153 -0.1695382 -0.16683088
0.12344864 -0.13652909 -0.06452717 0.06177521 -0.04606004 -0.030670077 0.08407008 -0.021774214
-0.12271938 -0.17010011 0.004486773 -0.088608064 0.003012547 -0.04643885 0.016965032 -0.16419494
0.012143642 -0.0765458 0.16874929 0.0802472 0.08633088 0.10818022 0.03134992 0.010817338
-0.008238167 0.10363525 -0.08332049 -0.15317924 -0.09847979 -0.06905044 0.10071805 0.01801872
0.08035253 0.12747853 0.0036479179 -0.1440935 0.0014643752 -0.03114618 -0.042827692 0.112751774
-0.16932593 -0.07380772 0.16336799 -0.13177496 -0.008934457 -0.086765185 -0.0501226 0.10419592
0.13901381 -0.1630068 0.077120245 0.16054018 -0.13445754 -0.12465418 0.12572742 0.044962917
-0.13786854 0.1495981 0.07742587 -0.17486776 -0.06911995 0.09311958 -0.0064287195 0.12539722
-0.08856604 -0.15508777 -0.1165645 0.00082738255 0.10565917 -0.035643987 -0.036703818 -0.09960675
0.06834022 -0.11091397 -0.072411545 -0.04103146 -0.13198161 -0.13505143 -0.081216134 0.13211134
0.16230036 -0.18320096 0.09185399 -0.15141115 -0.066041306 -0.0871398 0.15927479 0.1663884
0.11808312 -0.02748658 0.056624454 0.030843252 0.031318236 0.042890992 0.015025687 -0.023246493
00000000: d2f2 a5bd 4939 1d3d ea1e 6cbd e750 8b3d
00000010: 8ecc 0bbd b18c 3bbc d333 683c 1cee 463d
00000020: 882f 153e 861d f63c edb5 253d a522 1bbe
00000030: 15d2 6e3d 2c9c 9b3d 16ff 76bc 6214 513d
00000040: 4243 e3bd bd64 8c3d 4f6b 093e b015 e33d
00000050: 34b4 bbbd a3bd 19be 5e49 6c3b 6c5a 063e
00000060: e484 27be 8865 0cbe 9149 e43c 3f03 dd3d
00000070: f44a eabd 29f2 2abe b089 3bbe 45c1 493e
00000080: 0bfa 91bd 7152 14bc 56db 4e3d 5816 8b3d
00000090: ae80 d03d d19c 1bbd af33 23be d943 8d3c
000000a0: 6c03 b73d f37e e3bd 6d58 243e d83c 043e
000000b0: e09b a5bd 7cae 043e 66d3 a1bd 147c 86bd
000000c0: c0dd 08be c7c4 683d e7be b73c 43f5 99bc
000000d0: 311c 0fbe 6f83 043d 7216 e83d 1cfe d7bd
000000e0: 6352 56bd 374c af3d 235b 6cbc 2eae a23d
000000f0: eff7 61bd 9175 783d 5437 a8b9 6bbe 223e
00000100: 1915 3e3e f096 87bd 3bc9 4d3d 7d25 763d
00000110: 1d98 cb3d 75c2 e83d 2044 1d3e e793 983c
00000120: 52cd 5fbd 1c9a a03d 5114 b33d 6e6d 5cbd
00000130: ceb7 9ebd ae4a 4e3d 0484 86bd 5661 06be
00000140: 43af da3d ca6c 1abe b9b7 0d3d 4170 293e
00000150: e78a 04be 0c63 603d 9d7d 1bbd 9a84 0b3e
00000160: 8b6d 96bd c916 353e dc87 b13c 10d7 97bd
00000170: 3bc1 a83d 907a 0f3e ba1b aabd 6ae1 9e3d
00000180: a3e4 323d 4190 2d3e c371 093e d0e1 21be
00000190: dbf8 31be 7be7 123e d594 cfbc 7737 143e
000001a0: 6d4b 22be 4243 25bd 3b17 7dbd d43b 653d
000001b0: 52db 1a3c ceb1 d2ba ea82 153e a39b e6bc
000001c0: 7d13 f23b 51d1 f5bd aff9 ed3d 951f b8bd
000001d0: 99fb a9bc aa42 6b3d d08f 553d 4f0e d1bd
000001e0: d5e4 13be 01d9 99bd d8e8 f8bc 5564 eaba
000001f0: e093 c33d a86c ed3d 30ed cabd 04c8 493b
00000200: 2a35 923d d1c4 b13d 63f2 0bbd 160c cb3d
00000210: 095b 20be 0210 8e3d bbf9 303e f1fb a9bd
00000220: d6f7 a2bd 4f2a 25be d75c c13d 78a2 df3c
00000230: 651b 0dbe 101f f3bd e3b4 aa3b e6e4 8b3c
00000240: c8f4 1b3e 86ab 17be b11b 32bd f7b5 03bc
00000250: 106e 283e 3fc4 77bd 6f0e eebc 61b5 a73d
00000260: 9421 1bbe 5bdd 1dbe 698e f63c fcee 74bd
00000270: 54b3 b7bd 7b3f 26be 6c9b 2dbe b7d5 2abe
00000280: a4d2 fc3d 48ce 0bbe d226 84bd 0108 7d3d
00000290: 74a9 3cbd d03f fbbc ef2c ac3d d65f b2bc
000002a0: 4c54 fbbd b92e 2ebe c805 933b 2578 b5bd
000002b0: 276e 453b aa36 3ebd 40fa 8a3c b822 28be
000002c0: 20f6 463c 0bc4 9cbd 9dcc 2c3e a558 a43d
000002d0: 3fce b03d 978d dd3d c668 003d 343b 313c
000002e0: 60f9 06bc b83e d43d efa3 aabd 05db 1cbe
000002f0: c6af c9bd 516a 8dbd 4445 ce3d ff9b 933c
00000300: de8f a43d bb89 023e e811 6f3b 3f8d 13be
00000310: 47f0 bf3a 4626 ffbc 176c 2fbd 67ea e63d
00000320: c763 2dbe 8028 97bd f049 273e 04f0 06be
00000330: d461 12bc f2b1 b1bd 5b4d 4dbd ac64 d53d
00000340: a359 0e3e 41eb 26be 38f1 9d3d a564 243e
00000350: 3daf 09be b14a ffbd b0be 003e 092b 383d
00000360: 692d 0dbe 3f30 193e 7491 9e3d 8910 33be
00000370: c38e 8dbd 7ab5 be3d 02a8 d2bb 2168 003e
00000380: 1d62 b5bd 54cf 1ebe 5eb9 eebd b4e4 583a
00000390: d663 d83d 6eff 11bd be56 16bd a0fe cbbd
000003a0: f5f5 8b3d dd26 e3bd 814c 94bd 9b10 28bd
000003b0: 3026 07be ec4a 0abe a554 a6bd 3248 073e
000003c0: 1132 263e 0899 3bbe f21d bc3d 860b 1bbe
000003d0: aa40 87bd 5a76 b2bd ee18 233e b961 2a3e
000003e0: 90d5 f13d 892b e1bc 0bef 673d fdaa fc3c
000003f0: 8d47 003d 77ae 2f3d 4d2e 763c 6e6f bebc

const_fold_opt__20 f4 [1536, 32]
0.01351572 -0.0034391184 -0.0026110155 0.010540747 -0.010493558 -0.009770405 0.02585282 -0.025379874
-0.0007615548 -0.014926029 0.021095917 -0.0041404646 0.017165383 -0.032248035 0.0026088587 0.008274693
-0.009528093 0.017275004 0.023116037 0.01424909 0.0157339 -0.011702602 -0.005092681 -0.0019619588
-0.0036173372 0.0025298758 0.011549883 0.012953103 -0.0037118015 -0.009522897 -0.0016144479 0.014582785
0.0118569005 -0.014092759 0.012840386 -0.005531564 -0.013852254 0.03150771 0.00069385744 0.016529689
0.0034488332 0.00046711357 0.011567085 -0.001374169 0.0054334337 0.0057551195 -0.0067672255 0.020369591
-0.016481364 0.023120422 0.007970256 -0.0011746956 0.009237619 0.024526985 0.014126368 0.017402332
0.00018752682 0.021213096 -0.0039686607 0.018174445 0.010269162 -0.024723656 0.010229259 -0.020791838
-0.011655682 -0.0069055273 0.015034545 0.01405094 0.00017705231 0.03566699 -0.026535207 0.0292593
0.017592944 -0.025368594 0.0050533535 0.008311421 0.051101543 0.0485021 -0.0036706019 0.0032110626
0.015235296 0.032976512 -0.0031574005 0.0138957715 -0.00073778693 0.012971322 0.017752498 -0.0031057685
-0.007705608 0.0076154503 -0.008568575 -0.019496143 0.0015692351 -0.036659136 -0.005725877 0.014265398
-0.031840768 -0.025272606 -0.04197321 -0.05231688 -0.048455276 -0.06663375 -0.026766118 -0.02771551
-0.06556213 -0.014648747 0.044696283 -0.029164558 -0.05336913 -0.073491715 -0.0015790659 0.024549058
-0.09305022 -0.10003077 -0.03834368 0.02736294 0.0009928707 -0.008079969 0.07025371 0.07934953
-0.022313738 -0.02494392 0.020898843 -0.013022943 -0.01994097 -0.035631046 0.064766444 -0.049299024
-0.016913977 0.011465369 -0.022586739 0.0021492173 0.018932117 -0.0045657284 -0.01796073 -0.003542433
0.027794309 -0.0034921824 0.002715267 0.0003825333 0.006519371 -0.014281376 0.021683207 -0.0043057683
0.00829081 -0.019877676 0.0072797593 0.0025116003 -0.029421192 0.018850746 0.013780149 -0.006655697
-0.0010638612 -0.016289359 -0.009609804 0.0021944197 -0.020936789 0.014252521 -0.0054301396 0.002977056
-0.010182987 -0.018967258 -0.017774323 0.006737092 -0.018668853 -0.0057134503 0.00053973566 0.009448064
0.00043416984 0.022894533 -0.016886054 -0.020199386 0.0001724712 -0.011620698 0.0046257116 0.021112593
-0.018515265 -0.02004688 0.008605756 -0.009490441 -0.002608176 0.021706413 -0.00330328 0.023871662
-0.016571866 0.024224244 -7.8853605e-05 -0.014489862 0.024101166 -0.0040800814 0.010962141 0.020625181
0.0056854505 -0.007939721 0.023084648 0.0014786597 0.021048184 -0.0034837727 -0.017430995 -0.021179939
-0.0016698716 -0.02018458 -0.0012184473 0.009265608 -0.018625578 0.010827332 -0.0035228217 0.0049785473
-0.0061691194 0.008836167 -0.013704785 -0.014156966 -0.020668816 0.010248215 0.0040175235 0.011027612
0.0052788076 0.017692437 0.0018555577 -0.019316632 -0.007890821 0.019961314 0.004014542 -0.009500136
0.004925095 0.011952188 -0.006815734 0.014930964 0.020764446 -0.019139277 0.0057403618 -0.01469908
0.010319523 -0.003681088 -0.022140857 -0.018680107 0.024137586 -0.020181907 -0.0014719475 -0.025851434
-0.007767431 0.021283789 0.003977588 0.016413715 0.012972998 -0.015893577 0.012503054 -0.022351928
0.010617926 0.019855889 0.00039186853 0.005789872 0.008972573 -0.0026806432 -0.012026343 -0.017441815
00000000: 0a71 5d3c d562 61bb 921d 2bbb 19b3 2c3c
00000010: 2ced 2bbc 0c14 20bc 4bc9 d33c 74e9 cfbc
00000020: 14a3 47ba 4e8c 74bc 58d1 ac3c bcac 87bb
00000030: 6b9e 8c3c 8416 04bd 63f9 2a3b 9492 073c
00000040: b81b 1cbc 4f84 8d3c d85d bd3c 0475 693c
00000050: 61e4 803c 45bc 3fbc 81e0 a6bb 3594 00bb
00000060: d910 6dbb 46cc 253b b83b 3d3c 4039 543c
00000070: b241 73bb ed05 1cbc e29b d3ba a2ec 6e3c
00000080: 7243 423c 51e5 66bc 7b60 523c 1f42 b5bb
00000090: 90f4 62bc 3b0e 013d fce3 353a 4569 873c
000000a0: d205 623b ece6 f439 df83 3d3c 761d b4ba
000000b0: f20a b23b 7195 bc3b 9abf ddbb 21de a63c
000000c0: ed03 87bc 0a67 bd3c ad95 023c 3ef8 99ba
000000d0: 6259 173c d1ec c83c 4872 673c 568f 8e3c
000000e0: d9a2 4439 16c7 ad3c 8a0b 82bb 93e2 943c
000000f0: fd3f 283c 4489 cabc 9f98 273c a553 aabc
00000100: 79f7 3ebc c347 e2bb 7453 763c ea35 663c
00000110: 1ea7 3939 8d17 123d 5d60 d9bc 33b1 ef3c
00000120: 141f 903c ccd1 cfbc 9a96 a53b a02c 083c
00000130: da4f 513d 23aa 463d 7b8e 70bb b170 523b
00000140: 779d 793c 6112 073d 64ec 4ebb 17ab 633c
00000150: 0b68 41ba ab85 543c b06d 913c 268a 4bbb
00000160: 537f fcbb 078b f93b 3563 0cbc 60b6 9fbc
00000170: cbae cd3a e427 16bd 23a0 bbbb 6ab9 693c
00000180: 776b 02bd 7f08 cfbc 1aec 2bbd 3a4a 56bd
00000190: 0a79 46bd 4777 88bd 9e44 dbbc a30b e3bc
000001a0: 7045 86bd 4c01 70bc 7313 373d 83ea eebc
000001b0: 9799 5abd d382 96bd a9f8 ceba 1b1b c93c
000001c0: 1d91 bebd efdc ccbd 430e 1dbd 3f28 e03c
000001d0: 3623 823a d961 04bc 2de1 8f3d 0282 a23d
000001e0: 4dcb b6bc 3157 ccbc 0d34 ab3c 2f5e 55bc
000001f0: 3f5b a3bc dcf1 11bd 45a4 843d c6ed 49bd
00000200: 2e8f 8abc 3ed9 3b3c d307 b9bc e2d9 0c3b
00000210: 8717 9b3c 1b9c 95bb 6122 93bc 2a28 68bb
00000220: e4b0 e33c 19dd 64bb 9ff2 313b c08e c839
00000230: 73a0 d53b 6ffc 69bc fba0 b13c 6717 8dbb
00000240: 2dd6 073c 82d6 a2bc 0c8b ee3b a999 243b
00000250: b604 f1bc e16c 9a3c 22c6 613c 0818 dabb
00000260: 4271 8bba 4371 85bc 7072 1dbc 41d0 0f3b
00000270: a183 abbc 6883 693c 50ef b1bb b61a 433b
00000280: 8bd6 26bc 3961 9bbc 759b 91bc d3c2 dc3b
00000290: 6cef 98bc e537 bbbb 0c7d 0d3a 0dcc 1a3c
000002a0: 4aa1 e339 518d bb3c 9f54 8abc 2f79 a5bc
000002b0: 63d9 3439 bd64 3ebc 4893 973b 51f4 ac3c
000002c0: 53ad 97bc 5b39 a4bc 28ff 0c3c cb7d 1bbc
000002d0: efed 2abb a6d1 b13c d87b 58bb 818e c33c
000002e0: b9c1 87bc ec71 c63c 355e a5b8 e366 6dbc
000002f0: cf6f c53c 34b2 85bb 8d9a 333c 24f6 a83c
00000300: 044d ba3b 9b15 02bc 041c bd3c 96cf c13a
00000310: 3e6d ac3c 0250 64bb 72cb 8ebc 8d81 adbc
00000320: 98df daba 225a a5bc 4fb4 9fba c7ce 173c
00000330: ab94 98bc 1f65 313c 24df 66bb 1523 a33b
00000340: 5326 cabb 92c5 103c 098a 60bc 9ef2 67bc
00000350: a651 a9bc 21e8 273c 6ea5 833b 28ad 343c
00000360: d9f9 ac3b bbef 903c 2f36 f33a ea3d 9ebc
00000370: 8148 01bc e985 a33c 6b8c 833b 75a6 1bbc
00000380: b162 a13b 1cd3 433c 8556 dfbb 01a1 743c
00000390: 331a aa3c f9c9 9cbc a519 bc3b 69d4 70bc
000003a0: 3713 293c 693e 71bb be60 b5bc 0607 99bc
000003b0: 30bc c53c 8754 a5bc 5dee c0ba 63c6 d3bc
000003c0: ef85 febb 575b ae3c 6d56 823b 0e76 863c
000003d0: b38c 543c 3f33 82bc 9cd9 4c3c 641b b7bc
000003e0: cff6 2d3c d1a8 a23c b473 cd39 f7b8 bd3b
000003f0: b301 133c bbad 2fbb 230a 45bc 23e2 8ebc

Const_7 f4 [32]
0.06470416 -0.0033074338 0.068078876 0.06839104 0.011669786 0.25390732 0.2619399 0.040805083
0.02375696 0.2685563 0.10886513 -0.023002952 0.09928741 0.058742605 -0.02269547 0.26453948
-0.0034468882 0.26717368 0.04486188 0.021455882 -0.020807162 0.020042917 -0.025995944 0.057898108
-0.0075635053 0.010258566 0.2614555 0.27631193 0.31443518 -0.03274477 0.050162133 0.030213833
00000000: 9d83 843d 88c1 58bb f06c 8b3d 9a10 8c3d
00000010: a132 3f3c 2400 823e fd1c 863e 3b23 273d
00000020: f59d c23c 3680 893e aef4 de3d b070 bcbc
00000030: 3357 cb3d 169c 703d daeb b9bc b871 873e
00000040: 30e5 61bb fdca 883e 17c1 373d 3fc4 af3c
00000050: c873 aabc 0b31 a43c 72f5 d4bc 9126 6d3d
00000060: 48d7 f7bb 8b13 283c 7fdd 853e c278 8d3e
00000070: a6fd a03e 611f 06bd cf76 4d3d 0083 f73c

Const_6 f4 [32]
1.0558008 0.9980679 1.0774887 1.0550834 1.0074462 1.238529 1.2574476 1.0423347
1.0479143 1.2774531 1.1369488 0.99066883 1.1338779 1.0732715 0.9882577 1.2751971
0.99905586 1.2781249 1.0361886 1.0293278 0.9345624 1.0227898 0.975808 1.0934511
0.99941653 1.0109416 1.2400875 1.2739625 1.3853617 0.9802762 1.0485408 1.0730876
00000000: 7b24 873f 6181 7f3f 26eb 893f f90c 873f
00000010: fff3 803f 1e88 9e3f 0bf4 a03f 396b 853f
00000020: 0e22 863f 9583 a33f 8a87 913f 799c 7d3f
00000030: e922 913f f660 893f 75fe 7c3f a939 a33f
00000040: 20c2 7f3f 9999 a33f d4a1 843f 03c1 833f
00000050: 7b3f 6f3f c7ea 823f 8ece 793f 35f6 8b3f
00000060: c3d9 7f3f 8966 813f 30bb 9e3f 3411 a33f
00000070: 8853 b13f 62f3 7a3f 9636 863f ef5a 893f

Const_5 f4 [32]
-0.10964811 0.07183359 0.0035753495 0.024624882 0.06890239 -0.15261433 -0.15245354 0.1827369
0.16660883 -0.14251652 -0.08954348 -0.03870803 -0.037820604 -0.01946221 -0.043959852 -0.119884595
0.074906826 -0.14383894 -0.109301224 -0.0030817746 0.040005215 -0.09629488 -0.102665186 0.16106008
-0.08219541 -0.16166951 0.027868448 0.039854813 0.19785587 0.06159086 -0.09348443 -0.12017006
00000000: 308f e0bd 7d1d 933d 6950 6a3b 1fba c93c
00000010: b21c 8d3d ee46 1cbe c81c 1cbe 621f 3b3e
00000020: 819b 2a3e daef 11be 9262 b7bd 508c 1ebd
00000030: c7e9 1abd 366f 9fbc 3f0f 34bd 0e86 f5bd
00000040: c068 993d 844a 13be 52d9 dfbd 99f7 49bb
00000050: 82dc 233d 4036 c5bd 2042 d2bd efec 243e
00000060: 1156 a8bd b18c 25be 5f4c e43c cd3e 233d
00000070: bb9a 4a3e b346 7c3d c474 bfbd b81b f6bd

Const_3 f4 [32]
0.028380668 -0.008355716 -0.019165158 -0.010708071 -0.01698098 0.0013675119 -0.009357288 -0.008460138
0.0047857217 -0.004861851 0.0028200399 -0.0115124555 0.007755781 -0.014149583 0.0043165525 0.0077366573
-0.001839362 0.010030111 -0.009516495 0.012604673 0.013354774 -0.011658083 0.005011704 0.007830296
-0.0015529634 -0.022573596 0.011561817 -0.0101604825 -0.011259399 -0.012801397 0.011942692 -0.009971601
00000000: 937e e83c 6ae6 08bc 4000 9dbc e870 2fbc
00000010: b21b 8bbc 163e b33a 4f4f 19bc 649c 0abc
00000020: 8bd1 9c3b 2a50 9fbb 6bd0 383b bd9e 3cbc
00000030: 3524 fe3b a7d3 67bc de71 8d3b c983 fd3b
00000040: bf16 f1ba 5655 243c 13eb 1bbc d583 4e3c
00000050: fbcd 5a3c 8b01 3fbc 3839 a43b a44a 003c
00000060: ce8c cbba 43ec b8bc c66d 3d3c 2778 26bc
00000070: 5879 38bc f3bc 51bc 48ab 433c ed5f 23bc

Const_2 f4 [32]
1.0107158 0.99243164 0.98837554 0.9868783 0.9940411 1.0145122 0.9966605 0.9893746
1.009015 0.9962928 1.0039973 0.99638563 1.0036621 0.97944397 0.95162517 0.9929721
0.9906006 1.0214326 0.992273 0.9924485 0.9845792 0.98468184 1.007641 1.0257398
0.99572116 0.96776015 0.98764765 0.9854906 0.9955498 1.0061984 1.0586522 0.993326
00000000: 235f 813f 0010 7e3f 2e06 7d3f 0ea4 7c3f
00000010: 7a79 7e3f 89db 813f 2425 7f3f a747 7d3f
00000020: 6727 813f 0c0d 7f3f fc82 803f 2113 7f3f
00000030: 0078 803f d7bc 7a3f b59d 733f 6b33 7e3f
00000040: 0098 7d3f 4ebe 823f 9a05 7e3f 1b11 7e3f
00000050: 620d 7c3f 1c14 7c3f 61fa 803f 714b 833f
00000060: 95e7 7e3f 21bf 773f 7ad6 7c3f 1d49 7c3f
00000070: 5adc 7e3f 1ccb 803f ea81 873f 9d4a 7e3f

Const_1 f4 [32]
-0.023607815 0.0036782678 -0.02292874 0.004756164 0.021173945 -0.00010078846 0.023454452 -0.025142856
0.02193415 -0.023742955 -0.010322882 0.018140517 -0.005286775 -0.02713129 0.010418849 0.010334567
-0.00047192036 0.019297445 -0.0071900194 0.007852349 -0.021721968 -0.02387409 0.004914477 -0.018443786
0.021649435 -0.021058714 0.0208186 0.015218742 -0.024381943 0.003759132 -0.0116938315 -0.022895316
00000000: 2d65 c1bc 180f 713b 0ed5 bbbc 98d9 9b3b
00000010: fb74 ad3c 645e d3b8 8d23 c03c 64f8 cdbc
00000020: 3faf b33c 9680 c2bc 4e21 29bc 6c9b 943c
00000030: af3c adbb 7042 debc d2b3 2a3c 5152 293c
00000040: 146c f7b9 ad15 9e3c 419a ebbb 24a7 003c
00000050: 45f2 b1bc 9893 c3bc 9f09 a13b 6c17 97bc
00000060: 285a b13c 5383 acbc c58b aa3c 0858 793c
00000070: a4bc c7bc c55b 763b 7c97 3fbc f58e bbbc
