en/nihao_wenwen/nihao_wenwen.onnx (onnx, 208143 bytes, 9 tensors)

model/tf.math.add_1/Add/y f4 [32]
-0.1614441 0.004563554 0.21447368 -0.061689142 -0.0511761 -0.10394047 0.09666427 -0.14430404
0.16296177 0.08769939 -0.038342677 -0.009670682 -0.041835748 -0.20444535 -0.113674216 0.10827857
0.06958688 -0.007870182 0.05274321 0.17753498 0.20837955 0.088619806 0.03872743 -0.122524425
0.08885029 -0.0484894 0.17107008 -0.12440912 0.013552232 0.02081919 -0.040665533 0.14587286
00000000: 9a51 25be de89 953b fd9e 5b3e c1ad 7cbd
00000010: 089e 51bd bede d4bd ebf7 c53d 70c4 13be
00000020: 73df 263e bd9b b33d 360d 1dbd c871 1ebc
00000030: f65b 2bbd 1f5a 51be 07ce e8bd 28c1 dd3d
00000040: 9183 8e3d f0f1 00bc 4409 583d bbcb 353e
00000050: 7361 553e 4d7e b53d a7a0 1e3d 16ee fabd
00000060: 24f7 b53d d29c 46bd ff2c 2f3e 35ca febd
00000070: 2e0a 5e3c 028d aa3c e790 26bd b25f 153e

model/tf.math.add/Add/y f4 [32]
0.027038388 0.062116664 0.108859845 -0.0005389 0.025087122 -0.0007504459 0.018954344 0.13961889
0.051097706 0.12724082 0.1141246 0.12254862 0.033109393 0.030980166 0.08284012 0.08971329
0.062189955 0.02403379 -0.0051721064 0.022453852 0.058690507 0.008438478 0.12146177 0.053712215
0.05700217 0.020012619 0.042987224 0.013388021 0.10360562 0.024145378 0.033465132 0.03409558
00000000: 9c7f dd3c 0b6e 7e3d e9f1 de3d f844 0dba
00000010: 8283 cd3c 92b9 44ba 2446 9b3c 41f8 0e3e
00000020: d44b 513d 6b4b 023e 29ba e93d c5fa fa3d
00000030: b79d 073d 1eca fd3c 15a8 a93d 9abb b73d
00000040: e5ba 7e3d 83e2 c43c c67a a9bb 24f1 b73c
00000050: 7565 703d 8b41 0a3c f3c0 f83d 5701 5c3d
00000060: 1b7b 693d 81f1 a33c 5f13 303d 6e59 5b3c
00000070: 2f2f d43d 87cc c53c bc12 093d cfa7 0b3d

model/layer_normalization_1/batchnorm/mul/ReadVariableOp/resource f4 [32]
1.2655333 1.2383133 0.91927904 1.2873183 1.3891689 1.4600401 0.95024514 1.3240494
1.027098 1.3198779 1.3181231 1.3245615 1.2044034 1.303642 1.2110788 1.1189295
1.3050728 1.1790053 1.1510307 1.3621861 1.3226713 1.2564443 1.1884117 1.2905377
1.1486771 1.2396001 1.2377092 1.3631474 1.1605725 0.998792 1.2949533 1.5577691
00000000: fffc a13f 0d81 9e3f df55 6b3f d9c6 a43f
00000010: 49d0 b13f 98e2 ba3f 4443 733f 737a a93f
00000020: f277 833f c2f1 a83f 42b8 a83f 3b8b a93f
00000030: e429 9a3f bedd a63f a104 9b3f 1539 8f3f
00000040: a00c a73f a5e9 963f f954 933f 1d5c ae3f
00000050: 4b4d a93f 2bd3 a03f e01d 983f 5730 a53f
00000060: da07 933f 37ab 9e3f 416d 9e3f 9d7b ae3f
00000070: a48d 943f d5b0 7f3f 08c1 a53f fa64 c73f

model/layer_normalization_1/batchnorm/ReadVariableOp/resource f4 [32]
0.15859573 0.113718964 0.12357662 0.66957545 0.18239564 0.07210499 -0.023887604 0.09772301
0.11887558 0.15814441 0.1829498 0.19511938 0.09556074 0.12444976 0.1423153 0.06069413
0.20356344 0.1672374 0.123929396 0.22924072 0.19748586 -0.055210814 0.11789871 0.0815498
0.2264132 0.12541816 0.1798538 0.18322752 0.2053343 0.008094898 -0.014297716 0.26578498
00000000: eb66 223e 7de5 e83d bd15 fd3d 4c69 2b3f
00000010: ecc5 3a3e c8ab 933d f0af c3bc 0023 c83d
00000020: 0a75 f33d 9cf0 213e 3157 3b3e 60cd 473e
00000030: 59b5 c33d 84df fe3d 1abb 113e 689a 783d
00000040: ef72 503e 4840 2b3e b2ce fd3d 14be 6a3e
00000050: bc39 4a3e bc24 62bd e174 f13d 9503 a73d
00000060: ddd8 673e 9e6d 003e 982b 383e ff9f 3b3e
00000070: 2843 523e 77a0 043c f840 6abc f814 883e

model/layer_normalization/batchnorm/mul/ReadVariableOp/resource f4 [32]
1.1430191 1.0409844 1.2031934 1.149613 1.0342166 1.131538 1.3090563 1.2778134
1.0574045 1.0235955 1.2216417 1.2612525 1.0478157 1.0578715 1.1779984 1.0776842
0.9571427 1.075048 1.1363543 1.2152221 1.0933138 1.1382893 1.0485011 1.0559717
1.0351869 0.9566988 1.0823047 1.0607958 1.252151 1.0491712 1.0294969 1.0731078
00000000: 734e 923f fa3e 853f 3e02 9a3f 8526 933f
00000010: 3661 843f 3dd6 903f 288f a73f 648f a33f
00000020: 0859 873f 2d05 833f c15e 9c3f b970 a13f
00000030: d31e 863f 5568 873f a7c8 963f 8ef1 893f
00000040: 4e07 753f 2c9b 893f 0f74 913f 668c 9b3f
00000050: b5f1 8b3f 77b3 913f 4935 863f 152a 873f
00000060: 0181 843f 36ea 743f f688 8a3f 28c8 873f
00000070: 7c46 a03f 3e4b 863f 8ec6 833f 995b 893f

model/layer_normalization/batchnorm/ReadVariableOp/resource f4 [32]
0.016970012 0.12170212 0.15012915 0.058316734 -0.031847287 0.10017644 0.014454492 0.14286417
0.18146074 0.10051809 0.14981222 0.15308104 0.22567093 0.13932806 0.055423975 0.024691656
-0.043724515 0.0845234 0.014452813 -0.016395282 0.08217277 0.065464154 0.11024711 0.020300187
0.11813682 -0.02840813 0.10450513 0.049906213 0.14881803 0.10862995 0.11513423 0.076643996
00000000: b204 8b3c f63e f93d 75bb 193e 87dd 6e3d
00000010: 4d72 02bd 4e29 cd3d 89d2 6c3c fc4a 123e
00000020: d8d0 393e 6edc cd3d 6068 193e 47c1 1c3e
00000030: 4816 673e 04ac 0e3e 4004 633d 2846 ca3c
00000040: 7a18 33bd 9b1a ad3d 7ecb 6c3c 664f 86bc
00000050: 324a a83d 1212 863d 3dc9 e13d 944c a63c
00000060: b8f1 f13d 2bb8 e8bc c906 d63d 756a 4c3d
00000070: c163 183e 6179 de3d 7fcb eb3d 87f7 9c3d

const_fold_opt__25 f4 [32, 32]
0.023379808 0.18434651 0.06636178 0.10462738 0.030784102 0.040243074 0.03862542 0.11748396
0.024251387 0.023088168 -0.1494399 0.290431 0.1783881 0.0020779956 -0.21112527 -0.0847377
0.0028162138 0.17740694 -0.11585799 -0.24306831 -0.13745296 -0.13077883 0.077720486 0.27233836
0.076410204 0.25375208 0.022618568 0.22885825 0.27419305 0.029669622 0.27598163 -0.2969713
0.32289618 0.05764589 -0.15846807 0.175449 0.033142827 0.056860283 -0.29216537 0.09287864
-0.20158124 0.2755177 -0.20427366 0.27228883 0.03527527 0.15214126 -0.24219608 -0.060647998
0.2855671 0.23806742 -0.31983802 -0.11818142 -0.1656429 -0.060738374 0.14818877 -0.0016603622
-0.26791078 0.2535591 -0.2927109 0.29787445 0.11663265 -0.10037109 0.22774693 -0.17231184
-0.27920762 -0.12792201 0.18005182 0.009133699 -0.0009770524 -0.111283675 0.18362619 -0.050441004
0.25090873 -0.2873089 0.18064356 -0.09613376 -0.3123768 -0.17868517 0.3129737 0.091190405
-0.2980552 -0.21759994 0.10272821 0.19891292 0.19173299 -0.11801506 -0.29843464 -0.06527778
0.12868321 -0.11371681 0.2581773 -0.029375028 -0.06709201 0.12045165 -0.2268948 0.33231544
0.31172395 0.28907034 -0.13441682 0.17058574 0.06666821 0.05947351 -0.25163886 0.19165947
-0.15587129 0.29211962 -0.072648935 0.41451842 0.4093924 0.1154765 -0.06328424 -0.06564699
0.3436179 0.26837954 -0.091063485 -0.13620387 -0.03411194 0.26653376 0.18551223 0.15762752
-0.14587975 0.26290944 -0.112106524 0.27204952 0.09452741 -0.19802664 0.22695377 -0.1830952
0.18095213 0.2346827 -0.13358249 0.18749304 0.19084498 0.20797002 -0.13515337 0.072712846
-0.22002615 0.11395585 -0.15462914 0.24425632 0.19431834 0.13434775 -0.17704377 -0.042126242
0.17038107 0.10245655 -0.15325452 -0.19257762 -0.1676582 0.22562598 0.23897256 0.31834662
-0.14880528 0.15403187 -0.2292016 0.17319556 0.12665719 -0.1371351 0.1649039 0.005134648
0.08906999 0.21961908 -0.31500757 0.10751967 0.21519266 0.09548467 -0.09886476 0.22392176
-0.34759507 0.22829303 -0.25481284 0.243137 0.14628817 0.32474566 -0.050361693 0.027779536
0.2448722 0.28118107 -0.17846408 -0.26561293 -0.15511355 -0.01854833 0.32914898 0.15298298
-0.3009625 0.093262054 -0.19608963 0.108936474 0.2423782 -0.0064968746 0.13190222 -0.15456955
0.46028197 0.014889743 -0.16868402 0.58638877 0.025227495 0.044071626 -0.44262227 0.05249982
-0.38301593 0.3004071 -0.4133836 0.4836656 -0.0737781 0.35585803 -0.3795458 -0.11191144
0.4525864 0.44913888 -0.46112022 -0.14952861 -0.37728846 0.14842613 0.22626041 -0.111836925
-0.21905893 -0.027398689 -0.34130386 0.54081696 0.28178307 -0.31531894 0.32075873 -0.33815068
0.04252148 -0.34745806 -0.051260762 0.13853537 -0.21827266 -0.21693344 0.14832851 -0.22200981
0.20118746 -0.08680693 0.26553035 -0.17162536 -0.26438364 -0.13470662 0.24194413 -0.04504279
-0.11586553 -0.06646359 0.32391876 0.06709602 0.14159797 -0.16156137 -0.39813495 -0.35437164
0.08363238 -0.3865302 0.35258788 -0.0434937 -0.38049376 0.05923213 -0.25431234 0.42396742
00000000: 0387 bf3c 55c5 3c3e afe8 873d e146 d63d
00000010: f12e fc3c ecd5 243d b035 1e3d 6e9b f03d
00000020: d8aa c63c 6623 bd3c c606 19be 5fb3 943e
00000030: 5fab 363e fb2e 083b 3931 58be f68a adbd
00000040: 3a90 383b 2aaa 353e f446 edbd e6e6 78be
00000050: 78c0 0cbe e3ea 05be eb2b 9f3d ef6f 8b3e
00000060: f47c 9c3d cbeb 813e 934a b93c d159 6a3e
00000070: 0863 8c3e b50d f33c 774d 8d3e 9f0c 98be
00000080: a652 a53e 191e 6c3d 7445 22be e7a8 333e
00000090: c6c0 073d 54e6 683d b396 95be 2837 be3d
000000a0: 506b 4ebe a810 8d3e 1d2d 51be 7169 8b3e
000000b0: cd7c 103d ebca 1b3e 4002 78be 096a 78bd
000000c0: da35 923e f2c7 733e cfc1 a3be 1a09 f2bd
000000d0: 4b9e 29be cdc8 78bd ccbe 173e 83a0 d9ba
000000e0: 9a2b 89be 80d2 813e 34de 95be 0083 983e
000000f0: 19dd ee3d 5c8f cdbd 7e36 693e 8472 30be
00000100: 4df4 8ebe fdfd 02be 815f 383e 83a5 153c
00000110: 7010 80ba b2e8 e3bd 8108 3c3e 3a9b 4ebd
00000120: 1c77 803e 271a 93be a0fa 383e c7e1 c4bd
00000130: daef 9fbe 3ff9 36be 173e a03e 09c2 ba3d
00000140: b19a 98be 85d2 5ebe 2b63 d23d d4af 4b3e
00000150: a755 443e e1b1 f1bd 6dcc 98be 5bb0 85bd
00000160: 88c5 033e 5ce4 e8bd d12f 843e e6a3 f0bc
00000170: 8967 89bd 5baf f63d 1c57 68be 4025 aa3e
00000180: 489a 9f3e 0701 943e 90a4 09be 07ae 2e3e
00000190: 5889 883d 7f9a 733d cfd6 80be 6142 443e
000001a0: b99c 1fbe b490 953e f7c8 94bd c23b d43e
000001b0: e19b d13e f17e ec3d 2b9b 81bd ee71 86bd
000001c0: afee af3e 0b69 893e 7e7f babd 0779 0bbe
000001d0: f6b8 0bbd 1d77 883e ebf6 3d3e 1c69 213e
000001e0: 8061 15be 119c 863e 1b98 e5bd 134a 8b3e
000001f0: 9697 c13d 7fc7 4abe 9266 683e 4f7d 3bbe
00000200: 844b 393e a950 703e d9c9 08be 2dfe 3f3e
00000210: de6c 433e 18f6 543e a565 0abe 79ea 943d
00000220: 894e 61be af61 e93d 1a57 1ebe 541e 7a3e
00000230: 63fb 463e 7592 093e f64a 35be 918c 2cbd
00000240: 6078 2e3e bdd4 d13d c1ee 1cbe 1133 45be
00000250: 97ae 2bbe 7f0a 673e 39b5 743e 54fe a23e
00000260: 6960 18be 88ba 1d3e d3b3 6abe 2d5a 313e
00000270: 6cb2 013e 256d 0cbe 91dc 283e 8d40 a83b
00000280: 546a b63d d3e3 603e ac48 a1be 4633 dc3d
00000290: 775b 5c3e 778d c33d 9b79 cabd bf4b 653e
000002a0: fbf7 b1be a6c5 693e d476 82be e8f8 783e
000002b0: 91cc 153e 1045 a63e 1048 4ebd e991 e33c
000002c0: c7bf 7a3e f7f6 8f3e 4abf 36be 6bfe 87be
000002d0: 16d6 1ebe abf2 97bc 3786 a83e 92a7 1c3e
000002e0: c217 9abe 2d00 bf3d b8cb 48be 161a df3d
000002f0: fe31 783e bce3 d4bb 6011 073e 7b47 1ebe
00000300: 14aa eb3e 1cf4 733c 81bb 2cbe 931d 163f
00000310: e4a9 ce3c 7384 343d 639f e2be 0d0a 573d
00000320: aa1a c4be f6ce 993e 04a7 d3be 04a3 f73e
00000330: f918 97bd 0633 b63e d453 c2be d331 e5bd
00000340: 68b9 e73e 88f5 e53e f317 ecbe 071e 19be
00000350: f42b c1be 05fd 173e cfb0 673e c20a e5bd
00000360: fc50 60be 3773 e0bc 61bf aebe fb72 0a3f
00000370: df45 903e 7c71 a1be 7d3a a43e 1622 adbe
00000380: 012b 2e3d 06e6 b1be cef6 51bd 37dc 0d3e
00000390: de82 5fbe cd23 5ebe 6ee3 173e 8a56 63be
000003a0: 1604 4e3e d5c7 b1bd 98f3 873e 8fbe 2fbe
000003b0: 4b5d 87be 88f0 09be 34c0 773e ca7e 38bd
000003c0: e84a edbd 101e 88bd aed8 a53e a369 893d
000003d0: 0fff 103e 5870 25be 58d8 cbbe 3370 b5be
000003e0: 7447 ab3d 49e7 c5be 6686 b43e 7326 32bd
000003f0: 14d0 c2be 649d 723d 3a35 82be 4212 d93e

const_fold_opt__23 f4 [32, 1]
0.27293116 0.32550743 -0.044085387 1.1190969 0.34097943 0.40967846 -0.07688606 0.3142091
-0.18745059 0.287069 -0.33885166 0.42163494 0.30611673 0.36856365 -0.3692941 -0.112516716
0.38284644 0.30191123 -0.27975455 -0.4289951 -0.34179106 0.5109102 0.23212017 0.40337247
-0.32357946 0.2370809 -0.38277364 0.39080927 0.20694853 -0.0539925 0.34967238 -0.6521776
00000000: a2bd 8b3e e9a8 a63e e192 34bd 913e 8f3f
00000010: db94 ae3e 60c1 d13e 7076 9dbd 04e0 a03e
00000020: 0cf3 3fbe b5fa 923e f77d adbe 89e0 d73e
00000030: 55bb 9c3e 60b4 bc3e 1e14 bdbe 2a6f e6bd
00000040: 7304 c43e 1c94 9a3e fd3b 8fbe 3fa5 dbbe
00000050: 3dff aebe 03cb 023f e9b0 6d3e d686 ce3e
00000060: 35ac a5be 56c5 723e e8fa c3be 2718 c83e
00000070: 51ea 533e 3d27 5dbd 4208 b33e 1cf5 26bf

const_fold_opt__22 f4 [1536, 32]
-0.005249311 -0.056778517 -0.0291477 -0.09423092 -0.07135129 -0.11556127 -0.1261224 -0.06053391
-0.13361989 -0.036322948 -0.021041673 -0.093886584 -0.079560265 -0.07051697 -0.06089956 -0.010720445
-0.0992358 -0.098768875 -0.10597769 -0.023463247 -0.03870755 -0.026393302 -0.020472622 -0.0922635
-0.09169485 -0.050780047 -0.05159543 -0.07155041 -0.046107695 -0.051617295 -0.11288359 -0.0683632
0.08288989 0.06948955 0.060417987 0.08820797 0.074409455 0.083300464 0.044310022 0.05718744
0.07804518 0.1003545 0.076927535 0.1050873 0.059011962 0.054564603 0.08523278 0.074687816
0.08374557 0.03646219 0.061907616 0.0666074 0.043004878 0.08159947 0.10281484 0.07112758
0.07206868 0.07399022 0.054520465 0.04587627 0.08227828 0.058147676 0.03883351 0.07311553
-0.022283329 0.09418595 -0.03300251 0.0784684 0.1268023 0.2156534 0.19313477 0.02867183
0.14437017 0.0043028747 -0.046173573 0.12368406 0.14433832 0.041773543 -0.07485724 0.029808454
0.11081646 0.1073704 0.2273428 0.049934287 0.09324415 0.050722405 -0.0005203771 0.053020332
0.07070956 0.08828757 0.10132629 0.10020064 -0.048328876 0.07108189 0.012324666 0.037406955
-0.07083863 -0.11067505 0.05075955 -0.22130184 -0.17498092 -0.14878283 -0.09349462 0.032750666
-0.17444439 0.098299436 0.04863352 0.12900299 -0.17659557 -0.09029653 -0.0315137 -0.034851473
-0.11446227 -0.1379167 -0.13516499 -0.22350487 -0.08614312 -0.18430133 0.06754497 -0.1331553
-0.10334977 -0.14859223 -0.10331788 -0.14551933 0.049293675 -0.1449118 -0.16971081 -0.17191984
-0.021796796 0.049258824 0.08009808 0.08353592 0.06447158 0.018134262 0.12975365 0.07172974
0.09346726 0.042437926 0.07252986 -0.020467239 0.030007722 0.048645303 0.074904025 0.03417983
0.018980432 0.08278985 0.07912988 0.08294909 -0.02137141 0.058593225 0.04150498 0.06617662
0.010237984 0.062573925 0.054428186 0.049311545 0.073504776 0.047910288 0.0578896 0.0702891
0.0611664 0.045868088 0.11840877 0.025728794 0.020028267 0.049818013 -0.0038108225 0.084052175
0.039687235 0.13908891 0.1073751 0.09116213 0.037059817 0.048576925 0.116269484 0.056916
0.036161527 0.04561012 0.016905807 0.06077155 0.025143588 0.046484914 0.11348392 0.063634306
0.056637637 0.07606777 0.061878085 0.038401257 0.096519485 0.045175828 0.07772243 0.040579952
-0.029715631 0.0037049293 0.12969163 -0.023787083 0.011008087 0.0069273487 0.07612063 0.13252293
0.06387796 0.09491437 0.08836278 0.09314953 0.02661257 0.06176909 0.11909603 -0.008064506
0.058740746 -0.0051405276 0.058339044 -0.026874295 0.008621516 -0.021746278 0.08906726 0.028496126
-0.025090888 0.011101191 0.023848917 0.09030185 0.12387608 0.0007587878 0.014922601 -0.019147193
-0.007284129 -0.07056408 -0.07198475 -0.057967015 -0.08166892 -0.043365244 -0.05869612 -0.06252289
-0.1071474 -0.047991224 -0.081918746 -0.062003516 -0.08737824 -0.069749884 -0.09269891 -0.07148496
0.0035812256 -0.11648163 -0.1056967 -0.069141984 -0.048707005 -0.0702487 -0.045980264 -0.07265568
-0.03239263 -0.051567983 -0.106658764 -0.054825045 -0.08298092 -0.05973022 -0.122355156 -0.059093587
00000000: 6a02 acbb 9790 68bd 28c7 eebc 24fc c0bd
00000010: a020 92bd 63ab ecbd 3b26 01be 68f2 77bd
00000020: a7d3 08be 5fc7 14bd 965f acbc 9c47 c0bd
00000030: 7ef0 a2bd 336b 90bd d171 79bd cea4 2fbc
00000040: 243c cbbd 5647 cabd d50a d9bd ff35 c0bc
00000050: cf8b 1ebd c436 d8bc 33b6 a7bc a5f4 bcbd
00000060: 82ca bbbd bdfe 4fbd bb55 53bd 0589 92bd
00000070: 6cdb 3cbd a86c 53bd 832f e7bd 0102 8cbd
00000080: 2dc2 a93d 8a50 8e3d da78 773d 61a6 b43d
00000090: fc63 983d 6f99 aa3d 6d7e 353d 613d 6a3d
000000a0: 27d6 9f3d a986 cd3d 2f8c 9d3d 0338 d73d
000000b0: 87b6 713d 227f 5f3d 868e ae3d edf5 983d
000000c0: cc82 ab3d 6159 153d d792 7d3d 7669 883d
000000d0: e225 303d 9f1d a73d 9690 d23d 56ab 913d
000000e0: be98 933d 2f88 973d da50 5f3d c1e8 3b3d
000000f0: 8481 a83d 422c 6e3d e30f 1f3d 98bd 953d
00000100: 878b b6bc 90e4 c03d a42d 07bd 0ab4 a03d
00000110: 76d8 013e 3fd4 5c3e 1fc5 453e 30e1 ea3c
00000120: c6d5 133e 21ff 8c3b 8020 3dbd 124e fd3d
00000130: 6dcd 133e bc1a 2b3d c14e 99bd dc30 f43c
00000140: bdf3 e23d 03e5 db3d 8dcc 683e e587 4c3d
00000150: caf6 be3d 4cc2 4f3d eb69 08ba d92b 593d
00000160: 2cd0 903d 1dd0 b43d 2884 cf3d fe35 cd3d
00000170: 80f4 45bd 6293 913d 65ed 493c 0938 193d
00000180: d813 91bd 9aa9 e2bd 3fe9 4f3d f39c 62be
00000190: 332e 33be 875a 18be 1b7a bfbd 9025 063d
000001a0: 8da1 32be 3751 c93d f133 473d 5c19 043e
000001b0: 78d5 34be 63ed b8bd 8214 01bd 6bc0 0ebd
000001c0: 326b eabd 093a 0dbe b168 0abe 76de 64be
000001d0: ce6b b0bd 7db9 3cbe 0455 8a3d dd59 08be
000001e0: 0ba9 d3bd 9028 18be 5398 d3bd 0503 15be
000001f0: 2ae8 493d c263 14be acc8 2dbe c10b 30be
00000200: 328f b2bc 9fc3 493d 760a a43d e114 ab3d
00000210: ad09 843d 4e8e 943c 24de 043e 0be7 923d
00000220: c36b bf3d 64d3 2d3d 898a 943d e9aa a7bc
00000230: c1d2 f53c 4c40 473d 4867 993d 2600 0c3d
00000240: da7c 9b3c ba8d a93d d90e a23d 36e1 a93d
00000250: 1813 afbc 73ff 6f3d 2001 2a3d 9c87 873d
00000260: 38bd 273c c226 803d 17f0 5e3d e7fa 493d
00000270: ac89 963d 943d 443d a51d 6d3d bbf3 8f3d
00000280: 9e89 7a3d 2de0 3b3d 4c80 f23d 31c5 d23c
00000290: 5212 a43c f90d 4c3d febe 79bb 8c23 ac3d
000002a0: 158f 223d 536d 0e3e 7ae7 db3d 36b3 ba3d
000002b0: 09cc 173d 99f8 463d b21e ee3d c020 693d
000002c0: 1c1e 143d add1 3a3d 0c7e 8a3c 97eb 783d
000002d0: edf9 cd3c f766 3e3d 426a e83d b452 823d
000002e0: defc 673d 6bc9 9b3d e073 7d3d a34a 1d3d
000002f0: 02ac c53d 4a0a 393d f02c 9f3d 2a37 263d
00000300: 326e f3bc 66ce 723b e2cd 043e 21dd c2bc
00000310: 435b 343c d0fe e23b 22e5 9b3d 17b4 073e
00000320: 73d2 823d 7762 c23d 8cf7 b43d 2ec5 be3d
00000330: 9b02 da3c 9601 7d3d 9fe8 f33d fd20 04bc
00000340: 239a 703d df71 a8bb ecf4 6e3d 7b27 dcbc
00000350: 4241 0d3c 4025 b2bc e568 b63d b570 e93c
00000360: 688b cdbc c5e1 353c ce5e c33c 2df0 b83d
00000370: beb2 fd3d 63e9 463a ed7d 743c 93da 9cbc
00000380: b4af eebb e683 90bd be6c 93bd d26e 6dbd
00000390: 0942 a7bd c19f 31bd 586b 70bd 000c 80bd
000003a0: 1970 dbbd 7292 44bd 04c5 a7bd 66f7 7dbd
000003b0: 5df3 b2bd 07d9 8ebd edd8 bdbd b566 92bd
000003c0: ffb2 6a3b ec8d eebd 8377 d8bd 509a 8dbd
000003d0: ff80 47bd 8dde 8fbd cd55 3cbd 80cc 94bd
000003e0: 22ae 04bd f338 53bd e96f dabd 3a90 60bd
000003f0: e7f1 a9bd ada7 74bd 5795 fabd 1e0c 72bd
