en/ok_home/ok_home.onnx (onnx, 205647 bytes, 9 tensors)

const_fold_opt__23 f4 [32, 1]
00000000: ad6a babe 2bb7 b2be 8e46 3a3e 0da3 a93d
00000010: 6f5c a93d 37fc c7bd 4395 263e 245f afbe
00000020: 2c19 b33d b8b2 e2bd 8418 4a3d bd4c 093e
00000030: d88b 1b3e d743 0ebd ef72 633e 51fa a8bc
00000040: ba81 b4be 5484 283e 5097 c33d 87e4 fc3d
00000050: afb4 b1be f2ab 99bc 2720 8cbb 5735 cb3c
00000060: 1a78 c33d 6585 933d acbd b8be 7f6b 61bd
00000070: 2945 b2be 9909 e23d 7ba9 aabe 0dd0 453e
-0.36409512 -0.3490537 0.18190977 0.082830526 0.082695834 -0.09764903 0.16267876 -0.34252274
0.087450355 -0.11069244 0.049339786 0.1340818 0.15190065 -0.034732666 0.22211812 -0.020627173
-0.35255224 0.16456729 0.09550345 0.12348276 -0.34708163 -0.018758748 -0.004276294 0.024805708
0.09544392 0.07203177 -0.36082208 -0.055034157 -0.3481839 0.11036987 -0.33332428 0.19317646

const_fold_opt__22 f4 [32, 32]
00000000: 6d88 4a3d e350 293e 7e43 39bd 1f08 113d
00000010: 730e f7bd b46c d83d 2310 113e 76b3 153e
00000020: 6363 ec3d 2886 0e3d 4f2c b43c 3a44 b33d
00000030: d16e 6fbd e9cb 713d ead7 323e 9bb6 86ba
00000040: e195 003d 35a1 1ebe 41db c63d 8048 d6bd
00000050: e0f8 15be ea67 d9bc 8831 913c ea12 ab3d
00000060: fdb4 b23d f4cd cc3d 4f59 143d 513a f9bc
00000070: 3727 d83d 0863 d33d e7b9 24be feb0 90bc
00000080: c446 a93b bdf6 933c 85fd aa3c 7937 90bc
00000090: 08d4 2a3d 8349 64bd 3d44 e9bd 6983 d439
000000a0: 0a7e 46be 7592 093d 2515 ddbd af3d 29be
000000b0: 8b5a 19be cb80 15be 4ce5 c9bd 9ff1 c63d
000000c0: d1c5 433e 3773 973b 40f1 e7bd 3e37 08be
000000d0: 5365 123e da61 e63d f882 82bd 8545 fa3d
000000e0: 4b4c f83d e86a e83c e0f6 aebd b431 9b3c
000000f0: 04ba b43d f0d7 6ebd 9b1e b73d 6902 52be
00000100: 7c2e cabd 24ae ab3c 2e3c a0bd 771f bcbd
00000110: 0bea 04be c607 19be d3a4 b8bd 22fe 01be
00000120: e3d1 eb3d 6b97 903d a506 c73c bcc9 0d3c
00000130: 878b a53d 19da 3abd 8f1e 8ebd ab91 013e
00000140: f392 bc3d ad65 e7bc de73 9cbd 176d 0cbe
00000150: 17bd 3f3e c0d5 51bd eacd 153e 03bb 9cbd
00000160: 821f 23be f4c8 25be e3cc 9ebc b920 c0bc
00000170: a030 e23c 8458 e0bd 86a4 2c3e 1b63 05bd
00000180: 206d 833d aace b23c 05ae a23d f17f 773d
00000190: 65ac 87bd ea6c 3c3d 1001 393e 8922 92bd
000001a0: 8305 69bc bb5e d7bd e4ff e83d cdf1 863d
000001b0: a462 7dbd db9a 883d dc77 663e f5fa 013d
000001c0: 02db e0bd fb3b 393e 007f 25be 4e0f 33bd
000001d0: 2d23 fdbd 6ffa 753d 6988 26bd 3618 5fbc
000001e0: 1289 973d b8b9 89bd f699 cb3d f0e6 043b
000001f0: 9180 1e3e 1291 9b3d 8983 a73d 4364 523e
00000200: 8823 d9bc 858e d33c 204e 8a3c 3d9d 713d
00000210: 612d dcbc 93f4 df3d e332 9fbd 6488 bdbd
00000220: acff c93d afea 1dbc f03b a53c 8974 c7bd
00000230: e280 14be 21fc 4bbd 34e7 0f3e 6673 5b3d
00000240: 6110 863d dc8c 8c3d 6d46 40be cab8 1abe
00000250: 2141 50bd abc6 af3b 894e 7ebd 0b69 be3c
00000260: 2e94 663d 576c 84bd 5b4b a6bd 34d3 553c
00000270: ec5c 18be 1843 06be b87f 983c d4c6 4ebd
00000280: 6a76 b4b9 45fc 50bd a825 643c fb82 083d
00000290: c9ea 323d 4afe 8abd e7bb 25be cd6e 5fbd
000002a0: f020 3abd 9e0e bfbd 58af 933d bcf5 ddbc
000002b0: 012c 373e c546 08be b3cc 833d 0153 24be
000002c0: 50ae 49bd a2ce 0abe de8c ed3c 18d4 e93c
000002d0: 4318 dfbd 80c1 f43d 56df e5bd a50e 8cbd
000002e0: 5c42 51bd ce2b 693b e72d b9bd 04ec 40be
000002f0: 70c2 9b3d 8214 073d a994 2ebe 52d1 5c3d
00000300: a253 a9bd 0ec3 12bd 998c df3d 50af 86bb
00000310: 7e13 07bc febc 3e3e 55f8 8a3d 69aa 2ebe
00000320: 4789 d83d b630 c9bd 1dff 6abd 4029 253e
00000330: aad3 203e 6143 fabc a438 31bd 7f69 3fbd
00000340: d26a 1abe 45b1 023e 4e28 c53c 21d8 c13d
00000350: 36c4 3ebe eb4e de3d d072 23bc 78ab 88bc
00000360: 1f6b b9bd f549 083d 5b5c 74bd 33b7 f93c
00000370: 80d2 5fbd 46e6 183d 4f89 723d 0553 013e
00000380: bc98 fdbd 41e9 043e 7d1b ffbc 14f1 90bd
00000390: 71de 323d d01d b5bd 7d2b c4bd 3ed8 2f3d
000003a0: 5a6e 04be 3796 223d 3f25 903d 58dc 153e
000003b0: 9d98 4ebd 7887 243d f443 de3c c74e 83bc
000003c0: 2853 14be d138 f43d e8a4 783d d347 083e
000003d0: 555e 96bd 9d74 3abe d989 f6bd 2d39 48bd
000003e0: bd21 f3bd 20b9 863d 3193 803c 6ae4 7a3d
000003f0: 838e e83c 37d5 55bc 4f1a 3fbd 5257 023c
0.049446512 0.16534762 -0.04523038 0.035408136 -0.12063303 0.105676085 0.14166312 0.1461924
0.11542394 0.03479591 0.021993784 0.087532476 -0.058455292 0.059032355 0.17465177 -0.0010277809
0.031392936 -0.15491183 0.09709788 -0.10463047 -0.1464572 -0.026538808 0.017723814 0.08353217
0.08725927 0.1000022 0.036217984 -0.030423315 0.10554355 0.10321623 -0.16086541 -0.017662521
0.0051659066 0.01806199 0.02087284 -0.017604576 0.041706115 -0.05573417 -0.113899685 0.000405337
-0.19384018 0.033586938 -0.107950486 -0.16527437 -0.14975946 -0.14599912 -0.09858188 0.09714054
0.1911843 0.004621889 -0.11325312 -0.13302323 0.14296465 0.112491325 -0.063726366 0.12220291
0.12123927 0.02837129 -0.085431814 0.018944599 0.08824542 -0.058311403 0.089413844 -0.20508732
-0.098721474 0.02095706 -0.07823978 -0.09185689 -0.12979905 -0.14944372 -0.09015813 -0.126946
0.11514642 0.07060131 0.02429516 0.008654054 0.08083253 -0.04561815 -0.06939422 0.12653224
0.09207716 -0.028246725 -0.076392874 -0.1371349 0.18724476 -0.05122924 0.14629331 -0.07652857
-0.15929988 -0.16189939 -0.019384807 -0.023453103 0.027611077 -0.10954383 0.16859636 -0.032565217
0.06417298 0.02182706 0.07943348 0.06042475 -0.066246785 0.046002306 0.18066812 -0.07135493
-0.0142225055 -0.10516115 0.11376932 0.065890886 -0.06186165 0.06670161 0.2250666 0.031733472
-0.109792724 0.18089287 -0.16161728 -0.043715768 -0.12360225 0.060053285 -0.040657435 -0.013616612
0.07399191 -0.06724876 0.09941475 0.002027925 0.15478732 0.07596029 0.08179385 0.2054606
-0.0265062 0.025824795 0.016882956 0.058987845 -0.026877107 0.10935321 -0.07773378 -0.0925453
0.09863219 -0.009638472 0.020170182 -0.09739024 -0.1450229 -0.049800996 0.1405304 0.05357685
0.06546093 0.06862804 -0.18776865 -0.15109554 -0.05084336 0.0053642592 -0.062086616 0.023243448
0.05629366 -0.06465977 -0.08119842 0.013050843 -0.14879197 -0.13111532 0.018615589 -0.050482586
-0.000344205 -0.051021833 0.013924994 0.033328038 0.04368094 -0.06786783 -0.1618496 -0.054549027
-0.045441568 -0.0932896 0.072111785 -0.027094714 0.1788788 -0.13308246 0.06435528 -0.16047288
-0.049238503 -0.13555387 0.028997835 0.028543517 -0.108932994 0.1195097 -0.112242386 -0.06838731
-0.051088676 0.0035579088 -0.09041958 -0.18840033 0.076054454 0.032978542 -0.17048897 0.05391056
-0.08267905 -0.03583055 0.10915489 -0.0041102543 -0.008244393 0.18626782 0.06785647 -0.17057194
0.105730586 -0.09823744 -0.0573722 0.16129017 0.15705743 -0.030549707 -0.043266907 -0.04673147
-0.15079811 0.12762935 0.02406707 0.094650514 -0.18629536 0.10854896 -0.009976104 -0.016683325
-0.09053635 0.033273656 -0.05965839 0.030482864 -0.054644108 0.03732898 0.05921298 0.12629326
-0.123826474 0.12979604 -0.031141037 -0.07077232 0.043669168 -0.08843577 -0.09578607 0.042930834
-0.12932721 0.039694037 0.07038354 0.14634836 -0.050438512 0.040168256 0.027132012 -0.016028775
-0.14484847 0.11924899 0.06070414 0.13308649 -0.07342211 -0.18208547 -0.12038011 -0.048882652
-0.118716694 0.065782785 0.015695186 0.06125299 0.028388267 -0.013051323 -0.04665595 0.007955389

const_fold_opt__20 f4 [1536, 32]
00000000: a2ed 453c 850b 21bd 39e8 80bc 3632 973d
00000010: 4c40 4a3c 806d db3b 2ce4 23bb 62b9 893c
00000020: ec1d 4a3d 3b36 b2bb 8af3 873c 464f 803d
00000030: 59c7 5f3d 5277 b43c 657e fa3b f938 9f3c
00000040: 8a8c 37bd 2b55 be3b b255 4d3d 1180 e9bb
00000050: dee5 0d3d 80d3 1a3d c018 9cba 9579 cebc
00000060: 87d3 e73c ea99 a2bc 2a58 a93c d397 e03c
00000070: e828 e6bc 2df6 483d f7c9 96bb 5ca9 b53c
00000080: 4750 6c3c 050d 6a3c 163b e9bb 4a30 253b
00000090: a8fb d23c f113 38bc cecb 39ba 79e9 333c
000000a0: ec02 ca3b 8306 093b 06e4 bd3c 49ac c1b9
000000b0: 2e78 b2bb fbb0 e63b 7c68 ce3c f183 473c
000000c0: e7f8 8d3b 3d9b b73b b7cf cb3c 7bee 1fbb
000000d0: e43f ae3c 0c98 823b dca7 34bc 7527 cb3c
000000e0: 5025 c3bb 1217 2abc 41d6 aebc bba1 aa3c
000000f0: bd01 83bc b2af 96bc fee4 d5bc 9e19 81bb
00000100: cd21 c53b 79c9 53bc 0678 e0bc cdaf 393c
00000110: 2a5e 9cbb 9cd6 5b3c 6d8d 003c 18c4 433c
00000120: e4f8 c13a e263 b63a c18b a93c 987b cd3c
00000130: 9b7b fdb9 141f 9ebc 699a 31bc af0a 073d
00000140: b656 b4bc 4611 26bc ad1b 24bc cb73 a63b
00000150: a424 3fbc 1991 abbc 050f bfbb 5d82 6bbc
00000160: 2661 1b3c c08c 4a3b 6e9c 243c 95f9 02bc
00000170: 3f21 dbbc 8409 bd3c 0238 2b3c 460b d33c
00000180: 0bd8 40bc 72f5 9abc 6de7 793c c881 afba
00000190: ce4b 01bb 5ae8 cb3b 1b37 50bc 3e04 1c3d
000001a0: 166e ddba e109 c53b 6594 c1bc df73 04bd
000001b0: 55b6 b13b 3742 29bc 200c 8a3c c256 423c
000001c0: 21e2 cbbb 5baf 57bc bb3c 9bbc 01ab babb
000001d0: 6058 afbb 8574 c9bb 003f 1cbb f828 6fbc
000001e0: 5f5b 34bb 66f0 3f3c 57da 863b 0c8f 6ebc
000001f0: e6b6 87bc 8271 733c 2c02 69bb 81f9 5dbb
00000200: 25ac 6bbc e319 17bc 0ee4 1d3a a2b5 553d
00000210: 45dc 283c 75c0 39bb 1703 8ab8 1706 ddbb
00000220: 7aa6 6d3d 989f 203c a6cc 683c 6c82 d83c
00000230: 141a 423c 88ad db3c 1be9 80bc 7aae 773c
00000240: e520 0cbc ceb5 e13c 761d db3c d27c c5bc
00000250: 8ee9 4c3c 86c4 463d 6cd4 5abc 104f 11bc
00000260: 91a5 d6bb 4bbb e8ba 70bb ad39 c679 77ba
00000270: 1d3d 803c 5f7e 78bb 46f4 553c 1f86 223d
00000280: b503 74bc cdfa 8b3c 8334 ff3b 14c5 a43c
00000290: ed47 073c 0abc 953c 05b8 ac3c 6864 b53a
000002a0: e251 69bb 3c25 a8ba 198b a8bb ac2c e9bb
000002b0: 71d8 63ba 80ec ffbb 6a6a 703c 0e47 bebc
000002c0: acef aabb 0d4c e13b 4373 eebb 4277 803c
000002d0: 2998 99bc 2d4d 9cbc a6f0 563c e206 02ba
000002e0: ea6f 34bb b445 ed3c 3a78 a1bb 6838 70bb
000002f0: 4216 b23c c3b3 4a3c 771e ab3c 188a cfbc
00000300: 5dc7 45bc 4205 a8bb d3a1 8dbc 5cb1 923c
00000310: 1f5c edbb 30c3 bf3c 3470 b63b 6b52 fe3c
00000320: 8102 c43c 1a3d 5dbc 308e 20bc 63c2 a13c
00000330: d4d0 b93c f0d6 403c 694d 8bbc 72b1 c03c
00000340: f819 abbc e39f bf3c eac0 ac3c 35f7 ae3c
00000350: 73d5 98bc 5532 6d3c 6b6c bc39 5db6 23bb
00000360: 25c0 aabc f57d 92bb 633d 8b3c 6c11 16bc
00000370: cdbd 0ebb ef12 883c a1cb 30bb 1e85 0bbc
00000380: 6a32 40bc 3890 023c 7bb8 bd3a d9c0 00bd
00000390: 8233 e0bc d8d9 89b9 1efd dfbc bea3 cbba
000003a0: b89b 24bd 5e42 91bc ea9d b5bc 2bce d9bc
000003b0: 6589 16bd f316 8abd 9df1 07bd 93ae 57bb
000003c0: 59f4 00bc 0b8a 6fbc 1e38 b3bc b275 1fbc
000003d0: 8b02 2fbc 3a57 0fbd f88b 343c f3fd 803c
000003e0: 7891 e43b 3f00 29ba 36b6 d9bc d044 173c
000003f0: c625 9c3b 4ac1 a6bb 907e aabc b72a 50bb
0.012080582 -0.039317627 -0.015735732 0.07382624 0.012344431 0.006696403 -0.0025007827 0.01681203
0.049344942 -0.0054385937 0.01659562 0.0626512 0.054633472 0.022029553 0.007644462 0.019436346
-0.044811763 0.0058084927 0.050130554 -0.0071258624 0.034643047 0.03779936 -0.0011909232 -0.02520446
0.028299106 -0.019848783 0.020671923 0.027416145 -0.028095677 0.049062897 -0.004601713 0.022175483
0.0144234365 0.014285331 -0.0071176393 0.0025205784 0.025754765 -0.011235223 -0.0007087559 0.010980957
0.006164899 0.0020908422 0.02318002 -0.0003694019 -0.0054464554 0.0070401407 0.025196306 0.012177453
0.00433265 0.0056032226 0.02487932 -0.002440362 0.0212707 0.0039854106 -0.011026349 0.024799088
-0.0059553757 -0.010381477 -0.021342399 0.020829072 -0.01599204 -0.018394325 -0.026110169 -0.0039398214
0.0060159923 -0.012926453 -0.027400982 0.011333418 -0.0047719674 0.013417866 0.0078462185 0.011948608
0.0014798907 0.0013915265 0.020696523 0.025083348 -0.00048348014 -0.019301929 -0.010840037 0.032969173
-0.022014003 -0.010135954 -0.010016364 0.0050797216 -0.011666451 -0.020943211 -0.005830648 -0.014374343
0.009483611 0.0030906647 0.010047061 -0.007994075 -0.026749251 0.023075826 0.010450365 0.025762212
-0.011770259 -0.018915866 0.01525293 -0.0013390118 -0.001972902 0.006222767 -0.012708451 0.038089983
-0.001689377 0.0060131405 -0.02363033 -0.032337066 0.005423347 -0.010330728 0.016851485 0.011861505
-0.006222025 -0.013164367 -0.018949857 -0.005696655 -0.0053511113 -0.0061479234 -0.0023841262 -0.01459717
-0.0027520282 0.01171503 0.0041153836 -0.014560472 -0.016566705 0.014858605 -0.0035554273 -0.003387064
-0.014384304 -0.0092224805 0.00060230575 0.05217517 0.010306423 -0.0028343473 -6.580928e-05 -0.0067451107
0.058020093 0.009803675 0.014208948 0.026429377 0.011847038 0.026816145 -0.015736153 0.015117282
-0.008552765 0.027552512 0.026747447 -0.02410737 0.012506856 0.048527263 -0.013356309 -0.008868948
-0.006550499 -0.0017756013 0.00033136783 -0.0009440448 0.015654141 -0.003791712 0.013058728 0.03967869
-0.014893462 0.017087365 0.0077882423 0.020113505 0.008256895 0.01827814 0.021083841 0.0013839127
-0.0035601784 -0.001282848 -0.005143535 -0.007115921 -0.0008691615 -0.0078101754 0.014673809 -0.02322724
-0.0052165594 0.006875521 -0.007276924 0.015681867 -0.018749313 -0.019079769 0.0131188985 -0.0004960132
-0.0027532526 0.028963901 -0.004927662 -0.0036654714 0.021739129 0.01237196 0.02088855 -0.025334403
-0.012071458 -0.00512758 -0.017289078 0.017906837 -0.0072436477 0.023408502 0.005567575 0.03104516
0.023926975 -0.013503337 -0.009799525 0.019746011 0.022682585 0.011769995 -0.017004685 0.023522113
-0.020886406 0.02339167 0.021088082 0.021358112 -0.018656468 0.014477332 0.00035938932 -0.0024980523
-0.020843575 -0.0044705817 0.016997045 -0.009159427 -0.002178061 0.01661059 -0.002697684 -0.008515624
-0.01173077 0.007968955 0.0014474535 -0.031433914 -0.02736831 -0.00026292983 -0.027342375 -0.001553647
-0.040187567 -0.017731842 -0.022170026 -0.026587566 -0.036752123 -0.067426585 -0.033189405 -0.003291045
-0.007870757 -0.014620314 -0.021877345 -0.009732651 -0.010681759 -0.034995295 0.011019699 0.015746092
0.006975349 -0.0006446875 -0.026576143 0.009232715 0.004765245 -0.00508896 -0.020812303 -0.0031763741

Const_7 f4 [32]
00000000: dfdc 813e 92dc 883e ae8d af3c e935 f53c
00000010: 5250 fa3c 5a99 bbbd b435 773c 5085 8e3e
00000020: d337 583d 970e 22bd 5e0a 723c 669a b43d
00000030: a8e1 9d3d 1051 c33c 2f67 893d b87a 233d
00000040: 02a2 a43e 0881 ff3c b57a 8c3c 0949 d53c
00000050: ee9c 893e 03c7 38bc 4650 fa3b 38fa b7bc
00000060: c0d3 343c 6018 483d 8bfb 803e 0e47 d03b
00000070: bc28 863e 3241 1b3d ed2a 8f3e 64ee fc3c
0.25363824 0.26730782 0.021429863 0.029932933 0.030555878 -0.09160109 0.015088487 0.27836084
0.052787613 -0.039564695 0.01477298 0.08818512 0.07709056 0.023842365 0.06709134 0.039911956
0.32154852 0.031189457 0.017148355 0.026035802 0.2687754 -0.011277917 0.007638964 -0.02245818
0.011036813 0.04885137 0.25191912 0.0063561266 0.26202953 0.037903972 0.27962437 0.030875392

Const_6 f4 [32]
00000000: d8f1 9e3f 8b22 a33f 6fd2 823f e95c 863f
00000010: d709 863f e406 6e3f c6ce 833f 7355 a63f
00000020: a32d 8a3f bef0 783f 3d8e 803f 558f 903f
00000030: 5d92 903f 1dc4 813f 06ca 8c3f 4d1a 813f
00000040: ef97 b23f ac2f 853f 5622 843f d474 873f
00000050: 5ff6 a23f ebf6 7b3f e99c 803f 2642 7f3f
00000060: 9910 833f b44d 883f 4367 9e3f 807a 803f
00000070: 6633 a13f 86d0 823f 018e a53f 9ce9 863f
1.2417555 1.2744917 1.0220469 1.0497104 1.0471753 0.92979264 1.0297477 1.2994827
1.0795177 0.97242343 1.0043408 1.1293741 1.1294667 1.0137974 1.0999153 1.0086151
1.3952616 1.0405173 1.0322978 1.0582528 1.2731436 0.9842364 1.0047885 0.9971031
1.023944 1.0648713 1.2375263 1.0037384 1.259381 1.0219886 1.2933961 1.0540042

Const_5 f4 [32]
00000000: 9ac0 f63d 1bdb a63b 5210 cd3d 6053 ac3d
00000010: afec be3d 0887 efbd 49d8 c13d 6088 63bb
00000020: 2802 17be 7511 1f3e 2eaf c5bd ce8c a1bd
00000030: c968 a33d 18d5 b9bd 6c26 693d a304 553c
00000040: 806e 213e c906 af3d ad57 5c3c dfc3 91bc
00000050: 42a0 413e 9428 c7bd 928b c6bd 5282 c8bc
00000060: 246d 8fbd a953 a1bd ec2e 1d3e 3acd fd3d
00000070: dd88 66bc d3b6 9ebd 6aa5 ea3c b4f3 01bd
0.120484546 0.0050920374 0.100128785 0.0841434 0.093224876 -0.11695677 0.09465081 -0.0034718737
-0.14746916 0.15534003 -0.096525535 -0.078881845 0.079789706 -0.090738475 0.056921408 0.013001594
0.15764809 0.08546216 0.013448638 -0.017793594 0.1890879 -0.097245365 -0.0969459 -0.024476204
-0.07003239 -0.07877285 0.1534993 0.123926595 -0.014070717 -0.07749715 0.028643329 -0.031726554

Const_3 f4 [32]
00000000: 70bf 3f3c bb31 d33c b184 7c3c a66d 023d
00000010: 504e 04bc 8869 b23c afa9 06bc 331c f63c
00000020: 9f15 073c 51fe 903c 8959 45bc 995c 143b
00000030: 7aa0 673b a248 c93c 242b 01bc 922a 1c3d
00000040: cd29 64ba 25a5 50bc da10 f7bc 9469 fd3c
00000050: 1ba9 43bc 6869 d23c 8f54 0c3d dff9 973c
00000060: 25d3 86bc e367 353c c55b 84bc c635 85bc
00000070: b0ca 88bb 0ddf acbc 9b11 8bbc c920 b8bc
0.011703357 0.02578055 0.0154124955 0.03184285 -0.008075312 0.021778837 -0.008219167 0.030042743
0.008244901 0.017699393 -0.012045273 0.00226382 0.0035343454 0.024570767 -0.007883821 0.038126536
-0.00087037386 -0.012734686 -0.030159403 0.030934133 -0.011942173 0.025685027 0.03426033 0.018551765
-0.016458103 0.011072132 -0.01615704 -0.016260993 -0.004174553 -0.021102453 -0.016976168 -0.02247657

Const_2 f4 [32]
00000000: 853a 7b3f c3bb 833f 319e 813f 3501 813f
00000010: d83f 753f 1aa2 7c3f df24 803f 6c6c 7d3f
00000020: 1f18 803f 9445 813f 1984 743f 1297 813f
00000030: 45b0 813f cc7a 833f 5033 7e3f 2e0e 813f
00000040: 8724 813f dba8 7d3f d1c0 763f 7d15 823f
00000050: 0476 7e3f ac0a 803f 566d 7c3f 0684 823f
00000060: 11af 7e3f d583 823f e544 7f3f 513a 7f3f
00000070: a7eb 763f 925d 7d3f 003d 7f3f 8ed7 773f
0.9813617 1.0291675 1.0126401 1.0078493 0.9580054 0.9868485 1.0011252 0.98993564
1.0007361 1.0099359 0.95514065 1.0124228 1.0131918 1.027185 0.99297047 1.0082452
1.0089272 0.9908578 0.96387964 1.0162808 0.9939883 1.0003257 0.98604333 1.019654
0.9948588 1.0196482 0.997145 0.9969836 0.96453327 0.989709 0.99702454 0.96813285

Const_1 f4 [32]
00000000: 198b 653c 5491 88bc d179 81bb b166 813c
00000010: 7141 533c ebf4 823c 15d4 103c 0b4c ffbb
00000020: ed7f acbc 0241 a13c 1db3 0b3c e78e 863c
00000030: b535 bf3b b710 32bb cfb3 55bb 0113 cdbc
00000040: b052 063c b840 02bc 3140 513c 779e 97bc
00000050: 767a a13c 8d6f 7c3c 6124 e73c 7dd8 a13b
00000060: 5080 3abc 34bd 61bc 867d 703c 651a a7bc
00000070: 2661 683c 9feb e4bc 3363 d13b d1d8 42bc
0.014010214 -0.01667086 -0.003951289 0.015796037 0.01289402 0.015985927 0.008839627 -0.0077910475
-0.021057094 0.019684318 0.008526591 0.016425563 0.00583526 -0.0027170607 -0.0032608395 -0.025033476
0.008198425 -0.00795 0.012771652 -0.01850818 0.019711714 0.015407455 0.028215589 0.0049391375
-0.011383131 -0.01377802 0.014678365 -0.020398328 0.014183318 -0.027944384 0.0063899993 -0.011892513
