en/wheatley/wheatley.onnx (onnx, 208135 bytes, 9 tensors)

model/tf.math.add_1/Add/y f4 [32]
00000000: ee10 423e d2ef dc3d 35a8 803d 02ef 4cbe
00000010: a9a4 0ebe 4c56 1e3d 144b 113e 9caf 9dbc
00000020: 705b 443e 91b7 3d3e c735 31bc 3753 22bd
00000030: 4eae d7bd 2f38 86bc 25fe abbd b675 40bd
00000040: a0f6 af3c e547 0a3d 1b26 053e 015d 21be
00000050: 3c7d 833d 0246 a1bd 7037 8e3d 9b05 963e
00000060: 0342 89bd dd70 843a d2d1 04be 68cf 9d3c
00000070: e5a8 f83d 5562 eabc 3345 483e 7f38 0fbe
0.1895177 0.107879296 0.06282083 -0.20013049 -0.1393 0.038656518 0.14188796 -0.019248776
0.19175506 0.18527056 -0.010816044 -0.03963014 -0.10531293 -0.016384212 -0.083980836 -0.046987258
0.021479905 0.03375997 0.13002817 -0.15758134 0.06420371 -0.07874681 0.069441676 0.29301152
-0.06702044 0.0010104437 -0.12970665 0.019263938 0.12141589 -0.028611341 0.19557647 -0.13986395

model/tf.math.add/Add/y f4 [32]
00000000: 1a96 263d 3196 733d 9d22 ec3c dc8b 643c
00000010: c9cb e23a 8200 043d d775 313c 8604 76bb
00000020: e3df 95bb 0c24 24bc 1df5 d33c 86db 623d
00000030: 3464 523c 8192 1a3d 4ecc 8a3d 08d2 a33c
00000040: 3fcb e53c 9b79 25bc 45aa a0bc a469 ac3d
00000050: 69cf fa3c ab88 7d3d 5d75 b63d a457 97bc
00000060: 64cd d8bb e726 a73b bec3 b7bb ed33 d43d
00000070: c5e5 b93b 9419 5d3d e07f cb3c 4859 ae3d
0.04067049 0.059469406 0.028825099 0.013949361 0.0017303164 0.032227047 0.010831318 -0.0037539317
-0.0045738085 -0.01001836 0.025873715 0.055385135 0.012841273 0.037737373 0.06777249 0.019997612
0.028051017 -0.010099794 -0.01961244 0.08418587 0.030616479 0.061897915 0.08909104 -0.018474407
-0.0066162813 0.005101073 -0.005608051 0.103614666 0.0056731426 0.05397947 0.024841249 0.08513123

model/layer_normalization_1/batchnorm/mul/ReadVariableOp/resource f4 [32]
00000000: d867 a83f 24f4 883f 3455 763f 14e9 9e3f
00000010: d65a 913f 0f19 9c3f 2aec ad3f 838b a13f
00000020: 36a8 aa3f 63fc 9f3f 24d0 9a3f 9934 603f
00000030: 07c4 973f d96e a03f 87ed aa3f a0aa 423f
00000040: 8415 a23f 5ed5 9b3f 50a5 a43f cab3 933f
00000050: f1c5 ac3f a65b 9c3f 38df 983f ab5c b23f
00000060: 8120 9c3f 0d58 a03f 3186 ae3f 20e8 a03f
00000070: 92d2 893f 6ef5 a33f 144f 9d3f 5598 a13f
1.3156691 1.0699506 0.9622376 1.241488 1.1355846 1.2195147 1.3587697 1.2620701
1.3332584 1.2498897 1.209477 0.8758026 1.1856698 1.2533828 1.3353738 0.76041603
1.2662816 1.217449 1.2862949 1.1539242 1.3497907 1.2215469 1.1943121 1.393453
1.219742 1.2526871 1.3634702 1.2570839 1.0767386 1.2809274 1.2289758 1.2624613

model/layer_normalization_1/batchnorm/ReadVariableOp/resource f4 [32]
00000000: 391c 8c3e 707e 693e 00ec 20be bfa7 2f3e
00000010: 43fd b9bd 5221 d93d dee9 853e 80e3 2f3e
00000020: fb4d 143e 09a3 0f3e 368e 04bd c673 c2be
00000030: 16e1 103e d4f8 a1bd d7c6 133e 99da c2be
00000040: 72ae 073d 78af 8f3d 5b1f 803e 47b5 493d
00000050: b5cc be3c edcc 873e a61b b33d f91e 963e
00000060: 3caf 783e 68df 4d3d 88eb 993d 2d2a fb3d
00000070: c76b 153e 6676 973c ef7f 9a3e 6ea7 723d
0.27365282 0.22802138 -0.15715027 0.17153834 -0.09081509 0.106020585 0.2615499 0.17176628
0.14482872 0.14027037 -0.032362185 -0.37978953 0.14148363 -0.07908788 0.1443132 -0.38057402
0.03312535 0.0701589 0.25023922 0.049245145 0.023290971 0.26523533 0.08745508 0.29320505
0.24285597 0.050261885 0.07515627 0.12263904 0.14591895 0.018489074 0.3017573 0.059241705

model/layer_normalization/batchnorm/mul/ReadVariableOp/resource f4 [32]
00000000: c449 9b3f 9415 863f 8f18 813f 3d12 7e3f
00000010: 19d4 843f 15cb 843f 1b46 8b3f 5d16 843f
00000020: eb34 803f 66b8 843f 5fc7 843f c48e 9b3f
00000030: 8ee9 873f 8fda 723f bec4 843f 34cf 813f
00000040: c37c 873f 4992 823f bc57 8b3f d542 ac3f
00000050: 92e1 823f 2c48 bb3f d61c 723f 71aa 863f
00000060: 51e7 7d3f 4c03 763f d764 823f 0793 a63f
00000070: 9ddd 8c3f ad60 993f 8d4e 753f 4994 853f
1.2131886 1.0475335 1.008562 0.9924658 1.0377227 1.0374476 1.088077 1.0319325
1.0016149 1.0368774 1.0373343 1.2152944 1.061815 0.94864744 1.0372541 1.0141358
1.0584949 1.0200893 1.088615 1.3457896 1.0225089 1.46314 0.9457525 1.0520765
0.99181086 0.9609878 1.0187024 1.3013619 1.1005131 1.1982628 0.95822984 1.0435878

model/layer_normalization/batchnorm/ReadVariableOp/resource f4 [32]
00000000: 3868 a83d 2289 be3d da25 80bb f786 5bbd
00000010: 260c d0bc 7858 59bd fedc a73c 629b 5abc
00000020: fd1a 50bd 5858 19bd 62c9 c1bb f450 b13d
00000030: 9f2a c13a 8a62 dbbd e027 c53d d8a2 dabc
00000040: 213a 7cbc ddaf 31bd e08e a5bc ac10 523d
00000050: 4dae 53bd c00b fa3d 867e 8c3d adc2 78bd
00000060: 12bc 9abd d0af 78bd a162 4dbc 4a3e db3d
00000070: 3b86 6cbc cba9 a63c bd5b 93bd d2ed c63d
0.08223003 0.093035 -0.0039107623 -0.05359551 -0.025396418 -0.053062886 0.02049112 -0.01334271
-0.050806988 -0.037437767 -0.0059138993 0.08658019 0.0014737434 -0.10712154 0.09626746 -0.026688978
-0.015394718 -0.043380607 -0.02020973 0.05128543 -0.051679898 0.122092724 0.0686007 -0.060732532
-0.07555403 -0.060714543 -0.012535722 0.1070524 -0.0144363 0.020344635 -0.07195232 0.097133294

const_fold_opt__25 f4 [1536, 32]
00000000: 34e9 95bc c521 83bd 4c19 84bd 2bd5 a4bd
00000010: 6dd0 97ba 884b d7bd 3b73 e0bd 474f 0fbd
00000020: 06e9 a0bd ebf7 1ebd 7680 8ebd b465 923d
00000030: 1bb9 52bd d0f4 0dbe cc97 82bd d019 113c
00000040: befd 4abd da88 8bbd 6062 22bd a9c0 9bbc
00000050: 3477 9fbd cb53 423c bc2d 71bd 28a4 36bd
00000060: 1949 83bc 6c2b 9fbb 2cf4 20bd b5b7 803d
00000070: 1ef9 63bd eaaa c4bd c526 a4bd e3cf 8dbd
00000080: 25d9 4a3c da77 c53c e508 933d c84e b63d
00000090: 2274 893d ddb8 c83d b5c2 ab3d 8643 883d
000000a0: deb3 753d b1d0 cd3c 7061 863d 0ad7 033d
000000b0: 8d93 673d bc84 7f3d 3611 c9bb 78b1 8d3d
000000c0: f39f a43d 6bd2 913d bf09 293d a0c4 e83c
000000d0: 4bba 703d 4351 c63c bafe 36bc 6a95 983d
000000e0: dbab ee3d 6b4f eb3d bc41 a13d ef12 943c
000000f0: 9066 ad3d 877e 283d 324e c63d c3f1 d23c
00000100: 7142 5d3d 4051 583c 5a46 30bd 18c0 973b
00000110: 59ae 5abd 89d8 e3bc eb8e 91bd 6bf6 00bb
00000120: 33cc 9d3c f862 2cbd 7859 9fba f6fb 93bd
00000130: f022 a2bd c1a7 c33b 9b12 a13d b818 cdbd
00000140: 2cb6 d0bc 3285 77bd 0d44 ea3b b2f1 4cbc
00000150: 394a 53bc c6ce c13d f192 623d 2b4b 5c3d
00000160: d5a2 60bd 7f77 90bb 2096 673c 4333 7d3d
00000170: 7111 da37 a94e 003d ba09 adbd ac5e 9e3d
00000180: 711a e9bc cfac 933d 15c4 d5bc 89f6 c1bd
00000190: a05e f0bd 6bf4 8fbd 7bb2 31bd a3bc a9bc
000001a0: 86c0 103d 0826 91bc 2754 3fbd d569 83bd
000001b0: 0283 47bd 50d0 8c3d 585d c13d c32d 00bc
000001c0: 6c0e f3bd 5fcc 3abc eaed 29bd 7c72 abbc
000001d0: 1be4 fabc 9c78 2e3d 1952 453c bdc0 12be
000001e0: 1419 1bbe 2dd5 b6bd b0b6 62bd d6da adbb
000001f0: de68 c8bc d47f 4abc d4fe dabc 2a47 2a3d
00000200: 8f36 c43d b4f3 303d eae6 9a3c 2abe 5e3d
00000210: 9e4c 773d 9217 013d d6e0 193d 36a0 2e3d
00000220: 9b8a 7f3b 8ac9 84bc 5bb1 453d 1e6d 903d
00000230: 4f96 2dbb a76d 363c d37f 443d 4776 053d
00000240: a083 bc3d 0592 9d3c 06e6 a93b 496b 213d
00000250: 9cac 8f3a 89da 95bc d255 773d 73d1 513d
00000260: 40e8 593d b303 fe3c 4d8d 693d b101 9e3d
00000270: e6fc 73bc efe7 383d 9db7 9b3c fe71 903d
00000280: dbc3 483d add9 8a3d 003b 39bb 5a3d 4f3d
00000290: 9d6a cb3c afdf 32bc 0621 583c 4954 9e3b
000002a0: 02a7 913c 6a12 a33c 7a2b 203d 4c25 313d
000002b0: 48d8 a53c 164b 95b9 886e af3d 18e6 b73c
000002c0: be7e 9a3c bcf0 8d3c 7a0a fb3c 2b7f 893c
000002d0: c3f2 efbc 9561 523d 7479 893d f1fd ebba
000002e0: 2fd6 b03c 8eb9 a7bb 5e69 013d b5a8 893d
000002f0: 1c6a 9cbc 736e 7d3d 17bc 063d 697a 8c3d
00000300: 4a1f 803d 7825 603d 5cef a03d 6366 203d
00000310: acd5 1c3d 7382 ee3c ae52 693d 438b 813d
00000320: d9ae 2b3c 5cc4 a23d db6c f23c 56c8 043d
00000330: a628 903d 393b 823c 6e6a 613d fecc 4d3c
00000340: bf05 713d f548 ce3d 792b 253d 91a2 5c3d
00000350: aa91 633d be84 c63c a227 873d 728b 3a3d
00000360: 45cf f5ba a0f2 c43d 94f1 493c 1894 833c
00000370: 7608 f13c 43de 1d3c 7ad3 213d bdef 743d
00000380: 014e dfbd bf01 0ebd d4ca 323b 9380 f9bc
00000390: 0d39 6dbd 6948 7dbd 60b0 5c3c 6361 01bd
000003a0: 3c5f 43bd 2996 a2bc 3fd6 2ebd f3f5 33bc
000003b0: 0a73 c73c f0f0 073d 5c27 a3bd e953 3dbd
000003c0: aeb7 afbb 4cf4 e03b 7a16 c0bd 6944 6cbd
000003d0: 9f45 c2bc 7d4f 18bd 0bb0 87bd 43e5 913c
000003e0: 5250 56bd 3d40 71bc e935 5ebd 6eaf efbc
000003f0: 7fcd 00be 2229 743c 3286 4fbc 2102 cbbd
-0.018299676 -0.064029254 -0.064501375 -0.08048471 -0.0011582501 -0.10512453 -0.109594785 -0.034987714
-0.07856946 -0.03881065 -0.06958096 0.071483046 -0.05144606 -0.1386292 -0.06376609 0.008856252
-0.049558394 -0.06813212 -0.0396446 -0.019012766 -0.07786408 0.011860798 -0.058881506 -0.044590145
-0.016026067 -0.004857471 -0.03929536 0.06285039 -0.0556575 -0.09602912 -0.08015207 -0.06924417
0.012380873 0.024105001 0.07179431 0.08901745 0.06711604 0.09800885 0.08386747 0.06653504
0.059985988 0.025123926 0.065615535 0.0321875 0.0565372 0.062382445 -0.006136085 0.06918615
0.080383204 0.07120212 0.04126906 0.02841407 0.058771413 0.02420867 -0.01116913 0.074503735
0.116538726 0.11489757 0.07873866 0.018075434 0.08466828 0.04113629 0.09682883 0.025750047
0.05401844 0.013202965 -0.043035842 0.0046310537 -0.053388927 -0.027813213 -0.071073376 -0.0019678127
0.019262409 -0.04208657 -0.0012157401 -0.07225792 -0.0791682 0.0059709256 0.07864877 -0.1001448
-0.025477491 -0.06042976 0.0071492256 -0.0125087965 -0.012896114 0.09463267 0.055315915 0.053782623
-0.05484279 -0.0044087763 0.014134914 0.061816465 2.5995747e-05 0.031325016 -0.08449121 0.07732901
-0.028454991 0.07210695 -0.026094476 -0.09470851 -0.11736798 -0.07029041 -0.043383103 -0.020719832
0.035339855 -0.01771833 -0.046711113 -0.0641667 -0.048708923 0.0687567 0.09441632 -0.00782341
-0.11867985 -0.011401265 -0.04148666 -0.020928614 -0.030626347 0.04259549 0.012043499 -0.14331336
-0.15146285 -0.08927379 -0.055350006 -0.0053056283 -0.024464067 -0.012359578 -0.02673284 0.041571774
0.09580719 0.043201163 0.018908937 0.054380573 0.060375802 0.03151662 0.037567936 0.042633258
0.0038992527 -0.016209383 0.048264842 0.070520625 -0.0026487296 0.011134542 0.047973465 0.0325835
0.09204793 0.019234667 0.0051848916 0.039408956 0.0010961476 -0.018292682 0.06038458 0.051225137
0.053200006 0.031007623 0.05701952 0.07715166 -0.014891839 0.045143064 0.019008452 0.07052992
0.049014907 0.067797996 -0.0028263927 0.05059562 0.02483111 -0.010917588 0.013191467 0.004831825
0.01777983 0.019906241 0.039103962 0.04324846 0.020244732 -0.00028475438 0.08566004 0.022448584
0.018859264 0.017326705 0.030644644 0.016784271 -0.029290562 0.051362593 0.067126185 -0.0018004758
0.021586506 -0.0051185554 0.031594627 0.067216314 -0.019093566 0.06187291 0.03289422 0.068592854
0.06255968 0.054723233 0.07858154 0.039160144 0.03828971 0.029114937 0.056963615 0.0632539
0.010478699 0.07947609 0.029592922 0.032417618 0.07039003 0.01589738 0.05503314 0.012561081
0.05884337 0.10072509 0.040324662 0.053865973 0.055558838 0.024233218 0.06599356 0.04554314
-0.0018753788 0.096165895 0.012325663 0.016061828 0.02942298 0.009635511 0.03950832 0.059798945
-0.1090355 -0.034669634 0.002728154 -0.030456817 -0.057915736 -0.061836634 0.013469785 -0.031587016
-0.047698244 -0.019846993 -0.04268479 -0.010983932 0.024346847 0.03318876 -0.079664916 -0.0462226
-0.0053624725 0.00686506 -0.09379287 -0.05768243 -0.023714839 -0.03718518 -0.066253744 0.017809516
-0.052322693 -0.014724788 -0.05425063 -0.029258456 -0.1257839 0.014902385 -0.012666272 -0.099125154

const_fold_opt__24 f4 [32, 32]
00000000: d794 b83e 5fa2 a33e c040 683e 4ae7 74be
00000010: b9f6 50be a6d4 8dbd e6a7 aa3e 2b6b 62be
00000020: 6088 4cbe 6da7 f0bd 62b8 0cbe fcd7 583e
00000030: 861e b6bd 182b 803e 445b 3cbe 8225 863e
00000040: 4172 8abc 4e2e 21be ba70 c13d 8872 23bd
00000050: 19f1 813d 8f1d 8c3e 5da7 23be 1bec bb3e
00000060: c8ac 5a3e e90e c0bb 6c64 223e 9012 6abe
00000070: 4320 963d bb51 dabd e3af e13e 059d 15be
00000080: a0dd 743d ea2a ec3d b15f 91bd 3b18 8b3d
00000090: 5fa1 2d3e d895 cbbd 5cb7 3d3e edea d83d
000000a0: aa03 dd3d c5b8 13be c525 213e 356f 63bc
000000b0: d372 16bd 36cf dabd 9f6d be3d 3884 313e
000000c0: 39d0 23bd 8bf8 b5bd 7883 80bd 5073 0bbe
000000d0: e210 e8bd 9379 293e 1a4c aa3d 7ccd f2bb
000000e0: cdbf 213e c6a1 febc 9645 12be 5c9c 4bbc
000000f0: 718d 493e f288 4b3e 25d8 663e d4f0 58bc
00000100: 4353 76bd 5a0f ebbd 9c28 01be d9e8 7f3e
00000110: 52dc 5b3e 3856 bcbc 0559 adbd e34f 363e
00000120: 327d 4b3e 2829 aa3e d862 d13d abba 903d
00000130: ad62 523e f189 02be a441 983e 2df3 14bd
00000140: f081 063e 6c49 493e 58e7 4dbe 4be9 793c
00000150: df5f 833e 9542 2fbe bfc4 943c e7f5 e43c
00000160: c403 20be 5bea 0c3e 5ff9 883e c3cc da3d
00000170: 1b4a fb3b e373 7c3e a50b efbd 56cd 5a3d
00000180: 88ed 043d fd1b 41be 2a16 bdbd 469a 8b3d
00000190: 94e0 b73d 1374 293e 093e 37be 4864 c6bc
000001a0: e35d 613d 6157 573e 941a 4cbc 5a4d 17bd
000001b0: 8753 753e c711 c8bc 64b9 7e3d 1280 d9bd
000001c0: 82f7 4e3e b24f 363e 8142 77be 35d4 173e
000001d0: fb49 203c 9642 823d 932f cc3d 72f8 03be
000001e0: 6337 a0bd a917 023e ab7e bd3d dc64 323e
000001f0: d874 8a3d 32ae 0a3e 1421 1fbe 3dec 903d
00000200: 73a1 3abe 8573 f5bd 56bb c13d 79dc 4e3e
00000210: f522 bc3d feb4 2a3e 4106 a4bd 39cb 5a3e
00000220: b02a e23d e6df 4f3e 76be 3a3e 77bb 973d
00000230: 88a3 793e d0cf 913c 19c9 e53d 5519 9b3d
00000240: d89a 8b3d 4be2 be3d 0a2f 9abc a7f0 dc3d
00000250: 64e8 4e3e 8364 72be aedb 723e a252 2f3d
00000260: 9536 00be 0b17 1b3e 3f6a 8b3e bdb3 963d
00000270: f7b5 1cbd b106 053e 9bb4 05be b213 4d3e
00000280: c946 f7bd 70ac 1dbe c6d3 3ebb bc71 fe3d
00000290: 87b1 853e 5d8d 193e 3ce7 0a3c 221c 243e
000002a0: 32fc ed3d c759 f73d d848 c33d 2029 90bd
000002b0: 56c2 303e eaed aebd dbe7 673e 5591 fa3d
000002c0: bef5 953d ed5b 1a3e 1a42 10be 5a98 1f3e
000002d0: f0f0 133e 388e 50be 0157 603e b32a 57be
000002e0: f45f a3be d58b 7d3e b186 5f3d 4fcd 443e
000002f0: 6f2d 3b3d 7eb6 a03e bd88 26be 036f 1e3e
00000300: e5f5 653d 0288 56bd 18ef b93d 32fd 123e
00000310: 6f7c 023d d588 8a3e d9dc 0ebe 864c 533e
00000320: 423d 803e 29ae 973e fc24 cabc 6f67 8d3d
00000330: f421 cd3d 22f9 8d3b f2f7 813e 7b27 c4bd
00000340: 7954 653d 9ddb 513e b0bd 0ebe 24c4 783d
00000350: 5411 213d 0c1c 0bbe e48f 453e 8aa6 533d
00000360: f30f 80bd 7238 80bd 06fe e1bd 814c ad3d
00000370: bd0b c4bd ffba 383e c622 82bd bf60 cfbd
00000380: 7745 3fbe 99da edbd 3577 0dbe 716c 533e
00000390: 8f91 d53d e054 383d d397 6cbd 0fa5 9a3d
000003a0: 92e3 6b3d 79c0 833e de6c 833d e2e6 9cbc
000003b0: 0da8 333e 8331 00be afe0 b63c 843f 9ebb
000003c0: e350 143e 750c 433e 103d 44be 8e33 203e
000003d0: 3e1d 5e3e ef46 84bc 8f97 873d 5a9b 49be
000003e0: b65b 4abe e712 543e dc36 993e 0031 463e
000003f0: c859 5abd 6bf1 a83d befd 4bbe 1852 903e
0.36051056 0.31959817 0.2268095 -0.23916355 -0.20406617 -0.06925325 0.3333122 -0.22111194
-0.19973898 -0.11750684 -0.13742211 0.21176142 -0.08892541 0.25032878 -0.1839419 0.2620049
-0.016900184 -0.1574032 0.09445329 -0.039904147 0.06344814 0.273663 -0.15981813 0.36703572
0.21354973 -0.0058611524 0.1585862 -0.22858644 0.07330372 -0.1066012 0.44079503 -0.1461068
0.05978167 0.11531623 -0.0709833 0.06791731 0.1695609 -0.0994069 0.18526977 0.105916835
0.107917145 -0.14425953 0.15737064 -0.013881494 -0.0367306 -0.106840536 0.09298252 0.17335594
-0.0399935 -0.088852964 -0.06275076 -0.13618207 -0.11331345 0.16550283 0.083152965 -0.0074097496
0.15795822 -0.031082999 -0.14284357 -0.012427416 0.19682862 0.19876459 0.2254339 -0.013241012
-0.060138 -0.114775375 -0.12613147 0.24991168 0.21470764 -0.022990331 -0.08464245 0.17803912
0.19871977 0.33234525 0.10223931 0.07066854 0.20545454 -0.12747933 0.2973758 -0.036364723
0.13135505 0.19656914 -0.20107782 0.015253375 0.2565908 -0.17115243 0.018160222 0.027949287
-0.15626436 0.13761275 0.26752755 0.106835864 0.007668746 0.24653582 -0.11672143 0.05341848
0.03245309 -0.18858333 -0.09232743 0.06816535 0.08978382 0.16548185 -0.17894758 -0.02421774
0.055021178 0.21029426 -0.012457509 -0.036939003 0.23957644 -0.02442254 0.06218852 -0.106201306
0.20211604 0.17803839 -0.24146463 0.14827044 0.009783263 0.063603565 0.099700116 -0.12887743
-0.07823064 0.12704338 0.092526756 0.17421287 0.067605674 0.13543013 -0.15539962 0.07076309
-0.1822565 -0.11984924 0.094595596 0.20201291 0.09186355 0.16670606 -0.08009005 0.21366586
0.11043298 0.20300254 0.18236718 0.07408803 0.24378788 0.017799288 0.11219997 0.07573191
0.068166435 0.09320506 -0.018821258 0.10788088 0.20205837 -0.23671155 0.23716614 0.042803414
-0.12520821 0.15145509 0.27229497 0.07358501 -0.038259473 0.12990834 -0.13057177 0.20027044
-0.12074048 -0.15397811 -0.0029117926 0.12424037 0.26112005 0.14995332 0.008477982 0.16026357
0.11620368 0.120776705 0.09535378 -0.07039094 0.17261633 -0.08541472 0.2264704 0.12234751
0.07322262 0.1507413 -0.14087716 0.15585461 0.14447379 -0.20366752 0.2190819 -0.21012382
-0.31909144 0.24760373 0.05457181 0.19218944 0.045697626 0.3138923 -0.16263099 0.15472035
0.056142706 -0.0523758 0.09078807 0.14354399 0.03185695 0.2705752 -0.13951434 0.2063466
0.25046736 0.2962506 -0.024675839 0.06904494 0.10016242 0.0043326775 0.2538448 -0.09577843
0.055988763 0.20493932 -0.13939548 0.06073393 0.039323166 -0.13584918 0.19293171 0.051672496
-0.06253042 -0.06260766 -0.11034779 0.084618576 -0.095725514 0.18040083 -0.06354289 -0.10125875
-0.18678842 -0.1161396 -0.13815005 0.20646836 0.10428154 0.045002818 -0.05776198 0.07551014
0.057590075 0.25732782 0.06417249 -0.019153062 0.17544575 -0.12518887 0.022323934 -0.004829349
0.14483981 0.1904772 -0.19163918 0.15644667 0.21690843 -0.016147105 0.066207044 -0.19688168
-0.19761547 0.20710336 0.29924667 0.1935463 -0.05330828 0.08249172 -0.19921014 0.28187633

const_fold_opt__23 f4 [32, 1]
00000000: cf30 f6be be00 42be fc4a 29be 0f42 963e
00000010: 5c3b 653e 917a a83e c62c fcbe 1694 b13e
00000020: 597d aa3e e25e 8b3e 7577 783e 196b f9bd
00000030: ad1d 913e 8006 b0be 4559 e73e a607 89ba
00000040: 388d 7d3e 633f 913e 5185 b4be db3c 343e
00000050: edff a83e 28ab afbe aa0c b33e 3d55 eebe
00000060: 0a0f acbe a9b2 aa3e 3e9f f33e 9eec 843e
00000070: 6a78 e83d 32f5 a43e 1dd1 96be 3c94 b83e
-0.48084113 -0.18945596 -0.1653251 0.29347274 0.22385925 0.3290601 -0.4925291 0.34683293
0.33298758 0.27220827 0.24264319 -0.121786304 0.28342953 -0.3437996 0.45185295 -0.001045455
0.24760902 0.28368673 -0.35257962 0.1760134 0.33007756 -0.3431027 0.349706 -0.46549407
-0.33605224 0.33339432 0.4758243 0.25961775 0.11351092 0.3221832 -0.29456416 0.36050594
