en/jupiter/jupiter-40-30-1300.onnx (onnx, 206984 bytes, 9 tensors)

const_fold_opt__23 f4 [32, 1]
-0.37023094 0.0866102 0.018910296 0.20097184 0.029022228 -0.003552656 0.18633126 -0.3533073
0.20540771 0.008126165 -0.024272675 0.17570008 -0.31990618 0.22860368 -0.37494254 0.05318347
0.052449152 0.013342098 0.0603898 0.17575257 0.082353376 0.1683074 0.088119194 0.21720755
-0.33731115 -0.38629454 -0.36126277 0.22102599 -0.35895628 0.3733772 -0.10549673 -0.33036977
00000000: e98e bdbe b060 b13d c4e9 9a3c 90cb 4d3e
00000010: 06c0 ed3c add3 68bb 9fcd 3e3e b2e4 b4be
00000020: 6656 523e 9b23 053c 7dd7 c6bc b9ea 333e
00000030: beca a3be 1517 6a3e 78f8 bfbe e9d6 593d
00000040: ecd4 563d d198 5a3c 4c5b 773d 7bf8 333e
00000050: e3a8 a83d c658 2c3e d677 b43d a86b 5e3e
00000060: 0cb4 acbe 66c8 c5be 6ff7 b8be a354 623e
00000070: 1ec9 b7be 4c2b bf3e ab0e d8bd 3a26 a9be

const_fold_opt__21 f4 [32, 32]
0.12830305 -0.14506619 -0.027757829 -0.13669486 -0.16253053 -0.090183645 -0.06543567 0.07012086
0.050479557 -0.008570302 -0.008188777 -0.10207041 0.113704205 -0.12269584 0.03778079 -0.0008999682
-0.117968306 -0.16218203 -0.10526256 -0.017663928 -0.13836627 -0.10704915 0.074686624 0.014912977
0.01838929 -0.01811664 0.15908678 0.0892609 0.14883125 -0.13486873 -0.03787602 -0.04608007
-0.04683203 -0.15179068 -0.05053494 -0.009256365 0.019624943 -0.06323004 0.04165219 -0.09823756
0.21734586 0.014054632 -0.011667743 -0.08456207 -0.060929433 0.092097946 -0.09344435 -0.10428538
-0.1497942 0.0031526315 0.027148454 0.14329347 -0.018357214 0.07135323 0.10076456 0.18583208
0.0368454 0.05622494 -0.0087932 0.023689017 0.120717525 -0.010832511 0.021303548 -0.14143342
-0.10516303 -0.16201843 -0.082705736 -0.012466595 -0.04949195 0.07486704 -0.104975775 0.12470454
0.15562095 -0.11515675 0.004811314 0.16677292 -0.1439806 -0.028595854 0.17243548 -0.0017297433
0.045549694 -0.08950161 0.045145184 -0.0074599325 0.0019672262 0.14569661 0.087225996 0.013098779
-0.010729665 0.08870013 -0.05045755 0.08892622 -0.15059225 0.014283574 0.08226073 -0.039338574
-0.13911718 -0.12722576 0.09766788 -0.07275986 -0.041675135 -0.15884024 0.1840363 -0.08695402
0.00448288 -0.0045109377 0.06376496 -0.13545693 -0.014046564 -0.11765329 -0.07146213 0.105829775
0.043296263 -0.12363236 0.05647385 -0.044778485 0.13018551 0.08912842 0.014756428 -0.18407415
0.028461263 0.10083754 0.13161105 -0.11285612 0.0142013915 -0.1810433 0.10222131 0.15212585
0.09147228 -0.041093 -0.04452294 0.1057054 -0.0636293 0.044388324 -0.053346615 0.1364719
0.09339732 -0.071268484 0.054470308 -0.091040194 0.07930851 0.009752174 -0.027914332 -0.19779155
-0.11318891 0.0011122442 -0.06860365 0.10151463 -0.06704224 -0.07313817 -0.13039021 0.14141302
-0.023070425 -0.08426677 0.13468653 0.10899107 -0.06831874 0.018049866 -0.10096624 0.0043374323
-0.12371163 0.17301592 -0.09739585 -0.16607395 0.13572396 -0.014648824 0.045910295 0.060441088
0.14083736 0.1252112 0.12718491 -0.12656665 -0.16130517 0.12756002 -0.16044585 0.098967165
0.14881447 -0.14755335 0.108769335 -0.16106136 0.14779162 -0.07835491 0.15843742 -0.013245701
-0.011494786 0.18201189 0.103767075 0.14159282 0.056960724 0.02775242 -0.13233477 -0.018045697
0.07305913 0.13701756 -0.15435006 -0.14613305 -0.0825244 -0.062650174 0.058414936 0.032640547
-0.1700262 -0.16375823 -0.1680355 0.119071275 0.20003825 -0.12173209 -0.122907415 -0.115282305
0.051494427 -0.17569917 -0.16844591 0.020033889 -0.13790548 -0.0060117063 0.045787357 0.07801702
-0.043761287 0.11851352 0.16015989 -0.07124591 0.060278226 0.07415707 -0.1712999 0.011057648
-0.13941507 0.13904269 0.089438766 0.12125082 0.052129447 0.14615783 -0.13519225 -0.102611884
-0.13156846 0.030926764 -0.049195025 -0.12675373 -0.111897595 -0.015059383 0.033914506 0.026464244
-0.14160642 0.072263345 -0.06739122 0.032959327 0.05605307 0.12862214 -0.029021341 -0.16726688
0.031318057 0.09671099 -0.012896291 -0.12214236 0.040183634 0.13100754 0.058272395 -0.05902444
00000000: e061 033e 3b8c 14be 6364 e3bc bdf9 0bbe
00000010: 676e 26be 34b2 b8bd 2303 86bd 879b 8f3d
00000020: a7c3 4e3d 746a 0cbc 382a 06bc 4b0a d1bd
00000030: c0dd e83d f547 fbbd 08c0 1a3d d8eb 6bba
00000040: 5e99 f1bd 0c13 26be e693 d7bd f1b3 90bc
00000050: e3af 0dbe 963c dbbd 4df5 983d 8f55 743c
00000060: 23a5 963c 5969 94bc a5e7 223e 6bce b63d
00000070: 3867 183e 071b 0abe e323 1bbd 75be 3cbd
00000080: f1d2 3fbd 046f 1bbe bafd 4ebd 02a8 17bc
00000090: 7dc4 a03c c07e 81bd 7d9b 2a3d c630 c9bd
000000a0: ea8f 5e3e 6645 663c 102a 3fbc e12e adbd
000000b0: 2491 79bd d99d bc3d c05f bfbd 9393 d5bd
000000c0: a763 19be 619c 4e3b 6f66 de3c 86bb 123e
000000d0: de61 96bc a421 923d a65d ce3d c44a 3e3e
000000e0: 34eb 163d 1f4c 663d 5b11 10bc 780f c23c
000000f0: c03a f73d d87a 31bc c784 ae3c ecd3 10be
00000100: b75f d7bd 29e8 25be a061 a9bd b040 4cbc
00000110: 12b8 4abd e453 993d 8afd d6bd 1865 ff3d
00000120: 195b 1f3e 4dd7 ebbd 3aa8 9d3b 85c6 2a3e
00000130: a76f 13be da41 eabc ed92 303e 8eb8 e2ba
00000140: 5192 3a3d 9f4c b7bd 28ea 383d 7372 f4bb
00000150: 94ec 003b 7e31 153e 8ba3 b23d 439c 563c
00000160: 7acb 2fbc 6aa8 b53d 93ac 4ebd f31e b63d
00000170: db34 1abe a705 6a3c 5078 a83d 7c21 21bd
00000180: bc74 0ebe 7847 02be 1906 c83d 1f03 95bd
00000190: 8cb3 2abd 04a7 22be 0374 3c3e f314 b2bd
000001a0: 1fe5 923b 7dd0 93bb 3497 823d 39b5 0abe
000001b0: 8f23 66bc 35f4 f0bd bd5a 92bd 48bd d83d
000001c0: 6c57 313d f632 fdbd 2051 673d a569 37bd
000001d0: 5a4f 053e f688 b63d f2c4 713c ef7d 3cbe
000001e0: 9827 e93c ea83 ce3d 0cc5 063e 1c21 e7bd
000001f0: f4ac 683c 6a63 39be 6859 d13d e1c6 1b3e
00000200: d255 bb3d 2251 28bd b05d 36bd 137c d83d
00000210: 1450 82bd 88d0 353d fb81 5abd 4abf 0b3e
00000220: 1847 bf3d 36f5 91bd 421c 5f3d 4873 babd
00000230: 806c a23d 95c7 1f3c 99ac e4bc de89 4abe
00000240: 96cf e7bd b9c8 913a 1280 8cbd e7e6 cf3d
00000250: 714d 89bd 77c9 95bd 0385 05be 93ce 103e
00000260: 30fe bcbc 0e94 acbd 44eb 093e b636 df3d
00000270: b2ea 8bbd 50dd 933c 63c7 cebd 0521 8e3b
00000280: 865c fdbd 162b 313e 7a77 c7bd 4a0f 2abe
00000290: 39fb 0a3e 9f01 70bc 6f0c 3c3d 1391 773d
000002a0: ab37 103e 5d37 003e c33c 023e b09a 01be
000002b0: 2f2d 25be 189f 023e eb4b 24be 4caf ca3d
000002c0: d262 183e 3a18 17be 75c2 de3d 45ed 24be
000002d0: b056 173e 8a78 a0bd 6b3d 223e 7f04 59bc
000002e0: a054 3cbc 5361 3a3e d583 d43d b5fd 103e
000002f0: a64f 693d 0b59 e33c c482 07be 92d4 93bc
00000300: 06a0 953d 554e 0c3e f10d 1ebe e7a3 15be
00000310: 8d02 a9bd bc4e 80bd 8044 6f3d 18b2 053d
00000320: 591b 2ebe 3db0 27be 8011 2cbe a4db f33d
00000330: d4d6 4c3e ad4e f9bd e2b6 fbbd 2119 ecbd
00000340: d2eb 523d 7cea 33be 167d 2cbe 1c1e a43c
00000350: 1837 0dbe d9fd c4bb 868b 3b3d 63c7 9f3d
00000360: 093f 33bd 37b7 f23d f400 243e 60e9 91bd
00000370: 4de6 763d a9df 973d 3e69 2fbe 232b 353c
00000380: d3c2 0ebe 3561 0e3e ac2b b73d 5a52 f83d
00000390: b085 553d 66aa 153e d66f 0abe 2e26 d2bd
000003a0: e2b9 06be 205a fd3c b980 49bd bbcb 01be
000003b0: 912a e5bd a1bb 76bc f0e9 0a3d 8bcb d83c
000003c0: 4601 11be cefe 933d 6804 8abd 5c00 073d
000003d0: e797 653d 86b5 033e 2abe edbc 0248 2bbe
000003e0: 5d47 003d 6910 c63d f74a 53bc c625 fabd
000003f0: 9897 243d d726 063e 09af 6e3d 9cc3 71bd

const_fold_opt__20 f4 [1536, 32]
-0.021774739 -0.02190447 -0.0060847844 0.0074406965 0.013836493 -0.017109193 0.022895597 0.015796859
-0.03574112 0.024090467 0.0031365366 -0.0121806385 0.0042032376 -0.010576922 -0.012583141 0.012938652
0.018521188 -0.011884492 0.0035753644 0.028068999 -0.013215597 -0.0018223232 0.016256766 0.016257087
0.016346479 -0.018947788 -0.02317053 0.019149046 -0.00025609852 0.005654849 -0.006688038 0.014438187
0.020338591 -0.008068294 -0.0070963474 0.014462225 -0.010926705 -0.010593978 -0.0028629105 0.016278189
-0.0064933123 0.003360719 0.004231558 -0.015994191 -0.010394124 0.020037431 -0.0036848292 -0.0004993434
0.014646291 -0.0060230093 -0.008429789 -0.001468957 0.016171219 0.015053547 0.025923476 -0.01612105
-0.022161936 0.024061622 -0.00020345107 -0.00387666 0.018110404 -0.0102915075 -0.019661246 -0.018924702
0.017708547 -0.009040518 -0.012919596 -0.0025927133 -0.0020820254 -0.0095753055 -0.0044560703 -0.0050331834
0.019840965 -0.005276885 0.026749132 0.00095711293 -0.005998826 0.009621703 -0.022561261 0.002099376
0.021938268 -0.016117996 0.022671802 -0.006374073 0.010814217 0.00040251578 -0.029271713 0.023822619
0.009165904 -0.02143823 0.020502556 0.01639311 -0.0020941356 -0.040393043 -0.007275087 -0.005483412
-0.004446898 -0.024868589 -0.013934277 0.014704647 0.0058901934 -0.017343054 0.017038347 0.0082118325
0.021279654 -0.011666146 0.020178622 -0.00043574357 -0.022448078 0.0075547793 0.00076019875 -0.020996831
-0.015113304 -0.012391139 0.0049233623 -0.03568791 0.019334996 0.0014648765 0.009096308 -0.0030946017
-0.035331737 0.008758009 -0.032767463 0.008448125 -0.013744558 -0.025243979 0.004182609 -0.0042671748
0.02016404 0.049888168 0.015049883 -0.010334543 -0.006337805 -0.011766991 -9.9811405e-05 0.015179668
-0.0113709355 -0.0033398657 -0.008486044 0.051445685 0.047296345 -0.02618045 0.030606985 0.0014538093
0.021201141 0.03604754 -0.019468723 0.064957 0.008968571 0.032020427 0.044403773 -0.011127572
0.018231003 -0.010179393 0.0025748454 0.015698735 0.01810007 0.048748996 0.0334264 0.029051142
0.00806519 -0.018288774 -0.029021617 -0.014984282 0.0022548707 0.020096803 -0.018618494 0.018244244
0.0052605686 0.003120314 0.0010203759 -0.007643956 0.008492715 -0.0016816476 -0.000527258 0.023965925
-0.01989863 -0.008136337 -0.009407977 0.012931531 0.017167142 0.020097503 -0.008013081 -0.014438133
-0.02354945 -0.02408405 0.023465665 0.0073716613 -0.00081764325 -0.006753324 0.006426075 -0.014352219
0.011602319 0.017437004 -0.0064536063 0.010109059 -0.0134788975 0.00079803664 -0.016339608 -0.025817402
0.031610344 0.008604388 -0.009230697 -0.009084674 -0.016637538 0.0047155707 0.013572514 0.005519182
-0.009838937 -0.021936307 0.0060246373 -0.012623381 0.011732689 0.018243471 0.0083241705 0.012038808
0.018094368 -0.007427649 0.0025723758 -0.023794133 0.014196616 0.016467167 -0.009608528 0.0131388325
0.03418885 0.0015426924 -0.013760664 -0.0011058684 0.010444035 -0.0069992268 -0.00953492 -0.02124737
-0.014618387 -0.008507637 -0.01075253 0.0070072734 0.0060887556 -0.017905528 0.023510635 -0.007385095
-0.03613942 -0.00089945685 -0.029528035 -0.01602007 -0.006416524 0.003622256 -0.010043883 -0.037806645
-0.022077309 0.002097687 -0.021826431 -0.017065588 -0.0048062685 0.006906152 -0.0033857322 0.023429492
00000000: f060 b2bc 0171 b3bc df62 c7bb 16d1 f33b
00000010: 75b2 623c 9428 8cbc 8c8f bb3c 6a68 813c
00000020: 4865 12bd 5f59 c53c 5a8e 4d3b 4d91 47bc
00000030: 50bb 893b d44a 2dbc 8529 4ebc a4fc 533c
00000040: bfb9 973c 2cb7 42bc a950 6a3b f5f0 e53c
00000050: 3b86 58bc 05db eeba e92c 853c 952d 853c
00000060: 0de9 853c 6438 9bbc 20d0 bdbc 76de 9c3c
00000070: f644 86b9 504c b93b 5427 dbbb 258e 6c3c
00000080: 1e9d a63c e130 04bc 7a88 e8bb f8f2 6c3c
00000090: ec05 33bc 5d92 2dbc ab9f 3bbb d659 853c
000000a0: dac5 d4bb 823f 5c3b e2a8 8a3b 4006 83bc
000000b0: 1e4c 2abc 8a25 a43c 2d7d 71bb 5ee6 02ba
000000c0: fff6 6f3c aa5c c5bb 191d 0abc 058a c0ba
000000d0: 8179 843c 27a3 763c 785d d43c 4b10 84bc
000000e0: f38c b5bc e11c c53c 7b55 55b9 900f 7ebb
000000f0: 455c 943c b69d 28bc 9f10 a1bc fa07 9bbc
00000100: 8411 913c ae1e 14bc b7ac 53bc 83ea 29bb
00000110: 9772 08bb bee1 1cbc 3a04 92bb 67ed a4bb
00000120: 8589 a23c b8e9 acbb ff20 db3c c3e6 7a3a
00000130: cd91 c4bb 59a4 1d3c 65d2 b8bc af95 093b
00000140: e2b7 b33c e309 84bc 37ba b93c 9add d0bb
00000150: 1d2e 313c c108 d339 3bcb efbc a727 c33c
00000160: 962c 163c 3a9f afbc faf4 a73c d84a 863c
00000170: c43d 09bb 2d73 25bd da63 eebb 32ae b3bb
00000180: 49b7 91bb 36b9 cbbc 984c 64bc c2eb 703c
00000190: 8602 c13b 0513 8ebc 0194 8b3c ec8a 063c
000001a0: ab52 ae3c 5d23 3fbc a34d a53c 8374 e4b9
000001b0: 08e5 b7bc 158e f73b 1348 473a 8c01 acbc
000001c0: cb9d 77bc 3404 4bbc 2854 a13b 7c2d 12bd
000001d0: 6d64 9e3c 1901 c03a ae08 153c cdce 4abb
000001e0: 03b8 10bd c17d 0f3c 2d37 06bd 016a 0a3c
000001f0: db30 61bc 76cc cebc 440e 893b a8d3 8bbb
00000200: 0f2f a53c 8957 4c3d c993 763c 3752 29bc
00000210: 5dad cfbb 56ca 40bc d751 d1b8 24b4 783c
00000220: 294d 3abc a6e1 5abb 0c09 0bbc b6b8 523d
00000230: d0b9 413d 6278 d6bc 80bb fa3c bf8d be3a
00000240: 04ae ad3c 96a6 133d df7c 9fbc 2d08 853d
00000250: eaf0 123c da27 033d bbe0 353d 6b50 36bc
00000260: 2f59 953c 78c7 26bc bdbe 283b a29a 803c
00000270: 9946 943c 07ad 473d 1fea 083d a9fc ed3c
00000280: dc23 043c 57d2 95bc bebe edbc a280 75bc
00000290: 74c6 133b 0da2 a43c d085 98bc f474 953c
000002a0: d960 ac3b 2f7e 4c3b 22be 853a 277a fabb
000002b0: 0725 0b3c bb6a dcba af37 0aba 3054 c43c
000002c0: 7402 a3bc 454e 05bc ea23 1abc c6de 533c
000002d0: 1ba2 8c3c 85a3 a43c 4c49 03bc eb8d 6cbc
000002e0: c7ea c0bc ea4b c5bc 113b c03c fa8d f13b
000002f0: 1c57 56ba fd4a ddbb d391 d23b 9225 6bbc
00000300: a717 3e3c 0cd8 8e3c c678 d3bb 77a0 253c
00000310: 98d6 5cbc 5533 513a a4da 85bc 047f d3bc
00000320: d979 013d 6bf9 0c3c 593c 17bc e2d7 14bc
00000330: 724b 88bc 1385 9a3b 405f 5e3c 41da b43b
00000340: 7e33 21bc c5b3 b3bc 526a c53b 4cd2 4ebc
00000350: 773a 403c 5573 953c 1a62 083c 6c3e 453c
00000360: a43a 943c a363 f3bb 4e95 283b eaeb c2bc
00000370: ec98 683c 27e6 863c 166d 1dbc 4244 573c
00000380: 9c09 0c3d 2b34 ca3a 6874 61bc c9f2 90ba
00000390: 751d 2b3c c559 e5bb 5a38 1cbc f70e aebc
000003a0: f681 6fbc 9e63 0bbc 612b 30bc 459d e53b
000003b0: 2f84 c73b 9dae 92bc 6099 c03c abfe f1bb
000003c0: ee06 14bd 87c9 6bba c7e4 f1bc 863c 83bc
000003d0: b441 d2bb 5f63 6d3b 198f 24bc 24db 1abd
000003e0: 79db b4bc 5979 093b 58cd b2bc 22cd 8bbc
000003f0: e77d 9dbb 004d e23b 29e3 5dbb 35ef bf3c

Const_7 f4 [32]
0.23042001 0.0833618 -0.05618085 0.04592223 -0.031933714 0.0076866806 0.09456366 0.23707479
0.09371295 -0.07012459 -0.023532521 0.030504853 0.23907587 0.08978526 0.23131745 -0.03307332
0.03834213 0.017073205 0.020469926 0.017060865 0.08307774 0.16328426 0.07593968 0.044107065
0.25292304 0.2278698 0.22705357 0.04079765 0.22600599 0.09185796 -0.020432334 0.25011867
00000000: 39f3 6b3e 97b9 aa3d e41d 66bd f318 3c3d
00000010: edcc 02bd 8de0 fb3b 98aa c13d bcc3 723e
00000020: 93ec bf3d 7b9d 8fbd 46c7 c0bc 50e5 f93c
00000030: 4ed0 743e 56e1 b73d 7bde 6c3e e477 07bd
00000040: a30c 1d3d 1bdd 8b3c 8cb0 a73c 3ac3 8b3c
00000050: aa24 aa3d fd33 273e 4386 9b3d 9ca9 343d
00000060: 217f 813e b356 693e bb80 683e 701b 273d
00000070: 1d6e 673e 0720 bc3d b661 a7bc 8e0f 803e

Const_6 f4 [32]
1.252236 1.0765364 0.96135104 1.1313404 0.9501966 1.0059515 1.1393598 1.2606063
1.116787 0.9395048 0.9906441 1.043108 1.2654852 1.1023455 1.2397623 0.9783964
1.0372688 0.999883 1.0460361 1.0180027 1.0816272 1.2108364 1.0944076 1.0862213
1.3160887 1.2429163 1.2295 1.0803028 1.2374777 1.2169262 0.9899662 1.289383
00000000: 4549 a03f f2cb 893f 1a1b 763f c3cf 903f
00000010: 1640 733f 05c3 803f 8bd6 913f 8c5b a13f
00000020: e0f2 8e3f 6383 703f da9a 7d3f 9084 853f
00000030: 6bfb a13f a819 8d3f 88b0 9e3f 3078 7a3f
00000040: 39c5 843f 55f8 7f3f 83e4 853f ea4d 823f
00000050: c372 8a3f b0fc 9a3f 8c15 8c3f 4d09 8b3f
00000060: 9875 a83f e217 9f3f 4260 9d3f 5d47 8a3f
00000070: ab65 9e3f 3dc4 9b3f 6d6e 7d3f 810a a53f

Const_5 f4 [32]
-0.10274718 0.094866596 -0.1579656 0.061422512 0.12164239 0.09788126 -0.04946259 -0.054342013
-0.06567914 -0.0943667 0.025025958 -0.10425206 -0.113833845 0.00649327 0.18577296 -0.051552273
0.04788527 0.12291814 0.07887054 0.16060631 -0.013800367 -0.1342749 -0.1632537 0.07056014
0.17284054 0.16094705 0.1401086 -0.12972356 0.12728694 -0.11518813 -0.14764017 0.12724088
00000000: 1d6d d2bd 6b49 c23d bcc1 21be 2c96 7b3d
00000010: a51f f93d f875 c83d 4999 4abd bb95 5ebd
00000020: c982 86bd 5443 c1bd 3d03 cd3c 1b82 d5bd
00000030: b821 e9bd 7fc5 d43b 443b 3e3e 7a28 53bd
00000040: 5823 443d 81bc fb3d e186 a13d fb75 243e
00000050: ef1a 62bc 5c7f 09be fa2b 27be d681 903d
00000060: 1cfd 303e 4ecf 243e a178 0f3e 41d6 04be
00000070: 8257 023e c1e7 ebbd fc2e 17be 6f4b 023e

Const_3 f4 [32]
0.0032945673 0.07788021 0.00814857 0.016665138 0.0028133562 -0.01116649 0.02428722 -0.039410017
0.022296805 0.01477894 0.021188473 0.023545787 0.016100824 0.023990486 0.00079533644 0.0055051534
0.008244093 0.0010338872 0.016988913 -0.016327236 0.034025688 -0.0061190086 0.022335147 0.022077765
0.0025608307 -0.030741109 0.011912402 -0.023028294 -0.0017994388 0.029124977 0.03633223 -0.029302124
00000000: abe9 573b a97f 9f3d 9481 053c 5485 883c
00000010: 4960 383b a7f3 36bc fef5 c63c 666c 21bd
00000020: caa7 b63c 5e23 723c 7393 ad3c 18e3 c03c
00000030: e0e5 833c b287 c43c 207e 503a 9364 b43b
00000040: 3b12 073c 7f83 873a 552c 8b3c b2c0 85bc
00000050: 855e 0b3d f781 c8bb 33f8 b63c 6edc b43c
00000060: 9cd3 273b c7d4 fbbc 3c2c 433c d5a5 bcbc
00000070: 26db ebba 8197 ee3c 1bd1 143d 020b f0bc

Const_2 f4 [32]
0.99608684 1.0344584 0.9996435 0.98748165 0.98579407 0.99231446 1.0099467 0.97479457
1.0142466 0.9817928 1.0115925 1.0325799 1.0463488 1.0332319 0.9978354 0.9855335
0.95774686 0.9824168 1.0372634 0.98874176 1.0184422 0.9937259 1.035378 0.9948478
0.96538645 0.9910911 0.9880018 0.9952692 0.9580917 1.0469235 1.0196362 0.98125225
00000000: 8cff 7e3f 2269 843f a3e8 7f3f 99cb 7c3f
00000010: 005d 7c3f 5208 7e3f ef45 813f 238c 793f
00000020: d5d2 813f c656 7b3f dd7b 813f 942b 843f
00000030: c2ee 853f f140 843f 2472 7f3f ec4b 7c3f
00000040: e62e 753f ab7f 7b3f 0cc5 843f 2e1e 7d3f
00000050: 505c 823f d264 7e3f 4487 843f 58ae 7e3f
00000060: 9123 773f 25b8 7d3f b0ed 7c3f f6c9 7e3f
00000070: 7f45 753f 9701 863f 7083 823f 5933 7b3f

Const_1 f4 [32]
-0.0018979438 0.0024230562 0.020799961 0.023315046 -0.023785256 0.00581558 0.024609488 -0.004611373
0.022549182 0.004400879 0.0058283308 -0.019819489 -0.0006812911 0.029765973 0.0075576548 0.0024445702
0.019154873 -0.011890992 0.020699678 -0.0027221274 -0.008820901 0.02384231 0.007341565 -0.011606634
-0.011931492 -0.024043072 0.022003487 0.011979065 -0.0045626014 0.009874084 0.011824557 -0.021579653
00000000: 6dc4 f8ba 23cc 1e3b ae64 aa3c 32ff be3c
00000010: 4cd9 c2bc 9f90 be3b d699 c93c 001b 97bb
00000020: 10b9 b83c 4035 903b 95fb be3b 7b5c a2bc
00000030: ac98 32ba c5d7 f33c 34a6 f73b 1535 203b
00000040: aeea 9c3c 6fd2 42bc 5f92 a93c b865 32bb
00000050: 8a85 10bc f350 c33c 8391 f03b c029 3ebc
00000060: 4e7c 43bc faf5 c4bc a840 b43c d743 443c
00000070: e081 95bb e9c6 213c c9bb 413c d0c7 b0bc
