en/marvin/Maar_Vin.onnx (onnx, 205647 bytes, 9 tensors)

const_fold_opt__23 f4 [32, 1]
000000 18 63 d0 3d c8 07 13 be f6 45 c6 bd ed 02 be be
       0.10175151 -0.14358437 -0.09681313 -0.37111607
000010 3b d1 19 bd c6 31 4a 3e 8b 82 1b be 1f 2a 9f bb
       -0.037553053 0.1974555 -0.15186517 -0.004857316
000020 bc 9c 19 3e 21 ef be be da a3 b6 be c7 58 04 3e
       0.15001196 -0.37291816 -0.35671884 0.12924491
000030 11 ba b8 be 91 27 be bb d1 0f b9 bd 15 f4 b2 be
       -0.36079457 -0.0058030565 -0.0903622 -0.34951845
000040 1f 91 f2 3d 1c b2 28 3e 90 4a e2 bd e0 bd ad be
       0.11844086 0.16474193 -0.11049378 -0.33933926
000050 ec 50 8d be 0e 5d 2a 3e d9 20 9f 3d bd 3a e8 bc
       -0.276008 0.1663706 0.07769937 -0.028348321
000060 7d 25 9c be 8c 88 61 3e 03 86 e4 3d 49 3c 1e 3e
       -0.3049735 0.22024745 0.11158373 0.15452684
000070 01 74 d2 3d 3d fa 70 3d a5 62 c3 be 57 fd 74 3e
       0.10276032 0.058832396 -0.38161197 0.23924766

const_fold_opt__22 f4 [32, 32]
000000 8a f1 39 be 7d cb c7 3d ea e5 cc bd c0 d1 d0 3c
       -0.18158546 0.09755609 -0.1000479 0.025490642
000010 ad 86 29 bd c0 c8 bc 3d ea 3c 4d 3d ec 26 bf 3d
       -0.041388202 0.092179775 0.05010692 0.09333596
000020 71 32 19 3e 17 56 ea 3d 2e a8 90 bd 08 33 d3 3d
       0.14960648 0.114422016 -0.07063328 0.10312468
000030 0b 16 84 bd fd 3d b0 3d a6 24 e9 3d 7e 29 24 3c
       -0.06449517 0.08605573 0.11383943 0.010019658
000040 d3 e7 25 be 08 c5 f3 bd 71 06 8e 3d 4f e2 41 bd
       -0.16201715 -0.11902815 0.06934822 -0.047334965
000050 25 65 70 3d 55 a8 6a bd af a9 bb 3d a7 61 08 be
       0.05869021 -0.05728944 0.09163224 -0.13318501
000060 20 59 31 3d 8f ce 1d be 62 2a 15 3e 29 3c 12 be
       0.043297887 -0.15410827 0.14566949 -0.14280762
000070 cc d0 10 be 1f 5c 57 3d 2c d2 07 be 59 1c 0b 3e
       -0.1414215 0.052578088 -0.13263768 0.13585033
000080 ec 45 98 3d b2 78 43 3d 11 b6 0a bd a6 3b 21 be
       0.074352115 0.047722526 -0.03386504 -0.1574541
000090 6e b7 b0 3d 62 6f 6a 3d 51 8f f6 bd 7e da 09 bd
       0.086287364 0.05723513 -0.12039054 -0.033655636
0000a0 eb b1 98 3d 0a 8a dc bd bf 9b a7 bd a3 46 af 3c
       0.0745581 -0.10768516 -0.08184003 0.021395987
0000b0 4c c6 19 bd a6 1c f0 bb bf 18 9e 3d b1 6a 4c 3d
       -0.037542626 -0.007327634 0.07719564 0.049906436
0000c0 bd bc 11 3e 5e 72 8f bd ce 94 2e 3e c4 bb 26 be
       0.14232154 -0.07004236 0.17048952 -0.16282564
0000d0 df 48 f6 3c a3 87 91 bc f9 09 03 3e e6 84 90 3d
       0.030064045 -0.017764872 0.12796773 0.07056598
0000e0 ff 36 52 3d 24 90 2a 3e 36 5b 2f bd 7d d8 0d 3e
       0.05132198 0.16656548 -0.042811595 0.13852115
0000f0 a8 df ce bb f0 b0 19 3e 45 1d e0 bd 21 3c 15 3d
       -0.006313283 0.15008903 -0.10943083 0.036434297
000100 77 34 f7 3d d2 a7 f1 3d 80 7e f1 3b e2 8a 7e 3d
       0.12070554 0.11799587 0.0073698163 0.062144168
000110 d0 d7 ce bb 02 83 f4 3d d1 0f b3 bd 5d 9d 1e be
       -0.006312348 0.1193905 -0.08743251 -0.15489717
000120 eb f3 f5 bd 1e b0 d4 3d 08 8e 10 be cd d7 5e bd
       -0.12009414 0.10385154 -0.1411668 -0.054405022
000130 51 8d c3 bc ec 27 99 bd 08 67 a8 bb 16 e7 aa 3b
       -0.023871096 -0.074783176 -0.0051392354 0.005215536
000140 60 91 6f 3c 97 3f fc 3d be 0d fc bd fd 7e a7 3d
       0.014622062 0.12316816 -0.123073086 0.08178518
000150 dd 7f c8 bd 17 4a 74 3c e5 ff 01 be 4b a4 cd bd
       -0.09790013 0.0149102425 -0.12695272 -0.10041102
000160 0d 9d 7a 3d 75 de c7 3d 10 d4 14 bd 59 ab 1d 3e
       0.06118493 0.09759227 -0.03633505 0.15397395
000170 ba 03 c5 3d 06 b7 68 bd 47 c0 1f 3e 43 89 ff 3d
       0.096198514 -0.05681517 0.15600692 0.124773525
000180 20 a9 e1 3d 7e 3d e7 3c 0d 1c d2 bd a1 5e 36 3e
       0.11018586 0.028227564 -0.102592565 0.17809536
000190 31 cf f2 3d fe fe 37 be 05 bf 91 3d f2 be 04 bd
       0.11855925 -0.17968366 0.07116512 -0.032408662
0001a0 c1 e6 13 3c fd 7f 10 bd ec e3 c9 3d aa 23 3d bd
       0.009027184 -0.03527831 0.09857926 -0.04617659
0001b0 69 67 ad 3c 88 18 d1 bd aa 35 0d be 95 fb 38 3d
       0.021167474 -0.10209757 -0.13790002 0.045161802
0001c0 8b 64 83 bd 71 7b 14 3d c4 24 23 bd 89 2a 91 3c
       -0.064156614 0.036250535 -0.039829984 0.017720478
0001d0 6d 33 96 3c dc f7 0e be cb 89 1f 3d 88 87 6a bd
       0.018335069 -0.13961738 0.03894977 -0.05725816
0001e0 d8 19 23 be fc b5 1f 3e c7 e6 69 bc 17 b6 12 be
       -0.15927827 0.15596765 -0.014276213 -0.14327274
0001f0 f0 c1 40 be 89 38 c0 bc 91 54 75 3d ef f4 86 bd
       -0.18823981 -0.023464458 0.059895102 -0.06589686
000200 5a bd 1c be b8 be 90 bd 2d 94 c0 3d 52 93 45 3e
       -0.15306607 -0.07067627 0.09403262 0.1929448
000210 b7 db ab bc 29 47 95 3d 34 78 ca 3d df 7d 4c bc
       -0.020978792 0.07288963 0.09886208 -0.012481182
000220 28 49 26 3d 56 5a 85 3d 36 93 a4 3d b5 66 a3 bd
       0.04059711 0.06511371 0.08035891 -0.07978574
000230 d4 02 84 3c f6 02 e4 3c 67 07 24 3c d2 93 de bd
       0.01611463 0.027833443 0.0100115305 -0.10868038
000240 d3 3e b5 ba 42 fa 0f be 4f 48 2c 3e 87 66 9a 3d
       -0.0013827927 -0.1406031 0.16824459 0.07539087
000250 34 0c ca 3d 88 57 2b 3e 46 3b 07 39 05 bb 4e bd
       0.09865609 0.1673261 0.00012896684 -0.050471324
000260 d3 42 11 3e 7a 7e b2 bc b5 4d 7d 3d 8c 3b 6d 3c
       0.14185648 -0.021788824 0.061841685 0.014479529
000270 25 4a e5 3d ab 51 85 bd 66 ab 51 3d be be 22 3d
       0.111957826 -0.065097176 0.05118885 0.039732687
000280 aa ef 3e 3d 85 d2 38 3d 84 37 dc 3d f0 42 cf 3d
       0.04661528 0.045122642 0.10752776 0.10120189
000290 94 61 2f be 07 24 c0 bc 61 3f 03 3d 68 d6 39 be
       -0.17127067 -0.02345468 0.032042865 -0.18148196
0002a0 54 67 ee 3d 1e 4a 84 bc c6 f7 36 3c 6d e0 0c be
       0.11640802 -0.016148623 0.011167472 -0.13757487
0002b0 fe 62 00 3e 29 10 47 ba bb 8f 02 3e 55 74 d7 3d
       0.12537763 -0.00075936556 0.12750141 0.105202354
0002c0 fb 40 00 3e 69 46 e7 3c 49 f1 aa 3d 23 e1 94 3d
       0.12524788 0.028231816 0.08346803 0.07269504
0002d0 b7 a2 31 3b 6d e7 3a be 16 f1 b4 bd 06 cd 7d bc
       0.0027105042 -0.18252344 -0.08835046 -0.015490776
0002e0 38 41 04 3e 92 98 5a be c6 49 e2 bd e4 07 55 be
       0.12915504 -0.21347263 -0.110492274 -0.20803791
0002f0 39 e6 34 be 6e b8 3d be 30 d2 c4 bd 58 9d 95 bd
       -0.17665948 -0.18527386 -0.096104026 -0.073054016
000300 ab bb 23 3d 38 7a 0a 3e 52 7d 13 3e 74 93 ec bd
       0.039973896 0.13523185 0.14403275 -0.11551562
000310 34 08 05 3d 2a 5a bf 3c 04 63 31 be ea 59 f7 3d
       0.032478526 0.023358423 -0.17322928 0.120776966
000320 c6 64 20 be 1c 5d 3c 3d c5 94 95 3d fd 19 85 3d
       -0.15663442 0.045987234 0.07303766 0.064990975
000330 e5 8f 3f 3d cd ba da 3d f5 9b f9 bd 93 df cf 3c
       0.046768088 0.10680161 -0.121879496 0.025375163
000340 de d3 a0 bd 2e f2 b9 3d d6 af 0b 3e c0 70 2e be
       -0.078529105 0.09079395 0.13641295 -0.17035198
000350 94 36 30 3e 67 a4 29 3e 32 72 ed bd a3 57 d8 3c
       0.1720832 0.16566621 -0.11594047 0.026408976
000360 c9 5a 16 be b2 e8 cb bd 58 13 31 be 54 52 09 be
       -0.1468307 -0.099564925 -0.17292535 -0.13410312
000370 84 65 d6 bd 0d 0a fc bd eb 43 33 be 5b 69 1f 3e
       -0.10468581 -0.123066045 -0.17506377 0.15567534
000380 a6 12 86 3c cf 56 25 3e 5b ea 11 be 2a f7 c3 3d
       0.016366314 0.16146396 -0.14249556 0.09568627
000390 05 45 8f 3a ce 47 24 3e 29 d2 00 3e 09 bc 09 3e
       0.0010930604 0.16043016 0.1258017 0.13450636
0003a0 53 06 96 3d 3f e4 84 3c 39 04 e3 bd 58 a7 10 bd
       0.07325425 0.016222117 -0.1108479 -0.03531584
0003b0 5a 3b ce 3d 28 dc 2b be eb e4 0a be 2d bc 1c 3e
       0.10069914 -0.16783202 -0.13563888 0.15306158
0003c0 7e c0 a7 3d e9 b9 1a 3e 58 72 9e bd 22 b1 e0 3d
       0.08191012 0.15109982 -0.07736653 0.109712854
0003d0 f7 a0 0f bc d2 e2 52 bd 68 c3 b9 bd d7 9d cd bc
       -0.008766404 -0.051485844 -0.09070474 -0.025099678
0003e0 0c 16 07 be 19 9c 86 bd 62 04 67 3d 78 8c 59 bd
       -0.13192004 -0.06572742 0.056400664 -0.053112477
0003f0 5b 4f 95 bd ba f1 d3 3d 76 17 f3 bc 42 7c b8 bd
       -0.072905265 0.1034884 -0.029674273 -0.09008075

const_fold_opt__20 f4 [1536, 32]
000000 27 ad df 3c 98 28 03 3d 84 a9 8d 3b 9b 53 0a bd
       0.027304245 0.032021135 0.0043231864 -0.03377114
000010 6a 19 83 bc 72 14 fe bc 19 22 90 3c 4c 86 c7 3c
       -0.01600333 -0.031015608 0.017594384 0.02435603
000020 db a4 51 bb e1 d2 fc 3c 48 cf 19 3d 59 b2 93 bc
       -0.003198913 0.030862274 0.037551194 -0.018029379
000030 04 e1 87 bc 11 c5 c9 3b 64 26 f9 bb 14 81 de bc
       -0.016586788 0.0061575253 -0.0076034535 -0.027161159
000040 f9 f5 4a bc fd 0b 1b 3c 97 8d 79 3b 44 80 ab bb
       -0.012387746 0.009463307 0.003807878 -0.0052337963
000050 cd ab 8d bb 69 9a e5 bc 38 a4 c0 3c fb 4c 42 bc
       -0.0043234588 -0.02802773 0.023515806 -0.011859174
000060 08 db 1f bb 92 23 fe 3b 44 ce 83 3c 2a fd 9d 3c
       -0.0024392027 0.007755705 0.016089566 0.019285757
000070 97 af 06 3c 94 5c 1e 3c 5c fb b3 bc 6a 4a 9e bc
       0.008220575 0.009665627 -0.021970443 -0.019322593
000080 d6 ed 15 3c f3 75 16 3d 17 d5 ed 3c 8a 8c b5 bc
       0.009150943 0.03673358 0.029032273 -0.02216174
000090 62 c7 06 3b 8f dd 28 bc 14 93 7d 3c 4e f7 58 bc
       0.0020565619 -0.01030673 0.015476961 -0.013242556
0000a0 85 ca 68 3c 83 a5 12 bc b4 4b f5 bb c7 f5 ac 3c
       0.014208441 -0.008950594 -0.007485831 0.02111329
0000b0 2a b5 db bb ba 8c f0 bb 12 52 ff bb 17 81 fe bc
       -0.006704946 -0.0073409947 -0.007791766 -0.031067414
0000c0 b6 23 b1 3c 96 5f ed 3a b3 40 e6 3c d7 73 85 3b
       0.021623474 0.0018110152 0.028107023 0.004072647
0000d0 cd 1f 32 bc 0d c9 d1 bb d7 50 a8 bb c4 3d 69 bc
       -0.01087184 -0.006402141 -0.00513659 -0.0142359175
0000e0 27 51 c0 bb bb ea 98 3b 0a ac 3e 3c 9b 90 da bb
       -0.005869049 0.004666654 0.011637697 -0.0066700703
0000f0 81 af 6a 3b 4f e8 e0 3c 44 b6 34 3c 65 a8 89 3b
       0.0035810175 0.027454523 0.011029784 0.0042009824
000100 3a 9e 90 3c 9a 04 7c 3c fd 6c 99 3c 5f 85 da bc
       0.017653573 0.0153819565 0.018728727 -0.026674924
000110 3f 73 be 39 73 2a fa bc b9 cf 60 bc f7 fa 53 3c
       0.0003632549 -0.03053782 -0.0137214 0.012938253
000120 a6 9e d8 bb 7b 3c 91 bb b1 1e 8c 3c b3 6d c8 3c
       -0.0066107092 -0.0044322587 0.017104479 0.024466371
000130 50 e5 4e 3c 17 5a e2 3c 8f 13 3d bc 59 45 b2 bc
       0.012627915 0.027630849 -0.011540308 -0.021761583
000140 c9 2a a5 3b 80 c1 e6 3c bf 7d f4 bb 5a 3f 09 3c
       0.005040501 0.02816844 -0.007461279 0.008376921
000150 1d 68 b5 3c 80 2b b1 3b 22 bb 9a 3c fa df 3a 3c
       0.022144372 0.005406797 0.01888806 0.011405939
000160 c2 1d 57 3b 08 00 1c 3d 2c 80 4b bc 8b 07 fb 3c
       0.0032824134 0.038085967 -0.012420695 0.030643245
000170 ac 65 f6 3c 42 37 af bb 14 44 a4 bc a8 8f ac bc
       0.030077778 -0.0053471634 -0.020051993 -0.021064594
000180 0b d6 54 bc 64 02 ae bb ab 47 6e 3c 58 83 8b 3c
       -0.012990485 -0.0053103436 0.014543454 0.017030403
000190 1c 1c 6e 3c 39 c9 c0 bc 2a 3c c3 bc 2d 4e bc bc
       0.014533069 -0.02353345 -0.0238324 -0.022986496
0001a0 92 26 bd 3c e1 66 2a ba 4b 85 b2 3b db 52 3a 3c
       0.02308968 -0.00065003155 0.0054480187 0.011372293
0001b0 9f dd db 3b 45 93 9c bc 87 d4 9c bc c3 e9 63 3c
       0.006709769 -0.019113192 -0.01914431 0.013910714
0001c0 e7 ad 82 ba 24 64 10 ba a3 eb 41 bd 41 8e 91 bc
       -0.000997004 -0.0005508086 -0.04734386 -0.017768027
0001d0 c6 db 84 3b cd 4e ab 3c e5 a5 11 bd b2 ee 91 3a
       0.0040545193 0.020911599 -0.0355586 0.0011133759
0001e0 a2 07 e7 bc 51 aa b3 3b 8d 71 03 3c 79 3a 50 bd
       -0.028201882 0.00548295 0.008022678 -0.050837014
0001f0 49 b1 e9 bc 85 1b b5 bb 71 e1 85 3c c1 b9 5e 3c
       -0.028526919 -0.005526962 0.01634285 0.013594092
000200 66 87 61 bc cb 63 bc 3c 94 ee 17 3d 36 fd 4a bb
       -0.013765192 0.022996804 0.03709276 -0.003097368
000210 70 68 37 3c e6 77 d9 bc bd ce 25 3d 11 e5 9f 3c
       0.011194333 -0.02654643 0.040480364 0.019518407
000220 7a 8b a7 bb 7e dd f5 3c 7e fb 7c 3d d7 91 80 3c
       -0.0051130624 0.030012842 0.06176328 0.015694542
000230 82 ab c7 ba d1 b8 02 3d 40 c0 6f bb 01 3e ca bc
       -0.0015233608 0.031914536 -0.0036583096 -0.024687769
000240 86 ef 42 bc 6f 23 22 3c 73 95 a7 3c 9f 7f ac 3c
       -0.011897927 0.009896143 0.020457005 0.021056948
000250 92 02 87 3b 06 9b 24 bd 07 20 ef 3c c8 c2 49 3b
       0.0041201795 -0.040186904 0.029190077 0.0030786265
000260 07 14 7d 3a a3 7c 25 3d 17 d9 0c 3c 87 96 47 3d
       0.00096541684 0.040402066 0.00859668 0.04872754
000270 5b a5 08 3d 80 46 0c bc 08 f2 6a bc 54 85 a9 bc
       0.03336082 -0.00856173 -0.014339931 -0.020693459
000280 a6 aa a8 3c 15 53 08 bc 43 59 89 bb f8 83 7d 3c
       0.020589184 -0.00832059 -0.004191549 0.015473358
000290 65 1e 65 3c 01 61 0a 3c b9 cf 7f 3c 9f d5 bc 3c
       0.013984297 0.008445979 0.01561349 0.023051081
0002a0 bf 20 27 3b 29 7f 9c 3c 74 a8 ca bb cd 35 e5 bb
       0.0025501696 0.019103603 -0.006184632 -0.006994939
0002b0 23 2e 48 bc d5 ac 0f 3a 2e 25 0f 3b 4d 59 fd 3a
       -0.012218031 0.0005480771 0.002184223 0.0019328982
0002c0 b2 74 cc 3c 45 03 05 3c 42 f0 2c ba c4 d0 90 3c
       0.024957988 0.008118455 -0.00065970805 0.017677672
0002d0 41 c4 56 3c 29 68 13 3c c9 1e 4f 3c 92 30 e8 bb
       0.013108314 0.008997002 0.012641617 -0.007085868
0002e0 e0 8f 51 bc f2 9f 90 3c 5f 3a 02 bc c5 47 25 3b
       -0.01279065 0.017654393 -0.007948487 0.002521978
0002f0 aa 9e c9 3c 4f 1e 4a 3b 96 b4 a8 3c ee 70 bc 3c
       0.02461179 0.003084082 0.020593923 0.023003068
000300 b9 74 b0 3a 9a 07 79 bc 2a 34 aa bc b0 8c e6 3a
       0.001346252 -0.015199566 -0.020776827 0.0017589536
000310 3c ca 98 bb 1f fd cf 3b a2 c8 a0 bc 4a b3 c7 bc
       -0.00466278 0.006347313 -0.01962692 -0.024377484
000320 42 3b 8d 3a bf f5 71 3c 6d d5 a2 3a eb ac 4c 3c
       0.0010775106 0.014768063 0.0012423225 0.012492399
000330 3b 85 a8 bc f1 e9 08 bb 7f 9f 64 ba e9 6d 41 bc
       -0.020571342 -0.0020891393 -0.00087212765 -0.01180599
000340 63 0e 1f 3c ed 63 76 bc c0 73 4c 3c 39 6b 88 bc
       0.00970802 -0.015038473 0.012478769 -0.01665269
000350 43 fc 01 bd 3c f5 02 3c 20 f3 08 bc 2f ef 40 bc
       -0.031734716 0.007993039 -0.008358747 -0.011775776
000360 b5 69 19 bb 90 21 b1 bc c9 d1 14 bc f8 8d ac bc
       -0.0023408954 -0.02162245 -0.00908322 -0.02106379
000370 cb 54 67 3c 71 d3 c8 bc 00 eb a0 3b ed 6c d4 ba
       0.014119337 -0.024514886 0.0049108267 -0.0016206779
000380 f7 a3 98 bc c1 4c 77 3c a4 4b 76 3b 29 4e 8a bc
       -0.018632872 0.015093983 0.0037581706 -0.016882973
000390 32 20 56 ba c7 55 6e bc 53 4d 9c bc 3c fe 41 3c
       -0.00081682496 -0.014546818 -0.01907984 0.011840399
0003a0 8d 6c 0c 3b 05 4b 8d bb db ea c8 3b 9c 9c 5f bc
       0.0021427006 -0.0043119215 0.0061315126 -0.013648178
0003b0 c9 c8 3b bb 76 52 6f 3c 7a c4 ef bc 8f f1 23 bc
       -0.0028653613 0.014607063 -0.029268492 -0.0100063225
0003c0 62 00 d5 bc d4 df a2 bc a6 76 80 3c be 53 b5 3b
       -0.02600116 -0.01988212 0.015681576 0.0055336645
0003d0 21 2c 33 3c 8d 3f 8d bc 2a 3b 98 3c 2b ad 1a bc
       0.010935814 -0.017242217 0.0185829 -0.0094407005
0003e0 18 2c 8e bc 3f 5c c9 38 05 21 cf bb 31 24 58 3b
       -0.01735501 9.601609e-05 -0.006321075 0.0032980556
0003f0 c3 7a fe bc 46 49 56 bc ba 4c 7c 3b 9c bd 8a bc
       -0.031064397 -0.013078993 0.003849788 -0.016936116

Const_7 f4 [32]
000000 a0 1b 47 3d 8c e3 46 bc 7c 4c 59 bb d3 05 6e 3e
       0.04861033 -0.012139212 -0.003315716 0.2324441
000010 79 cc 30 bc eb 62 e7 3c b2 93 78 3e ac 7b 43 bc
       -0.010790938 0.02824541 0.24275091 -0.011931341
000020 75 a3 89 bb 2c 31 6b 3e 94 cd 8a 3e 89 af 59 bb
       -0.004200394 0.22967976 0.2710997 -0.00332162
000030 ba ac 7e 3e ec 99 23 bc 76 bc 85 bd d8 db 70 3e
       0.24870577 -0.009985428 -0.06530087 0.23521364
000040 5e 36 a0 3b 8f b6 ec 3b 82 5f 1d 3c 06 3d 69 3e
       0.0048892936 0.007223911 0.00960529 0.22777185
000050 80 0e 96 3e 86 e6 f6 3c 97 1b cd bb 15 3b a1 bd
       0.29307938 0.030139219 -0.0062593925 -0.07872597
000060 0c 30 74 3e 57 23 07 3d 17 51 99 3d 6d f5 93 3d
       0.23846453 0.032992687 0.0748617 0.07224546
000070 d1 1d d0 3b d2 ef 8a 3d 4a 79 6c 3e 86 7e 5b 3d
       0.0063512106 0.06784023 0.23093143 0.05358746

Const_6 f4 [32]
000000 7c 1e 8c 3f 96 c5 7b 3f 71 0e 80 3f cf ea 9e 3f
       1.0946803 0.9834837 1.0004407 1.2415408
000010 d2 12 7f 3f 0f 03 84 3f 6d 07 8f 3f b9 92 78 3f
       0.9963809 1.0313433 1.1174141 0.9709888
000020 83 bc 7f 3f 6c 9c 9d 3f f2 78 aa 3f 94 88 7f 3f
       0.9989702 1.2313361 1.331816 0.99817777
000030 90 62 a4 3f 0e 15 7c 3f 78 85 71 3f ff 8c 9e 3f
       1.2842579 0.98469627 0.9434428 1.2386779
000040 64 2d 81 3f 4e 6f 83 3f e2 8f 80 3f 0f 4b 9a 3f
       1.0091977 1.0268342 1.004391 1.2054156
000050 ba f6 ac 3f f1 dc 86 3f dd 43 7f 3f 23 52 6d 3f
       1.3512795 1.0536176 0.99712926 0.92703456
000060 5e b4 9c 3f 72 05 86 3f 9b ad 8d 3f ba 3b 90 3f
       1.2242544 1.0470412 1.1068605 1.1268227
000070 cf a5 86 3f 61 0c 89 3f 09 13 9f 3f ad 31 89 3f
       1.0519351 1.0706903 1.2427684 1.0718285

Const_5 f4 [32]
000000 4c 8b 22 bc 08 27 b7 bd cb a9 c0 ba 2e d0 c1 bd
       -0.009920906 -0.089429915 -0.001469904 -0.09463535
000010 ad 44 b8 3a 58 0b f7 3d 38 46 b3 3d 05 7d ce 3d
       0.0014058553 0.120627105 0.087536275 0.10082439
000020 8b 80 33 be a6 2b 33 3e 79 a6 0a bd 30 8c 24 3e
       -0.17529504 0.1749712 -0.033850167 0.16069102
000030 7a 1f 28 3d c3 5c 42 be 26 0b 11 be e9 15 07 be
       0.041045643 -0.18980698 -0.14164409 -0.13191952
000040 52 0d 06 3e 76 09 0e 3e fc 4b 95 bd ba 5a ac 3d
       0.13091019 0.13870797 -0.072898835 0.08415742
000050 ab 63 20 3d f3 99 94 bd 71 a1 a8 3d 07 3c 00 3d
       0.03915755 -0.07255926 0.082339175 0.031307247
000060 8b 9e c2 3c 33 2d b5 bd 0b c0 32 3e f2 76 24 3d
       0.02375724 -0.08846512 0.17456071 0.040152498
000070 74 64 f8 3d e4 21 d3 bd ee 4b 3e 3e 95 f9 76 3d
       0.12128535 -0.103091985 0.18583652 0.060296614

Const_3 f4 [32]
000000 3b 46 eb 39 74 d7 1d 3c 68 af c7 3c 96 3f 80 3c
       0.0004487502 0.009633888 0.024375632 0.01565532
000010 ef a9 0d 3c f1 9b a5 3c 28 e4 19 bc 6f dd 57 bc
       0.008646472 0.02021596 -0.009392776 -0.0131753525
000020 5c f2 b8 3c 3a 28 a3 bb 58 b7 52 3b e3 43 14 3c
       0.022576503 -0.0049791606 0.0032152738 0.009049389
000030 af e1 ca bb 04 f3 91 3b 5e 04 b4 bb 1e 60 a0 3c
       -0.0061914544 0.0044540185 -0.0054936847 0.019577082
000040 dc 6d 47 bc 6c 98 06 bc b9 cd 9a b9 27 76 06 bc
       -0.012172189 -0.008215051 -0.00029526444 -0.008206881
000050 5f 48 d8 ba a6 5b 93 3c 09 ad 35 3b 06 33 0a 3c
       -0.001650106 0.017988037 0.0027721545 0.0084350165
000060 b0 6f 32 bc fa af ba 3b 57 75 78 bc b0 a1 17 bc
       -0.010890886 0.0056972476 -0.015164695 -0.009254858
000070 b4 9c 04 bc 57 40 da bb 8a e8 70 3c 43 3e 8e 3c
       -0.008094002 -0.006660502 0.014703879 0.017363673

Const_2 f4 [32]
000000 55 3d 79 3f 8d 15 82 3f 97 33 81 3f ab 37 82 3f
       0.9735921 1.0162827 1.0093869 1.0173239
000010 ec ba 7f 3f 90 a4 81 3f b7 71 7d 3f 07 3a 79 3f
       0.99894595 1.0128345 0.9900164 0.9735417
000020 1b 04 82 3f 44 27 7e 3f 01 1b 86 3f d5 36 77 3f
       1.0157503 0.99278665 1.0476991 0.9656804
000030 8b 35 7f 3f ab dd 81 3f 31 13 81 3f b6 b2 7d 3f
       0.99691075 1.0145773 1.0083982 0.99100816
000040 ae 4b 7f 3f d4 a0 7f 3f fb 42 7e 3f db 4f 7e 3f
       0.99724853 0.9985478 0.99320954 0.993406
000050 4b 1b 7f 3f 0c 3e 85 3f 50 c6 82 3f 67 cd 80 3f
       0.9965102 1.040956 1.021677 1.0062684
000060 9a 81 7f 3f 67 cb 83 3f a3 75 7b 3f d7 9d 7e 3f
       0.9980713 1.0296448 0.98226374 0.99459594
000070 fc 1d 7f 3f 30 56 7b 3f d6 98 7d 3f 75 c4 7e 3f
       0.9965513 0.98178387 0.99061334 0.9951852

Const_1 f4 [32]
000000 f7 67 73 bc 3c fa 83 bb 7a a9 bd bc d2 d4 ec 3c
       -0.01485633 -0.004027633 -0.023152102 0.028910074
000010 cf e1 bb 3c df 3b eb 3c 89 70 d9 3b be 08 63 3b
       0.022934822 0.028715072 0.0066357297 0.0034642662
000020 ca 63 a2 3c 25 05 65 ba 29 46 73 bc f7 cc fe 3b
       0.019822974 -0.00087364233 -0.01484827 0.0077758986
000030 9e ba 5c bc 29 7e 16 bb 8e 2e 6b 3c 25 1d c4 bb
       -0.013472227 -0.002296338 0.014354361 -0.0059849196
000040 75 6b e8 bb 90 bf 87 bc 7e 9c 48 bb 38 04 92 3b
       -0.007092888 -0.016570836 -0.0030610855 0.0044560693
000050 ac 6c a6 3c 04 28 90 3c a4 07 04 3c 95 1f 2e 3c
       0.02031549 0.017597206 0.008058462 0.010627647
000060 a6 db 59 bc 93 26 69 3c 54 66 89 bb 25 9b ac bc
       -0.013296997 0.014230388 -0.0041931067 -0.021070072
000070 23 bc 3c 3c 48 99 81 3c 6d 7b 22 3c a3 d9 48 3c
       0.011519465 0.01582016 0.009917122 0.01225892
