fi/kaisa/kai_sa.onnx (onnx, 206970 bytes, 9 tensors)

const_fold_opt__23 f4 [32, 1]
0.20606823 0.06485241 0.102622576 0.05517282 0.13441536 0.20386702 0.06903701 0.06388985
0.027414704 0.13697371 -0.39452055 0.21236753 0.18996854 0.02407935 0.18820879 0.29153287
0.008119232 0.12479616 -0.33541828 -0.36662644 0.02900069 -0.01732286 0.12361543 -0.35032892
0.16649517 -0.35861808 0.1718927 0.043759644 0.23599537 -0.38779768 -0.363091 0.088945776
00000000: 8d03 533e 57d1 843d c92b d23d e5fc 613d
00000010: 2ea4 093e 84c2 503e 4763 8d3d afd8 823d
00000020: cd94 e03c d642 0c3e 99fe c9be e076 593e
00000030: 1d87 423e 0f42 c53c ceb9 403e cc43 953e
00000040: 8706 053c 2195 ff3d f2bb abbe 76b6 bbbe
00000050: db92 ed3c ace8 8dbc 162a fd3d 505e b3be
00000060: b67d 2a3e ca9c b7be a404 303e 503d 333d
00000070: c5a8 713e 6b8d c6be 10e7 b9be 3429 b63d

const_fold_opt__21 f4 [32, 32]
0.13460623 0.020521654 0.051776893 0.01672736 -0.07205298 -0.16291942 -0.010667011 -0.16167316
-0.17357738 -0.09883425 -0.08888136 -0.15162212 0.065870464 -0.06358416 0.05304481 -0.002640348
0.10895916 0.14602028 -0.15254562 -0.116506696 0.008958149 -0.1136952 -0.15505262 -0.095192
0.08551514 -0.033310987 0.12741463 0.0952137 -0.15788724 0.051337905 -0.08516179 0.124589585
-0.06877644 -0.16056827 -0.14214587 -0.051967386 -0.036561724 0.011481313 -0.15199758 -0.14068644
-0.1527235 0.045405593 0.034542702 0.023734404 0.07062753 -0.009013032 0.20616512 0.17979965
-0.039234035 0.061306126 -0.031998202 -0.06481007 0.0065603214 -0.019650731 0.13187842 -0.15260196
0.07221029 0.08723157 0.13266523 -0.0066219703 0.06373753 -0.16260666 -0.020909144 0.08923203
0.0896511 -0.06444304 0.15719536 -0.080680184 -0.043187123 0.08935934 0.051362645 0.16111922
0.01903858 -0.067195155 -0.0143487435 0.034488868 0.017626133 -0.058340177 0.028257513 0.0077597043
0.116648614 -0.03556965 -0.13807492 -0.0019047981 0.14562052 -0.10548509 0.028772125 -0.1483179
-0.10775545 -0.10470986 0.19616948 -0.019615253 0.12520935 -0.07676355 -0.14130865 -0.04054749
0.059691243 0.018823134 -0.006635709 -0.07719759 0.065819226 0.15475866 0.15171283 0.07324079
0.10586929 -0.119572885 -0.019457804 -0.16471542 -0.16991411 -0.1254948 -0.14203005 -0.14225164
-0.14299434 0.0077964915 -0.07922661 0.05715036 -0.047850776 -0.1580413 -0.12782632 -0.061068527
0.019756714 -0.12896414 0.117017575 -0.14731453 0.08280934 -0.082609445 -0.11562904 -0.1442454
-0.20761403 -0.0067145466 -0.11427029 -0.058820482 -0.06373869 -0.07926594 0.059511796 -0.02222725
0.045607302 -0.13616075 0.051635258 0.08392359 -0.06989016 0.098704115 0.07174028 -0.06706269
-0.17339057 -0.04205025 -0.016709771 0.0729112 0.14359038 -0.1496621 -0.14627402 -0.07424107
-0.04283364 -0.041893702 0.16867964 0.10578796 -0.14455874 0.10728163 0.21743527 0.14289097
-0.09551233 0.10966763 -0.05448112 -0.03757916 -0.028612798 0.0507676 -0.15198113 0.078276016
0.096351884 -0.0847113 0.08617626 0.16742639 -0.039645977 -0.051711403 0.10220343 -0.010637497
0.020036021 0.17204656 -0.084645055 0.045714274 -0.12506635 0.14234401 0.05248252 -0.051432375
0.1609847 0.02483185 0.008076266 -0.008055306 -0.13597094 0.039931994 0.11637017 0.023662565
0.04899868 -0.15950906 -0.055793833 0.059177127 0.021596635 0.054607965 -0.22447856 -0.038592268
-0.16541623 0.20982713 -0.13309817 0.06454501 -0.026636686 -0.13435355 -0.01949067 0.18197177
-0.14382437 -0.06124084 -0.01972293 -0.14651933 0.0052037737 -0.16154934 -0.008037189 -0.20054235
0.12165133 -0.005134723 -0.050486043 0.14580612 0.011869635 -0.10448305 0.11634559 -0.038266283
0.12999882 0.040477518 -0.12475124 0.00025873177 0.097772166 -0.15455927 0.12708892 0.027021099
-0.02013683 -0.119455956 -0.118443094 -0.0021878143 0.024241302 0.038353585 0.15144624 0.16892648
-0.09855099 -0.14495324 0.061365787 -0.119494304 -0.11660763 0.0933356 -0.13079675 -0.07768687
0.122429505 0.005049863 -0.13125294 -0.016882554 0.116860814 -0.05671219 -0.0800175 0.16469574
00000000: 37d6 093e 071d a83c 0214 543d d107 893c
00000010: 8390 93bd 59d4 26be b0c4 2ebc a68d 25be
00000020: 45be 31be 9c69 cabd 6e07 b6bd d442 1bbe
00000030: 18e7 863d 6938 82bd 8445 593d b009 2dbb
00000040: fb25 df3d 5786 153e eb34 1cbe 109b eebd
00000050: 33c5 123c 07d9 e8bd 1dc6 1ebe 06f4 c2bd
00000060: 9022 af3d 1a71 08bd fb78 023e 66ff c23d
00000070: 31ad 21be b247 523d 4e69 aebd d328 ff3d
00000080: aada 8cbd 026c 24be b08e 11be c1db 54bd
00000090: bfc1 15bd 1e1c 3c3c 41a5 1bbe 1b10 10be
000000a0: 8d63 1cbe 37fb 393d a67c 0d3d a76e c23c
000000b0: 2ba5 903d 65ab 13bc f31c 533e 661d 383e
000000c0: deb3 20bd 221c 7b3d 8c10 03bd 24bb 84bd
000000d0: f7f7 d63b 92fa a0bc 230b 073e b043 1cbe
000000e0: fde2 933d 77a6 b23d 65d9 073e 1dfd d8bb
000000f0: d288 823d 5c82 26be a749 abbc 48bf b63d
00000100: ff9a b73d b6fa 83bd d2f7 203e a73b a5bd
00000110: fbe4 30bd 0802 b73d a361 523d 70fc 243e
00000120: ccf6 9b3c 9d9d 89bd fe16 6bbc 3344 0d3d
00000130: ae64 903c 1cf6 6ebd 4d7c e73c 1e45 fe3b
00000140: 78e5 ee3d 7bb1 11bd 8363 0dbe 6baa f9ba
00000150: 8c1d 153e 9108 d8bd 85b3 eb3c a6e0 17be
00000160: e4ae dcbd 2072 d6bd a7e0 483e 2bb0 a0bc
00000170: e136 003e 3536 9dbd 37b3 10be 2015 26bd
00000180: ce7e 743d f932 9a3c 5d70 d9bb c519 9ebd
00000190: 3bcc 863d 0e79 1e3e 9c5a 1b3e 44ff 953d
000001a0: 00d2 d83d a1e2 f4bd f965 9fbc 29ab 28be
000001b0: f7fd 2dbe b581 00be 5370 11be 6aaa 11be
000001c0: 1c6d 12be b679 ff3b 9041 a2bd 7f16 6a3d
000001d0: 2dff 43bd 94d5 21be e7e4 02be fe22 7abd
000001e0: d5d8 a13c 2d0f 04be e9a6 ef3d 9fd9 16be
000001f0: f197 a93d 242f a9bd ebce ecbd 11b5 13be
00000200: c698 54be b305 dcbb 8b06 eabd bfed 70bd
00000210: 6e89 82bd 2e56 a2bd a4c2 733d ec15 b6bc
00000220: b9ce 3a3d b96d 0bbe 7e7f 533d 22e0 ab3d
00000230: 9222 8fbd 6225 ca3d 91ec 923d 2a58 89bd
00000240: 4c8d 31be e23c 2cbd eee2 88bc 7852 953d
00000250: 5b09 133e 0641 19be dbc8 15be b40b 98bd
00000260: 5472 2fbd bb98 2bbd 5bba 2c3e 5ca7 d83d
00000270: 3507 14be 79b6 db3d 5aa7 5e3e 0352 123e
00000280: f89b c3bd 6c99 e03d 9827 5fbd 9bec 19bd
00000290: 6365 eabc b0f1 4f3d f1a0 1bbe 2d4f a03d
000002a0: 2354 c53d 1e7d adbd 2e7d b03d d371 2b3e
000002b0: d263 22bd 56cf 53bd 0850 d13d e548 2ebc
000002c0: 9522 a43c f92c 303e 635a adbd e43e 3b3d
000002d0: 6511 00be a1c2 113e e9f7 563d c1aa 52bd
000002e0: 2cd9 243e 2a6c cb3c 5152 043c 67fa 03bc
000002f0: f73b 0bbe bb8f 233d 7c53 ee3d ffd7 c13c
00000300: d7b2 483d 5856 23be 1388 64bd b763 723d
00000310: 6deb b03c 9aac 5f3d b5dd 65be ed12 1ebd
00000320: df62 29be ecdc 563e e34a 08be 2d30 843d
00000330: 2e35 dabc fa93 09be e6aa 9fbc cf56 3a3e
00000340: b246 13be add7 7abd fb91 a1bc 2a09 16be
00000350: 6b84 aa3b 316d 25be 6aae 03bc f95a 4dbe
00000360: 5524 f93d 2e41 a8bb 74ca 4ebd 334e 153e
00000370: dc78 423c 36fb d5bd 9946 ee3d 1bbd 1cbd
00000380: 691e 053e c1cb 253d 947d ffbd 64a6 8739
00000390: c63c c83d c944 1ebe 9923 023e 5a5b dd3c
000003a0: fef5 a4bc 53a5 f4bd 4b92 f2bd 6f61 0fbb
000003b0: b295 c63c a618 1d3d b914 1b3e 10fb 2c3e
000003c0: 1ad5 c9bd 9f6e 14be b15a 7b3d 6eb9 f4bd
000003d0: fbcf eebd bc26 bf3d 95ef 05be 4b1a 9fbd
000003e0: 52bc fa3d 5279 a53b 2c67 06be 484d 8abc
000003f0: b954 ef3d 0b4b 68bd 37e0 a3bd 00a6 283e

const_fold_opt__20 f4 [1536, 32]
-0.02649996 0.006035696 0.03828068 0.0061381524 0.009398725 0.000807188 0.02443258 -0.0026143217
0.012324611 -0.008724892 -0.022253258 0.0014104248 0.0043080966 0.0064079296 0.0065614753 0.018121183
-0.022353003 0.02259786 -0.010716771 0.0033304114 -0.011574938 -0.0031260701 0.006187267 -0.0081729675
0.013353897 0.009845913 0.0140849715 -0.02621735 0.0063490774 -0.0061064903 0.0074769356 0.0060973032
-0.009039426 -0.0180721 0.012859359 -0.0029003564 0.0070514875 0.0151474215 -0.0073227175 0.022668812
-0.017561847 -0.0036110035 0.018070482 0.0020729466 0.011548713 0.014200371 0.00034627898 0.018291691
-0.010816525 0.0041164192 0.006810034 0.005143204 0.01884862 0.016935755 -0.0046947263 -0.0109443255
0.019694857 -0.015490048 0.019072453 -0.001047565 0.027351694 0.0059935516 0.0021537808 -0.004837819
-0.011808616 -0.043307148 -0.049157284 -0.003701809 0.011294151 0.015782733 -0.03092975 -0.0023554428
0.012880894 -0.010064032 -0.03053178 -0.0064835884 -0.014638949 0.01781833 7.5410884e-05 0.0018645194
0.01038557 -0.025513621 0.019259688 0.004278513 0.017814806 -0.017237222 -0.014138069 0.026254047
-0.0069743264 -0.019569945 0.0074977577 -0.01860165 -0.013690687 -0.019815022 0.024467781 -0.0254141
-0.012647871 -0.054001197 -0.04336435 -0.02101972 0.032204095 -0.01359848 -0.027344756 -0.009604304
-0.016351396 -0.021830097 -0.044959307 0.042362723 -0.008718093 0.015227907 0.03878919 -0.037116803
0.012372807 -0.04835139 0.026457684 -0.045724064 0.02518773 -0.016852917 -0.045066036 0.031740826
0.028914198 -0.02758382 0.017095482 -0.0063141403 -0.05689254 -0.0060812724 0.006257907 -0.027738266
-0.0056236195 0.036926992 0.03035997 0.02587881 -0.020485949 0.02376437 0.053096257 0.0073026936
0.0016366994 -0.009221632 0.008011989 -0.01715582 -0.009466202 -0.012826295 -0.009309348 -0.0009247016
0.005281893 0.027480291 -0.0031103822 0.036322862 -0.019186312 0.014246381 0.035795648 -0.013633247
-0.013163246 0.028843671 -0.007991341 0.018777264 -0.0001890261 0.013162973 0.0015722475 -0.004430871
-0.001506242 -0.008520217 -0.009467885 0.008390212 0.0018474997 -0.012943005 0.017545061 0.017984007
0.020236269 -0.006024505 -0.018658277 0.023169471 -0.02460563 0.01000801 0.02279477 -0.0149594415
0.0037773347 -0.0053953067 -0.010498576 -0.0129613485 -0.01214082 0.01836433 -0.022393573 -0.00010734904
-0.012671675 0.0023998516 0.024111325 0.013912593 -0.021947727 0.015943235 0.016717736 -0.0039472054
-0.02300105 -0.020408353 0.008127888 0.00921521 -0.001954744 0.014427097 -0.010188768 0.0049623954
-0.009647369 -0.01793848 -0.01361569 0.022951221 -0.008050695 0.012423438 -0.002695204 -0.012603309
0.022764666 -0.014733442 -0.003968609 -0.0144078005 -0.00564576 -0.0030251357 -0.025609668 0.014712109
0.014509501 0.0175011 -0.0033689372 -0.009162486 -0.016913604 0.012137122 -0.015764875 -0.017174628
-0.020412786 0.0008925847 -0.02508078 0.00155727 -0.016403323 0.0067499042 0.011455965 0.019469818
-0.014242455 0.026608506 0.014048371 -0.012324764 -0.0061155297 0.01870067 0.00094372465 -0.00078858284
-0.013285189 -0.011198379 -0.014655905 -0.020316727 0.021201845 0.012432637 0.023799147 -0.0020705645
-0.016080657 0.00019862616 -0.02543329 0.012986241 0.01729349 0.008686694 -0.009479617 0.018326072
00000000: 7216 d9bc 16c7 c53b 34cc 1c3d 8e22 c93b
00000010: 1cfd 193c 7899 533a d626 c83c 0a55 2bbb
00000020: 2aed 493c d9f2 0ebc 774c b6bc 01de b83a
00000030: ef2a 8d3b 9cf9 d13b a501 d73b e072 943c
00000040: a51d b7bc 261f b93c 6595 2fbc 0843 5a3b
00000050: cfa4 3dbc c1de 4cbb 8fbe ca3b e9e7 05bc
00000060: 4eca 5a3c c150 213c a7c4 663c c5c5 d6bc
00000070: ec0b d03b f418 c8bb 1501 f53b e3cb c73b
00000080: 1a1a 14bc f10b 94bc 10b0 523c e813 3ebb
00000090: 2a10 e73b e42c 783c 68f3 efbb f2b3 b93c
000000a0: dddd 8fbc 96a6 6cbb 8c08 943c 46da 073b
000000b0: d036 3d3c aca8 683c c78c b539 75d8 953c
000000c0: cb37 31bc 07e3 863b b526 df3b 5288 a83b
000000d0: 6c68 9a3c dabc 8a3c 38d6 99bb d44f 33bc
000000e0: 1c57 a13c f8c9 7dbc d53d 9c3c 734e 89ba
000000f0: a910 e03c 8e65 c43b 7226 0d3b 9186 9ebb
00000100: ed78 41bc d662 31bd 2659 49bd 0d9a 72bb
00000110: 1a0b 393c ca4a 813c 6360 fdbc c65d 1abb
00000120: 630a 533c 9ce3 24bc c91d fabc 4874 d4bb
00000130: 34d8 6fbc bff7 913c e925 9e38 e462 f43a
00000140: 3d28 2a3c f101 d1bc 7ec6 9d3c c532 8c3b
00000150: 5bf0 913c 1335 8dbc 5ca3 67bc ba12 d73c
00000160: e488 e4bb 2651 a0bc c0af f53b 7d62 98bc
00000170: e74e 60bc 1d53 a2bc a870 c83c 3b31 d0bc
00000180: 0439 4fbc 5c30 5dbd d19e 31bd 8c31 acbc
00000190: 71e8 033d 29cc 5ebc 1c02 e0bc 5f5b 1dbc
000001a0: 5df3 85bc 08d5 b2bc 4027 38bd 8984 2d3d
000001b0: 55d6 0ebc 797e 793c 6ae1 1e3d ca07 18bd
000001c0: 50b7 4a3c 1b0c 46bd c9bd d83c 2849 3bbd
000001d0: 8056 ce3c 210f 8abc 2a97 38bd ab02 023d
000001e0: 78dd ec3c 77f7 e1bc d30b 8c3c d9e6 cebb
000001f0: 2708 69bd 6945 c7bb 210f cd3b 5c3b e3bc
00000200: 5746 b8bb c240 173d 79b5 f83c ccff d33c
00000210: 26d2 a7bc 7fad c23c 767b 593d 6f4b ef3b
00000220: 8586 d63a 5416 17bc b844 033c 5d8a 8cbc
00000230: 2118 1bbc 6125 52bc 3c86 18bc ad67 72ba
00000240: bb13 ad3b 591e e13c 8ed7 4bbb 48c7 143d
00000250: 9d2c 9dbc a769 693c 759e 123d fc5d 5fbc
00000260: a8aa 57bc 9049 ec3c 1dee 02bc c7d2 993c
00000270: 4f35 46b9 83a9 573c df13 ce3a d730 91bb
00000280: 186d c5ba 6198 0bbc 301f 1bbc 1a77 093c
00000290: ce27 f23a e60e 54bc a9ba 8f3c 3253 933c
000002a0: 88c6 a53c 3669 c5bb 3ed9 98bc e7cd bd3c
000002b0: bf91 c9bc a3f8 233c 19bc ba3c 7218 75bc
000002c0: 298d 773b 1dcb b0bb 3802 2cbc d65b 54bc
000002d0: 4aea 46bc cb70 963c ba72 b7bc 9420 e1b8
000002e0: db9c 4fbc d446 1d3b 1d85 c53c a5f1 633c
000002f0: b8cb b3bc 639b 823c a2f3 883c 8f57 81bb
00000300: b36c bcbc 6b2f a7bc d52a 053c 64fb 163c
00000310: 2a1b 00bb a15f 6c3c caee 26bc 979b a23b
00000320: 0010 1ebc b8f3 92bc 5814 5fbc 3304 bc3c
00000330: 10e7 03bc ad8b 4b3c 05a2 30bb 1c7e 4ebc
00000340: f77c ba3c 8964 71bc 1b0b 82bb b20e 6cbc
00000350: 1100 b9bb 5b41 46bb 5ecb d1bc 0f0b 713c
00000360: 42b9 6d3c 785e 8f3c 63c9 5cbb 401e 16bc
00000370: 668e 8abc c8da 463c 5725 81bc ceb1 8cbc
00000380: b738 a7bc 58fc 693a 3576 cdbc 4f1d cc3a
00000390: 4360 86bc 4d2e dd3b cdb1 3b3c 2b7f 9f3c
000003a0: 3059 69bc 15fa d93c 242b 663c cfed 49bc
000003b0: c864 c8bb 2632 993c 4a64 773a e6b8 4eba
000003c0: 1faa 59bc 6879 37bc 521f 70bc 446f a6bc
000003d0: 7eaf ad3c 42b2 4b3c 6ef6 c23c 4fb2 07bb
000003e0: 95bb 83bc 4e46 5039 7a59 d0bc 3ec4 543c
000003f0: 14ab 8d3c a352 0e3c 6550 1bbc 8f20 963c

Const_7 f4 [32]
0.031639706 0.04696171 0.04507748 -0.0058660773 0.019743241 0.029753758 0.02883939 0.01430745
-0.023886947 -0.021453649 0.26888707 0.023958288 0.022907939 -0.00052246265 0.02566133 0.07805469
-0.010082729 -0.036837917 0.28387672 0.31460303 -0.012821084 -0.025332345 0.037929773 0.2767334
0.07119672 0.3159611 0.0023932266 -0.009329723 0.054732446 0.26652914 0.28143147 0.10173595
00000000: a398 013d ec5a 403d 2aa3 383d 3938 c0bb
00000010: 94bc a13c 27be f33c 9640 ec3c cb69 6a3c
00000020: 8fae c3bc 90bf afbc 91ab 893e 2c44 c43c
00000030: 6ea9 bb3c e0f5 08ba b637 d23c 23db 9f3d
00000040: 0832 25bc 5be3 16bd 4a58 913e a613 a13e
00000050: 860f 52bc c785 cfbc 405c 1b3d 00b0 8d3e
00000060: 96cf 913d a7c5 a13e aed7 1c3b b2db 18bc
00000070: 212f 603d 8276 883e c917 903e f05a d03d

Const_6 f4 [32]
1.071883 1.0498266 1.0763972 0.997015 1.0247482 1.0552074 1.036565 1.040803
0.9888326 0.9935728 1.2606201 1.0580158 1.0237699 0.99863106 1.0297693 1.1213211
0.98799515 0.9946472 1.2803828 1.3746424 0.97898453 0.9784446 1.0982517 1.2728252
1.1125314 1.3685224 1.0085223 0.9914878 1.0889031 1.2555026 1.2824821 1.1011562
00000000: 7633 893f b860 863f 62c7 893f 603c 7f3f
00000010: f32a 833f 0911 873f 29ae 843f 0839 853f
00000020: 2224 7d3f c95a 7e3f 005c a13f 106d 873f
00000030: e40a 833f 49a6 7f3f 7bcf 833f 7387 8f3f
00000040: 40ed 7c3f 33a1 7e3f 95e3 a33f 48f4 af3f
00000050: bb9e 7a3f 587b 7a3f 8393 8c3f f0eb a23f
00000060: 6e67 8e3f be2b af3f 4217 813f 25d2 7d3f
00000070: 2d61 8b3f 4fb4 a03f 6028 a43f b0f2 8c3f

Const_5 f4 [32]
-0.16924572 0.13384482 -0.03375314 -0.021638576 0.15439078 -0.16064082 -0.024924407 -0.12733172
0.03258076 -0.089376196 0.16560793 0.0009098882 0.1426749 -0.14825726 0.07792139 -0.14490348
0.05347991 0.09061739 -0.010184839 0.058087755 -0.020094212 0.052912336 0.017044162 0.035856724
0.123335585 -0.12721549 -0.0014326049 0.07931472 0.110654235 -0.12991327 -0.092547745 -0.11723727
00000000: c04e 2dbe 9e0e 093e bc40 0abd 6243 b1bc
00000010: 9e18 1e3e 077f 24be 452e ccbc 3f63 02be
00000020: 6773 053d de0a b7bd 2095 293e 9085 6e3a
00000030: 5e19 123e c0d0 17be 4095 9f3d 9461 14be
00000040: c00d 5b3d 9c95 b93d 50de 26bc 6ded 6d3d
00000050: 9e9c a4bc 9bba 583d 33a0 8b3c 80de 123d
00000060: 5e97 fc3d c744 02be 3ec6 bbba c26f a23d
00000070: b09e e23d fc07 05be ac89 bdbd 181a f0bd

Const_3 f4 [32]
0.00082969345 0.055320993 0.023745188 -0.009484928 0.0058022547 -0.0061811595 0.056381848 0.033048157
-0.006296169 -0.005917118 0.0048452774 0.02062402 -0.0008383951 0.018269863 0.01737572 -0.010175835
0.029163316 0.052450255 0.030693946 0.018785086 0.030100401 -0.014296888 -0.008048801 0.015598434
0.011834575 -0.009110321 0.008326473 -0.005805508 -0.0050317724 0.029866006 0.012818427 0.062516525
00000000: c97f 593a 4498 623d 4585 c23c ac66 1bbc
00000010: d720 be3b 538b cabb a7f0 663d 815d 073d
00000020: 1850 cebb 62e4 c1bb 22c5 9e3b b4f3 a83c
00000030: bec7 5bba aeaa 953c 8757 8e3c 8cb8 26bc
00000040: e8e7 ee3c 14d6 563d df71 fb3c 2ee3 993c
00000050: 1e95 f63c 7f3d 6abc 1edf 03bc 9390 7f3c
00000060: cee5 413c 7543 15bc c26b 083c 213c bebb
00000070: 91e1 a4bb 8ea9 f43c 6104 523c aa08 803d

Const_2 f4 [32]
0.9993728 1.0452483 1.0494163 0.99789166 1.031897 0.997976 1.0503819 1.0021874
0.9982549 0.9983445 1.0015147 1.0382931 0.9986239 0.9940757 1.0619502 0.9976454
0.98957133 1.0240923 1.0250336 1.0000151 1.0211926 0.99729997 0.9981879 0.9721462
0.9850471 0.9981985 0.9983806 0.9989166 0.9993831 0.9435665 1.0181258 1.0213583
00000000: e5d6 7f3f b2ca 853f 4653 863f d475 7f3f
00000010: 3315 843f 5b7b 7f3f ea72 863f ad47 803f
00000020: a28d 7f3f 8193 7f3f a231 803f cae6 843f
00000030: d1a5 7f3f bf7b 7e3f fced 873f b065 7f3f
00000040: 8c54 7d3f 7515 833f 4d34 833f 7f00 803f
00000050: 70b6 823f 0d4f 7f3f 3e89 7f3f 93de 783f
00000060: 0c2c 7c3f f089 7f3f df95 7f3f 00b9 7f3f
00000070: 92d7 7f3f 938d 713f f251 823f debb 823f

Const_1 f4 [32]
-0.0115037775 -0.00047266053 -0.0023302264 0.004134339 -0.016850457 -0.025412327 -0.010900083 -0.025442028
-0.022724144 0.0038853604 -0.017620148 -0.007928848 -0.023587726 0.009795385 0.024308754 -0.021167308
0.0048515447 0.018722622 -0.011004267 0.0028830264 0.0064563225 -0.017808594 0.008759819 0.018974492
-0.0062480504 -0.00011526103 0.0043675406 -0.02643627 0.013540071 -0.012145201 -0.013455126 -0.007513615
00000000: 577a 3cbc 6ccf f7b9 b6b6 18bb 5979 873b
00000010: f809 8abc 832d d0bc 4396 32bc cd6b d0bc
00000020: fc27 babc 88a1 7e3b 2158 90bc 00e8 01bc
00000030: 0c3b c1bc d37c 203c 2723 c73c 1067 adbc
00000040: b5f9 9e3b 2f60 993c 3e4b 34bc 28f1 3c3b
00000050: 8f8f d33b 54e3 91bc 5885 0f3c 6570 9b3c
00000060: 72bc ccbb 4bb8 f1b8 961d 8f3b e090 d8bc
00000070: 2dd7 5d3c aafc 46bc e472 5cbc c534 f6bb
