en/Alice/Alice.onnx (onnx, 206969 bytes, 9 tensors)

const_fold_opt__23 f4 [32, 1]
-0.34251288 0.1470822 0.032235444 -0.00282356 0.16772224 -0.02467059 -0.35798234 -0.36195144
0.15136209 -0.3160112 0.107690774 -0.33709326 0.109108865 0.12993431 0.124651335 -0.30354467
0.120532855 0.11282263 0.18031998 -0.022739785 -0.3508613 0.0997942 -0.0025135481 0.030993292
0.007537462 -0.325602 -0.3042946 0.15995105 0.11383941 0.117137186 -0.029471818 0.099034086
00000000: d95d afbe b79c 163e 5009 043d 7a0b 39bb
00000010: 61bf 2b3e fa19 cabc 7649 b7be b351 b9be
00000020: aafe 1a3e 38cc a1be fb8c dc3d 7d97 acbe
00000030: 7874 df3d 800d 053e 3349 ff3d 356a 9bbe
00000040: eed9 f63d 8d0f e73d cda5 383e c948 babc
00000050: 18a4 b3be e760 cc3d 57ba 24bb a5e5 fd3c
00000060: d0fc f63b 4eb5 a6be 80cc 9bbe 35ca 233e
00000070: a324 e93d 9fe5 ef3d e26e f1bc 62d2 ca3d

const_fold_opt__22 f4 [1536, 32]
0.013627526 -0.005846628 -0.004497517 -0.004075977 0.006117586 -0.010876152 0.004871534 0.0045615914
0.0017532049 0.0011458915 0.022645148 0.029226247 0.022354787 -0.019854343 0.006503548 0.01909508
-0.010686766 0.0058209524 0.015274869 0.006843479 -0.014856908 0.005114998 -0.017444042 -0.01986964
-0.036905147 0.0056084646 -0.015434858 0.011221465 0.0141202565 0.017025078 0.0041326494 0.025719222
0.011641929 -0.010290034 -0.0095415935 0.010653692 0.019912485 -0.026440727 -0.0075921933 0.009758182
-0.017216993 -0.008740664 0.006461627 -0.010353552 -0.0024090563 -0.0054955557 -0.013176441 -0.017505495
0.015095191 0.0194575 0.020130923 0.026118021 -0.019734146 -0.00863734 0.005020201 -0.012113623
0.01256847 -0.010456788 0.007868652 -0.0035058109 0.028473679 -0.00057628483 0.004272622 -0.018213011
0.0028412864 0.0165614 -0.026506322 0.015507629 0.0034022806 -0.007923771 -0.015978936 -0.014148276
-0.025193993 -0.0062655075 0.008399134 -0.01215124 0.0073981276 0.008872786 0.0054424517 -0.007455239
-0.017906396 0.007646692 0.024856845 -0.006802488 -0.019016389 -0.0015831179 0.02417684 0.016989205
0.003483715 -0.0060308324 -0.0013647547 0.016761506 0.0040763896 0.022176692 -0.014000379 0.0036454417
-0.00019867183 -0.014714574 -0.017640395 0.019856013 0.030060183 0.010946054 0.007746308 0.0118122585
-0.014996925 0.025062956 -0.016510528 -0.038049266 -0.030254759 0.017432418 -0.018728347 -0.023109246
-0.02269271 0.028650185 -0.002491281 0.0057779485 0.009381777 0.02626271 0.017155483 0.0070697838
0.0021785288 -0.02968738 -0.01833658 0.0101677505 -0.022154815 0.0065078596 -0.008755371 0.009578326
-0.021889187 0.011990796 0.011830417 -0.025685208 0.0020176277 0.00710952 0.0031310362 -0.019065166
-0.026317729 0.019540247 0.015368849 -0.004756977 -0.0067262296 -0.028613826 -0.016242346 0.01275987
-0.0070242607 -0.002165306 0.019992331 0.01396769 0.00032149063 0.019726878 0.0036702214 0.01739086
0.016635597 -0.0039920495 -0.027725022 0.013700193 -0.018850455 -0.011295232 -0.023046007 0.0058347466
0.008089709 -0.0017360796 -0.026348116 0.01555664 -0.013085496 0.0012315183 -0.011943046 0.0027771387
0.0015611314 -0.0008417568 0.015808053 0.010673617 -0.007499496 -0.019944906 0.0042041223 -0.015197573
0.0066309944 0.0048100716 0.017853908 0.012939122 0.014958113 0.007278041 -0.00429355 0.02264064
-0.010820733 -0.0011436378 0.009479392 0.025737422 0.003067401 0.01953356 -0.009295234 -0.011182679
-0.0045940224 -0.009734094 0.025798725 -0.020972414 -0.017727647 0.009046755 -0.004161452 0.014248641
-0.019374717 8.0644866e-05 -0.013737055 0.009574038 0.012543944 -0.02216712 0.01110126 0.004840229
0.011826068 0.0013951967 -0.0025242637 0.017831579 -0.0005696947 -0.0065330914 -0.01583435 0.008312343
-0.021358315 0.022929396 -0.022495272 -0.020691851 0.020400228 -0.015999809 0.0032621967 -0.012670988
0.0005659762 -0.0008712566 -0.012102423 0.018819792 -0.0015338263 0.00231037 -0.010992098 -0.01385031
0.013533428 0.0013761763 -0.041362844 -0.041574676 0.0039451653 -0.017338173 -0.02137317 0.0029501405
0.01950454 0.007638447 -0.0041192416 0.0042601503 -0.0058096717 0.008350115 -0.020592958 -0.01556268
-0.020275058 0.0049308203 0.021850422 -0.018810378 -0.023907864 -0.010797861 -0.027310858 0.014104729
00000000: fd45 5f3c 1295 bfbb e85f 93bb c68f 85bb
00000010: 0876 c83b e331 32bc 64a1 9f3b 6779 953b
00000020: cbcb e53a bd31 963a 5182 b93c e26b ef3c
00000030: 6321 b73c 93a5 a2bc b71b d53b 496d 9c3c
00000040: 8c17 2fbc b0bd be3b 7243 7a3c 433f e03b
00000050: 636a 73bc b79b a73b cfe6 8ebc a8c5 a2bc
00000060: da29 17bd 36c7 b73b 7de2 7cbc 3cda 373c
00000070: a658 673c 2d78 8b3c 2d6b 873b 1eb1 d23c
00000080: cabd 3e3c 8897 28bc 5854 1cbc d38c 2e3c
00000090: 821f a33c 399a d8bc efc7 f8bb c8e0 1f3c
000000a0: a70a 8dbc 0135 0fbc 0ebc d33b f2a1 29bc
000000b0: 42e1 1dbb 1014 b4bb 00e2 57bc af67 8fbc
000000c0: d251 773c 5665 9f3c 9be9 a43c 76f5 d53c
000000d0: 81a9 a1bc a183 0dbc 8080 a43b 3878 46bc
000000e0: fceb 4d3c f352 2bbc 85eb 003c bfc1 65bb
000000f0: a241 e93c d211 17ba 5a01 8c3b 7433 95bc
00000100: e034 3a3b c6ab 873c c923 d9bc b613 7e3c
00000110: ccf8 5e3b b4d2 01bc 42e6 82bc 2cce 67bc
00000120: a263 cebc e34e cdbb 859c 093c ff15 47bc
00000130: fe6b f23b 295f 113c 9856 b23b 144b f4bb
00000140: 6fb0 92bc 1a91 fa3b 95a0 cb3c 68e7 debb
00000150: 42c8 9bbc 9f80 cfba 820e c63c f22c 8b3c
00000160: 0a4f 643b 4a9e c5bb 92e1 b2ba 6d4f 893c
00000170: 3c93 853b e5ab b53c d861 65bc 5de8 6e3b
00000180: 9052 50b9 6615 71bc 9782 90bc 14a9 a23c
00000190: c640 f63c 1457 333c bed4 fd3b 3488 413c
000001a0: aab5 75bc d450 cd3c 1641 87bc 8cd9 1bbd
000001b0: d4d8 f7bc 6ece 8e3c 316c 99bc 9a4f bdbc
000001c0: 10e6 b9bc cbb3 ea3c c244 23bb f254 bd3b
000001d0: 06b6 193c e524 d73c a889 8c3c a5a9 e73b
000001e0: a6c5 0e3b f332 f3bc 9836 96bc a396 263c
000001f0: 047e b5bc e23f d53b b072 0fbc 69ee 1c3c
00000200: f450 b3bc 0b75 443c 5ed4 413c c969 d2bc
00000210: 2d3a 043b faf6 e83b 1232 4d3b 8d2e 9cbc
00000220: 4798 d7bc de12 a03c a0cd 7b3c 6ae0 9bbb
00000230: b467 dcbb 8b67 eabc ab0e 85bc c60e 513c
00000240: c52b e6bb cee7 0dbb f5c6 a33c bdd8 643c
00000250: be8d a839 439a a13c 1988 703b 4777 8e3c
00000260: 6047 883c bdcf 82bb 961f e3bc c676 603c
00000270: 456c 9abc a30f 39bc fbca bcbc 6731 bf3b
00000280: b38a 043c 2a8d e3ba 01d8 d7bc 47e1 7e3c
00000290: 8c64 56bc e66a a13a c4ac 43bc a800 363b
000002a0: e19e cc3a 58a9 5cba e47f 813c 65e0 2e3c
000002b0: 55be f5bb 8063 a3bc bcc2 893b 3eff 78bc
000002c0: d048 d93b ce9d 9d3b 5c42 923c 9cfe 533c
000002d0: e012 753c a27c ee3b e8b0 8cbb dd78 b93c
000002e0: 7249 31bc 1ee6 95ba 744f 1b3c 49d7 d23c
000002f0: 7306 493b d804 a03c 0a4b 18bc 8e37 37bc
00000300: 7489 96bb c07b 1fbc d957 d33c 57ce abbc
00000310: 9239 91bc d738 143c ca5c 88bb 2273 693c
00000320: bab7 9ebc e21f a938 6211 61bc 6ddc 1c3c
00000330: 1d85 4d3c d297 b5bc 0fe2 353c c99a 9e3b
00000340: 20c2 413c 08df b63a 1e6e 25bb 8813 923c
00000350: 9057 15ba 8b13 d6bb 0ab7 81bc 7e30 083c
00000360: a2f7 aebc 6ed6 bb3c 0148 b8bc f581 a9bc
00000370: 611e a73c 0812 83bc 94ca 553b fa99 4fbc
00000380: 055e 143a 0a65 64ba 3e49 46bc f72b 9a3c
00000390: ac0a c9ba 9469 173b 3318 34bc 69ec 62bc
000003a0: 50bb 5d3c d060 b43a 166c 29bd 354a 2abd
000003b0: 7246 813b c908 8ebc c916 afbc 2557 413b
000003c0: fcc7 9f3c f04b fa3b b4fa 86bb bb98 8b3b
000003d0: 0f5f bebb ecce 083c 90b2 a8bc 9cfa 7ebc
000003e0: e117 a6bc b892 a13b a8ff b23c 3918 9abc
000003f0: 6dda c3bc 83e9 30bc 05bb dfbc 8517 673c

const_fold_opt__20 f4 [32, 32]
0.09897366 0.03035899 0.09362885 0.05663029 -0.13295592 0.048543856 -0.0045093 -0.071348
-0.15781336 0.08586826 -0.037130132 0.05156137 0.16216083 0.066804975 -0.066234425 0.06778858
0.030793982 -0.102868065 -0.020212842 0.039748166 -0.048487112 0.15121192 0.04471706 -0.068551145
0.057776324 -0.17699212 -0.14071736 -0.048271805 0.12586789 -0.100052014 -0.10945378 -0.0027296615
0.08379168 0.14999285 0.12905487 0.108039275 -0.0073020193 0.10999269 -0.11415619 0.11929934
-0.060471877 0.09412637 -0.16248219 0.13874263 -0.013568476 0.15901078 -0.001615194 0.15025313
-0.11702327 -0.004212986 0.10595208 -0.13091986 0.0386028 -0.17825732 0.06703158 -0.017497014
0.14945151 0.15755126 0.065482125 -0.100529194 0.0641731 -0.0048441715 -0.15447864 0.029712457
0.04080464 0.09594391 0.17559218 -0.13824774 0.09247531 0.045892075 -0.16154283 -0.14129236
0.12835723 0.07658085 0.029585894 0.14433153 0.14769554 0.14652869 -0.02512356 0.022217732
-0.10202889 0.11075603 -0.10351363 -0.050881263 -0.0033953981 0.040990986 0.047625966 -0.018896494
-0.104140654 0.14047277 -0.16531664 -0.06245613 -0.085104585 -0.13344067 0.11031431 -0.132033
0.04823431 0.0019306268 0.08686729 -0.071153514 0.15411614 0.16599044 0.15688264 0.13431448
-0.16920891 -0.02513368 -0.094964094 0.0963497 -0.10590812 -0.0072262296 0.0055724876 -0.03560454
-0.039695766 -0.08420848 0.03084225 0.055026732 -0.1558459 -0.011206788 -0.059032343 -0.10848404
0.01253509 0.17055449 -0.15234329 -0.070188075 -0.02552484 0.1073448 -0.11636961 -0.17018086
-0.040628094 -0.08175005 0.14403565 -0.14023666 0.0111626 -0.1867338 0.06223756 0.036747348
0.120498255 0.079547696 -0.062521465 0.024996605 -0.15645702 0.0919597 0.018679911 -0.13022129
0.046496786 0.09813084 -0.051813953 0.04965205 0.03269368 -0.073702574 -0.09905912 -0.118491024
-0.09617402 0.060915146 0.17110266 0.13602448 -0.08494124 -0.01468821 -0.054985043 0.09059957
-0.120687045 -0.052272867 0.11978014 -0.11936383 0.097375564 0.09751674 0.11224716 0.11318776
-0.0058202515 -0.0051194127 -0.10904263 -0.11244461 0.06957896 -0.10481092 0.0010531375 -0.14133541
0.019973123 -0.13013092 0.10564307 0.015256192 -0.024391402 0.0264221 0.0009880952 -0.17789768
-0.115320615 -0.15661582 0.03418031 -0.07064697 -0.07341717 0.061505638 0.038378812 0.13861197
0.07072926 -0.11244929 0.026449498 0.16304697 0.117551684 0.16461295 -0.15758218 0.09985328
0.18708253 0.044536795 -0.015881116 0.05967454 0.0014425244 0.07311488 0.13501647 -0.16082388
-0.008977684 -0.10358361 -0.013251472 0.16491541 0.007642256 0.06339304 -0.054248527 0.11116875
-0.12475057 -0.027336746 -0.015138084 0.0836954 0.013297426 0.06293622 -0.056452904 0.15802917
-0.17375438 0.094319314 -0.17341912 -0.13316336 -0.12357329 0.1442145 -0.0667332 -0.053562384
-0.027214754 0.1514905 0.07595986 -0.1770942 -0.14696339 0.085510686 -0.07117011 0.017860394
0.13465439 -0.112012014 -0.13671225 -0.0030083056 -0.068639375 0.15485513 -0.058379974 0.031656988
-0.10298969 -0.034283295 -0.118129484 0.01583507 -0.021863678 -0.16490228 -0.022809342 -0.12149732
00000000: b4b2 ca3d 6bb3 f83c 7cc0 bf3d 2af5 673d
00000010: 9925 08be ecd5 463d c0c2 93bb e61e 92bd
00000020: d399 21be b3db af3d c415 18bd 0432 533d
00000030: 7d0d 263e 0cd1 883d eaa5 87bd bdd4 8a3d
00000040: a943 fc3c 7eac d2bd 6795 a5bc f9ce 223d
00000050: 6c9a 46bd 4cd7 1a3e 3c29 373d 8b64 8cbd
00000060: dea6 6c3d 6c3d 35be 3618 10be a8b8 45bd
00000070: 83e3 003e 12e8 ccbd 4e29 e0bd 1fe4 32bb
00000080: f99a ab3d ba97 193e f626 043e b243 dd3d
00000090: c745 efbb d943 e13d b8ca e9bd 3653 f43d
000000a0: 5cb1 77bd 54c5 c03d bb61 26be 8c12 0e3e
000000b0: 504e 5ebc b9d3 223e ebb4 d3ba f5db 193e
000000c0: e5a9 efbd 170d 8abb 67fd d83d db0f 06be
000000d0: f81d 1e3d 1689 36be da47 893d e655 8fbc
000000e0: d109 193e 1e55 213e 7e1b 863d 40e2 cdbd
000000f0: 306d 833d dbbb 9ebb a62f 1ebe 8a67 f33c
00000100: c422 273d 3e7e c43d 70ce 333e d190 0dbe
00000110: b263 bd3d 54f9 3b3d 7c6b 25be f2ae 10be
00000120: 1470 033e 6cd6 9c3d 1e5e f23c a5cb 133e
00000130: 803d 173e 9e0b 163e edcf cdbc f601 b63c
00000140: 86f4 d0bd 0fd4 e23d f4fe d3bd df68 50bd
00000150: 5485 5ebb 2ae6 273d 7213 433d d2cc 9abc
00000160: b247 d5bd 18d8 0f3e c448 29be 00d2 7fbd
00000170: 504b aebd aca4 08be 78ec e13d a933 07be
00000180: 5791 453d 160d fd3a 7ae7 b13d efb8 91bd
00000190: 9fd0 1d3e 66f9 293e d8a5 203e bc89 093e
000001a0: 1a45 2dbe 26e5 cdbc 897c c2bd fe52 c53d
000001b0: 5be6 d8bd 02ca ecbb 6a99 b63b 11d6 11bd
000001c0: 0798 22bd 7f75 acbd e3a8 fc3c b663 613d
000001d0: 1196 1fbe ad9c 37bc e6cb 71bd e12c debd
000001e0: fa5f 4d3c d6a5 2e3e e1ff 1bbe c4be 8fbd
000001f0: 7819 d1bc 97d7 db3d 3153 eebd e443 2ebe
00000200: a569 26bd 926c a7bd 157e 133e 339a 0fbe
00000210: 56e3 363c 2537 3fbe d0ec 7e3d 6384 163d
00000220: cac7 f63d e7e9 a23d 410b 80bd aec5 cc3c
00000230: 4536 20be 5e55 bc3d 9d06 993c bb58 05be
00000240: 6a73 3e3d d2f8 c83d de3a 54bd f35f 4b3d
00000250: cfe9 053d 60f1 96bd 82df cabd 6cab f2bd
00000260: e2f6 c4bd 2982 793d 8935 2f3e 004a 0b3e
00000270: acf5 adbd d1a6 70bc ff37 61bd 448c b93d
00000280: c52a f7bd 131c 56bd 4a4f f53d 0675 f4bd
00000290: d76c c73d dbb6 c73d d7e1 e53d fcce e73d
000002a0: cfb7 bebb bfc0 a7bb be51 dfbd 5c49 e6bd
000002b0: 6a7f 8e3d 1ca7 d6bd 6e09 8a3a 3bba 10be
000002c0: ad9e a33c 0a41 05be 655b d83d 1bf5 793c
000002d0: 7ad0 c7bc 2973 d83c f982 813a cf2a 36be
000002e0: 372d ecbd e65f 20be a700 0c3d 5caf 90bd
000002f0: be5b 96bd 56ed 7b3d 1a33 1d3d 4cf0 0d3e
00000300: 81da 903d d04b e6bd 9eac d83c c9f5 263e
00000310: f0be f03d 4c90 283e 395d 21be e07f cc3d
00000320: 9092 3f3e 376c 363d 1d19 82bc 4a6d 743d
00000330: 1613 bd3a 41bd 953d c241 0a3e 04af 24be
00000340: 2317 13bc a523 d4bd b41c 59bc 96df 283e
00000350: e46b fa3b 36d4 813d b433 5ebd 71ac e33d
00000360: 3a7d ffbd 50f1 dfbc ba05 78bc 7e68 ab3d
00000370: 72dd 593c b4e4 803d 293b 67bd 66d2 213e
00000380: abec 31be 7c2a c13d c894 31be fa5b 08be
00000390: fe13 fdbd f7ac 133e 6aab 88bd 3b64 5bbd
000003a0: 7af1 debc 5320 1b3e d890 9b3d 2f58 35be
000003b0: 927d 16be 3a20 af3d a2c1 91bd f64f 923c
000003c0: d7e2 093e 8e66 e5bd 4cfe 0bbe fe26 45bb
000003d0: cd92 8cbd 5892 1e3e d71f 6fbd c2aa 013d
000003e0: 42ec d2bd a46c 0cbd dfed f1bd 8cb8 813c
000003f0: 751b b3bc 25dc 28be a8da babc 96d3 f8bd

Const_7 f4 [32]
0.29741406 0.045789845 -0.0034618566 0.006992968 -0.005247802 -0.0022325716 0.22932306 0.22458927
-0.0052900705 0.26337892 -0.012383328 0.23168077 -0.003249915 0.0134698115 -0.000768573 0.26229534
0.06545897 0.009091297 0.017874932 0.0049285428 0.23523971 -0.0013560439 -0.05321066 -0.009512626
-0.0037242658 0.28301543 0.24484006 0.0139182415 0.050381843 0.007164319 0.0012177378 -0.0037113046
00000000: a846 983e 228e 3b3d 51e0 62bb 4425 e53b
00000010: c1f5 abbb 5650 12bb aad3 6a3e bbfa 653e
00000020: 5458 adbb 9ad9 863e 71e3 4abc b93d 6d3e
00000030: 87fc 54bb 7cb0 5c3c 107a 49ba 934b 863e
00000040: 5a0f 863d aaf3 143c 736e 923c 9d7f a13b
00000050: aee2 703e 48bd b1ba 6cf3 59bd d8da 1bbc
00000060: d012 74bb 66e7 903e 5ab7 7a3e 5609 643c
00000070: 315d 4e3d aac2 ea3b 809c 9f3a 5c39 73bb

Const_6 f4 [32]
1.374669 1.0777668 1.0094616 1.0057026 0.9983446 0.9956107 1.2226892 1.2070708
0.9970437 1.2875195 0.99822265 1.2194412 0.9982615 1.0190479 0.9994447 1.28482
1.0594865 1.0083747 1.0136733 1.0018357 1.23652 1.0046735 0.9425845 0.994078
0.98053896 1.3413804 1.2382414 1.0114549 1.0662608 1.0019209 1.0008482 0.9969816
00000000: 27f5 af3f 43f4 893f 0a36 813f ddba 803f
00000010: 8393 7f3f 58e0 7e3f 1481 9c3f 4c81 9a3f
00000020: 423e 7f3f 70cd a43f 858b 7f3f a616 9c3f
00000030: 118e 7f3f 2970 823f 9cdb 7f3f fb74 a43f
00000040: 419d 873f 6c12 813f 0cc0 813f 273c 803f
00000050: 4a46 9e3f 2499 803f 384d 713f e57b 7e3f
00000060: 9a04 7b3f 5ab2 ab3f b27e 9e3f 5b77 813f
00000070: 3c7b 883f f23e 803f cb1b 803f 303a 7f3f

Const_5 f4 [32]
-0.12496441 -0.14609373 -0.0034200214 0.12489826 -0.002223752 -0.17622074 -0.06942208 -0.00896709
-0.03311195 -0.07712855 0.05783148 0.07586588 0.059193417 0.08042042 0.122171596 0.10448888
0.14089625 -0.042335264 -0.052194256 0.085583046 0.079737484 -0.12909016 -0.16132869 -0.097647145
0.038290463 0.13477933 0.037419572 -0.05967497 -0.14214207 0.034718398 0.12632616 0.07678783
00000000: 57ed ffbd 9899 15be 7022 60bb a9ca ff3d
00000010: 5ebc 11bb 3673 34be 2a2d 8ebd b4ea 12bc
00000020: 65a0 07bd 93f5 9dbd b4e0 6c3d 925f 9b3d
00000030: cc74 723d 76b3 a43d 1a35 fa3d 44fe d53d
00000040: 1b47 103e be67 2dbd a5c9 55bd 2a46 af3d
00000050: 684d a33d 3630 04be 5933 25be 3afb c7bd
00000060: 76d6 1c3d 9803 0a3e 4445 193d be6d 74bd
00000070: b18d 11be e134 0e3d a55b 013e f042 9d3d

Const_3 f4 [32]
0.021433705 0.020994237 -0.008038863 -0.014484009 0.012503564 -0.01027174 0.0019981407 -0.002005058
-0.0069118836 0.013254959 -0.02304203 -0.0022842346 -0.0060723387 -0.009704347 0.028225899 -0.030945253
-0.004765777 0.004435902 -0.008592107 0.014130738 0.004506671 0.014416742 -0.009401012 -0.007768916
0.004997514 0.002164011 -0.008445967 0.015008226 0.014374236 -0.011095002 -0.037991405 -0.0082259
00000000: bd95 af3c 1bfc ab3c 6fb5 03bc 564e 6dbc
00000010: c0db 4c3c cd4a 28bc 3df3 023b 4b67 03bb
00000020: 157d e2bb 542b 593c a4c2 bcbc 19b3 15bb
00000030: 78fa c6bb fbfe 1ebc 003a e73c e680 fdbc
00000040: 3c2a 9cbb 0b5b 913b e9c5 0cbc 9c84 673c
00000050: b2ac 933b 3334 6c3c b406 1abc 6492 febb
00000060: 30c2 a33b 14d2 0d3b f460 0abc 10e5 753c
00000070: ea81 6b3c d0c7 35bc e09c 1bbd edc5 06bc

Const_2 f4 [32]
0.9785053 1.0133344 0.98688865 0.99549353 1.0041776 0.99182284 1.0088266 0.99952126
0.99018526 0.9803872 0.9890521 1.0089164 0.9970455 0.998165 1.0019181 0.9944737
0.9962457 0.9993856 0.9979703 1.0113239 1.000924 1.015986 0.9979187 0.998011
0.96157175 0.99924135 0.9977838 0.99693495 1.0220559 0.99696016 0.9939155 0.99776757
00000000: 537f 7a3f f1b4 813f bca4 7c3f aad8 7e3f
00000010: e488 803f 1ae8 7d3f 3b21 813f a0e0 7f3f
00000020: c87c 7d3f a8fa 7a3f 8532 7d3f 2c24 813f
00000030: 603e 7f3f be87 7f3f da3e 803f d495 7e3f
00000040: f509 7f3f bcd7 7f3f fb7a 7f3f 1073 813f
00000050: 471e 803f d40b 823f 9a77 7f3f a67d 7f3f
00000060: 9129 763f 48ce 7f3f c26e 7f3f 2137 7f3f
00000070: bad2 823f c838 7f3f 3f71 7e3f b26d 7f3f

Const_1 f4 [32]
0.0026193988 0.025612678 -0.019500457 0.01839514 0.0058667995 -0.01638282 -0.0031615796 -0.0004638789
0.018298524 0.0014391781 0.015135447 -0.0010005235 0.013117252 0.0010152718 0.0069200085 0.01458869
0.0056577222 -0.003673964 -0.016407356 0.024393506 0.0066578616 0.022121815 -0.015311627 0.023871973
-0.022459049 0.0048037414 0.0033446767 -0.01038114 -0.004513159 -0.022355666 -0.025199987 -0.01528696
00000000: 38aa 2b3b aed1 d13c 6cbf 9fbc 68b1 963c
00000010: 483e c03b 4435 86bc 8132 4fbb c634 f3b9
00000020: c9e6 953c cea2 bc3a aafa 773c ff23 83ba
00000030: bee9 563c de12 853a 3dc1 e23b 6705 6f3c
00000040: 6a64 b93b e3c6 70bb b868 86bc e4d4 c73c
00000050: 312a da3b cf38 b53c 9edd 7abc 288f c33c
00000060: 0afc b7bc b468 9d3b 5d32 5b3b a815 2abc
00000070: 1fe3 93bb 3b23 b7bc 3470 cebc 2876 7abc
