en/glados/glados.onnx (onnx, 208131 bytes, 9 tensors)

model/tf.math.add_1/Add/y f4 [32]
0	0x3d8e5e19	0.069515415
1	0xbdf608ce	-0.12013398
2	0x3d024c32	0.031810947
3	0x3da1ff22	0.07909991
4	0xbdb76950	-0.08955634
5	0x3c062529	0.008187571
6	0xbd972499	-0.07380027
7	0x3d0417b0	0.032249153
8	0xbd1ab8a0	-0.03777373
9	0x3d9c6411	0.07636274
10	0x3e0bdcb4	0.1365841
11	0x3dca9705	0.09892086
12	0xbd0fd75a	-0.035117485
13	0x3e2a0a9b	0.16605608
14	0x3ca017b8	0.01954256
15	0xbdf31cd9	-0.11870737
16	0xbd57c6b5	-0.052679736
17	0xbe30f3ea	-0.17280546
18	0x3df435e9	0.11924345
19	0xbdce5afb	-0.10075947
20	0x3cb813fe	0.02247047
21	0xbdb9388e	-0.0904399
22	0xbddbdbe8	-0.10735303
23	0xbccefb77	-0.025266392
24	0x3cbd77af	0.023128359
25	0x3d6bd9d7	0.057580795
26	0x3c248d83	0.010043505
27	0x3e3fcab0	0.18729663
28	0x3e064dd8	0.13115633
29	0x3e20ff51	0.15722395
30	0x3e51ba36	0.2048119
31	0xbce44531	-0.027865024

model/tf.math.add/Add/y f4 [32]
0	0x3c5b2cfe	0.013377426
1	0x3bf8c42c	0.007591745
2	0x3dd5f7ba	0.10447641
3	0x3d6a5875	0.057213265
4	0x3bdcbfca	0.00673673
5	0xbb863df2	-0.00409674
6	0x3cb0784e	0.02154174
7	0x3c94dd18	0.018171832
8	0x3aa8a3fa	0.0012866252
9	0x3d57a190	0.052644312
10	0x3d841f16	0.06451242
11	0x3dd8af08	0.105802596
12	0x3ded3be9	0.115836926
13	0xbc2aac5c	-0.01041707
14	0xbb3f66b3	-0.00292055
15	0x3cd43059	0.02590196
16	0x3d179319	0.037005518
17	0x3dd5c8ee	0.10438715
18	0x3d67e42a	0.05661408
19	0x3c4f8b61	0.012667508
20	0x3dc2de41	0.09515048
21	0x3cb5bb04	0.022183903
22	0x3cc2703b	0.023735156
23	0x3c1bdab5	0.009512593
24	0x3dd2548e	0.10270034
25	0x3bbf9fd5	0.005847911
26	0x3d0a04e2	0.033696063
27	0xbc21c202	-0.009872915
28	0x3bdc3f93	0.006721446
29	0xbc075402	-0.008259775
30	0x3dc7866b	0.09742435
31	0x3aac8739	0.0013162858

model/layer_normalization_1/batchnorm/mul/ReadVariableOp/resource f4 [32]
0	0x3f9d9786	1.2311866
1	0x3f8e2090	1.1103687
2	0x3fae9fd1	1.3642522
3	0x3fa19448	1.2623377
4	0x3f79ff27	0.97654957
5	0x3f89fb50	1.077982
6	0x3fa17306	1.2613227
7	0x3faa8063	1.332043
8	0x3fae2437	1.3604802
9	0x3f831040	1.0239334
10	0x3f90c7dc	1.1310992
11	0x3fa6d5a7	1.3033952
12	0x3fad303c	1.3530345
13	0x3f90a93e	1.1301649
14	0x3faca40f	1.3487567
15	0x3f96c8b0	1.1779995
16	0x3f95decf	1.1708621
17	0x3f9e0ee7	1.2348298
18	0x3f8936fa	1.0719903
19	0x3f9525b0	1.1652126
20	0x3fb47cbf	1.410057
21	0x3f99b7c9	1.2009212
22	0x3fa48c75	1.2855364
23	0x3fa62b46	1.2981956
24	0x3fb2367e	1.392288
25	0x3f9be8a3	1.218037
26	0x3fa28e83	1.2699741
27	0x3fa8607a	1.3154442
28	0x3fa4b522	1.2867777
29	0x3f7a9719	0.97886807
30	0x3f9ceab3	1.2259125
31	0x3f9a5a1d	1.205875

model/layer_normalization_1/batchnorm/ReadVariableOp/resource f4 [32]
0	0x3df4a58b	0.11945637
1	0xbcc62c76	-0.024191123
2	0x3dfaf588	0.122538626
3	0x3dbf54e7	0.09342366
4	0x3d464ff2	0.048416086
5	0x3e6db3c4	0.23213106
6	0x3e2d08b4	0.16897851
7	0x3de5ce79	0.11221022
8	0x3de9b80d	0.11412058
9	0x3e4b782b	0.19870059
10	0x3e0c3a50	0.1369412
11	0x3de34818	0.11097735
12	0x3e8669a8	0.26252484
13	0xbd5762a0	-0.05258429
14	0x3e0fd5c2	0.14046386
15	0xbe0e652e	-0.13905784
16	0xbd6ebe02	-0.058286674
17	0x3c5db953	0.013532954
18	0xbe6b9096	-0.23004374
19	0x3d858a19	0.06520481
20	0x3e98e522	0.29862314
21	0xbd8fee28	-0.070278466
22	0x3d02e464	0.03195609
23	0x3e91ab95	0.2845122
24	0x3e95c854	0.292544
25	0x3e0ba8e2	0.13638642
26	0x3d962a04	0.073322326
27	0x3e8d7094	0.27624953
28	0x3dcb5b80	0.099295616
29	0xbe8d6c77	-0.27621815
30	0x3e8940f0	0.26807356
31	0x3dc27596	0.09495084

model/layer_normalization/batchnorm/mul/ReadVariableOp/resource f4 [32]
0	0x3f82be6a	1.021436
1	0x3f985203	1.1900028
2	0x3f8c9562	1.0983088
3	0x3fab89a9	1.3401386
4	0x3f91d291	1.1392385
5	0x3f81c6b1	1.0138761
6	0x3f7a5ae8	0.9779496
7	0x3f745c41	0.9545327
8	0x3f766efa	0.96263087
9	0x3f6cda09	0.92520195
10	0x3f81a225	1.0127608
11	0x3fae50d3	1.3618416
12	0x3f857b1f	1.0428199
13	0x3f88263c	1.0636668
14	0x3f852590	1.0402088
15	0x3f71f276	0.9451059
16	0x3f8447e4	1.0334439
17	0x3f965689	1.1745158
18	0x3f8b55e3	1.0885586
19	0x3f71f386	0.9451221
20	0x3f87611d	1.0576512
21	0x3f815b7c	1.0106044
22	0x3f71793f	0.9432563
23	0x3f736f35	0.95091563
24	0x3f8b502a	1.0883839
25	0x3f868c67	1.0511597
26	0x3f7f3d06	0.9970249
27	0x3f86257c	1.0480189
28	0x3f9e35bc	1.2360148
29	0x3f8705ce	1.0548646
30	0x3f831014	1.0239282
31	0x3f70cb98	0.9406066

model/layer_normalization/batchnorm/ReadVariableOp/resource f4 [32]
0	0x3cc9309a	0.024559308
1	0xbd2bae12	-0.041914053
2	0x3dc8c4d0	0.09803164
3	0x3d831b2e	0.064016685
4	0xbcc005d0	-0.023440272
5	0xbd28f01a	-0.041244604
6	0xbd7230f4	-0.059128717
7	0xbd2db8a9	-0.042412434
8	0xbced5aee	-0.028974023
9	0xbddc866a	-0.10767825
10	0x3ceb3c0a	0.028715152
11	0x3db266d5	0.0871102
12	0x3db86f82	0.090056434
13	0xbcbf2785	-0.023334274
14	0x3c116960	0.008875221
15	0x3b973fdb	0.0046157665
16	0xbc5d138a	-0.013493428
17	0x3d8d3b51	0.06896079
18	0x3d49e375	0.049289186
19	0xbd01ac0d	-0.03165822
20	0xbde0c2c9	-0.10974652
21	0x3d8a29af	0.06746232
22	0xbc9a8acb	-0.01886501
23	0xbd155d2a	-0.0364658
24	0x3dbd660a	0.09247978
25	0x3c843cc0	0.01614225
26	0xbd034945	-0.032052297
27	0xbb1de9e8	-0.0024095718
28	0x3c59ac1e	0.013285665
29	0xbcf313ef	-0.029672591
30	0x3d90abc9	0.070640154
31	0xbd61c978	-0.055123776

const_fold_opt__25 f4 [32, 32]
0	0x3e4fd614	0.20296508
1	0xbdb97d1d	-0.090570666
2	0x3e51d7ec	0.20492524
3	0x3e45e730	0.19326472
4	0x3d201bb2	0.039088912
5	0xbe2ee823	-0.1708074
6	0x3e309683	0.17244916
7	0x3e03c065	0.12866361
8	0x3e375240	0.1790247
9	0xbdd6be8a	-0.10485561
10	0x3d01fa8a	0.031733073
11	0x3e4d6ca1	0.2006097
12	0xbe49b29c	-0.1969704
13	0x3e41291d	0.1886334
14	0x3e17158a	0.1475431
15	0x3e23b437	0.15986715
16	0x3e6659f9	0.2249526
17	0x3da16634	0.07880822
18	0x3dbdd23e	0.09268616
19	0x3d951cdb	0.07280894
20	0xbe04153c	-0.12898725
21	0x3ddb1d06	0.10698895
22	0x3e1cce09	0.15312971
23	0x3bddc79c	0.00676818
24	0xbd8cb392	-0.06870188
25	0x3e7b0af8	0.24515903
26	0x3e22c9cb	0.1589729
27	0xbe041781	-0.12899591
28	0x3e0ac81b	0.13552897
29	0xbddaecd8	-0.106897056
30	0xbe27ed20	-0.1639905
31	0x3d4d6d7d	0.050153244
32	0x3f011e3b	0.50436753
33	0x3d651a3c	0.055933222
34	0x3eaa47c8	0.3325789
35	0x3e98c797	0.29839775
36	0xbdda81bf	-0.10669278
37	0xbe966dbd	-0.293806
38	0x3ef4510d	0.47718087
39	0x3e8a3f66	0.27001494
40	0x3e828a6d	0.25496235
41	0xbe56dc85	-0.20982559
42	0x3e04456e	0.1291711
43	0x3eb7e6fe	0.3591842
44	0xbe9bd8a2	-0.30438715
45	0x3e0e3e17	0.13890873
46	0x3eae4886	0.34039706
47	0x3e4d91df	0.20075177
48	0x3e2a7934	0.16647798
49	0x3e944d28	0.28965116
50	0x3e2f6238	0.17127311
51	0x3ec341b4	0.38136065
52	0xbe4ad162	-0.19806436
53	0x3e936d50	0.28794336
54	0x3ec84b8a	0.39120132
55	0xbe4e024b	-0.20118062
56	0xbe5703b8	-0.20997512
57	0x3e54676b	0.20742576
58	0x3eae3544	0.34025013
59	0xbe7d58f7	-0.24740969
60	0x3e88d997	0.26728508
61	0xbdae765b	-0.08518668
62	0xbe851232	-0.25990444
63	0x3dd4ab1e	0.103842005
64	0xbe4646c2	-0.1936293
65	0xbc56286e	-0.013071163
66	0xbd29619c	-0.041352853
67	0x3d21c1e5	0.039491553
68	0x3cdc6862	0.026905242
69	0x3e115acf	0.14194797
70	0xbdffbbe8	-0.12487012
71	0xbccd4778	-0.025058493
72	0xbdf8fc4b	-0.12157496
73	0x3d9d26a1	0.076733835
74	0x3db80407	0.08985143
75	0xbdf0e0ba	-0.11761613
76	0x3e080f88	0.13287175
77	0x3d7be640	0.06149888
78	0xbe48730f	-0.19575141
79	0xbcb21d89	-0.0217426
80	0x3d921700	0.07133293
81	0x3a30f877	0.00067508913
82	0x3d3f2fa3	0.04667629
83	0xbd22aa27	-0.03971305
84	0x3e7716cc	0.2412979
85	0x3c947c0b	0.018125555
86	0xbe3679ef	-0.17819951
87	0x3e299d95	0.16564019
88	0x3e41fcfc	0.18944162
89	0x3c58a85a	0.013223732
90	0x3c22c6e8	0.009935118
91	0x3e39fbfc	0.1816253
92	0xbd960f67	-0.073271565
93	0x3bcfbe68	0.006339837
94	0x3c9a8b89	0.018865364
95	0xbd4f207e	-0.050568096
96	0xbe2492df	-0.16071652
97	0x3d5d995d	0.054101337
98	0xbd56bcfd	-0.052426327
99	0xbe8b2995	-0.27180162
100	0x3d75b285	0.059984703
101	0x3f0f2ea1	0.55930525
102	0xbe5bdaf8	-0.21470249
103	0x3d1969b1	0.03745431
104	0xbe1ff742	-0.15621665
105	0x3ecf6b27	0.40511438
106	0xbdecbe56	-0.11559741
107	0xbeb60002	-0.3554688
108	0x3ed99e62	0.4250365
109	0xbb6fc4a6	-0.0036585717
110	0xbe7f7256	-0.2494596
111	0xbc6a6bb0	-0.014307901
112	0x3d189617	0.03725251
113	0xbe47c4ef	-0.19508718
114	0xbdb3e2cf	-0.08783495
115	0xbe1edeed	-0.15514727
116	0x3f00ccda	0.5031258
117	0xbda5a7fb	-0.0808868
118	0xbe97da15	-0.2965857
119	0x3ed2b950	0.41157007
120	0x3ed0259c	0.40653694
121	0xbe1cd70f	-0.15316413
122	0xbe332082	-0.1749287
123	0x3ed9d33a	0.42543966
124	0xbdf92349	-0.12164933
125	0x3e8bc779	0.27300623
126	0x3ecbc228	0.39796567
127	0xbd8ff0d2	-0.07028355
128	0x3e813818	0.2523811
129	0xbda18e6c	-0.07888493
130	0x3d949aa4	0.07256058
131	0x3dfabd2f	0.12243115
132	0x3db2931f	0.08719467
133	0xbe06efa1	-0.13177349
134	0x3e3ddf95	0.18542321
135	0xbb08ae17	-0.0020855719
136	0x3e2cd681	0.16878702
137	0xbe883bc2	-0.26608092
138	0x3cc04ebe	0.023475047
139	0x3e6cac0a	0.23112503
140	0xbeb5f02e	-0.35534805
141	0xbdb8ce6c	-0.09023747
142	0x3e2e88cd	0.17044373
143	0x3d50efda	0.05100999
144	0x3cb3370d	0.021876836
145	0x3e19cf6b	0.1502053
146	0x3ade1e83	0.0016946349
147	0x3eac0d58	0.3360393
148	0xbe90b620	-0.2826395
149	0x3e12b21a	0.14325753
150	0x3dedab88	0.116049826
151	0xbe72e362	-0.23719552
152	0xbe815315	-0.252587
153	0x3e4efceb	0.20213668
154	0x3ea864a4	0.32889283
155	0xbdfee8bd	-0.12446735
156	0x3ec9e363	0.39431295
157	0xbdd8c95e	-0.10585283
158	0xbe8a744e	-0.27041858
159	0x3e7a760f	0.24459098
160	0x3e9311ec	0.2872461
161	0x3d44eada	0.048075534
162	0x3e0bc1c2	0.13648131
163	0x3df1aef1	0.118009456
164	0xbcb13c33	-0.02163515
165	0xbe72bfbb	-0.23705952
166	0x3e946c83	0.28989038
167	0x3ddff3bd	0.10935161
168	0x3e4a795e	0.1977286
169	0xbe590772	-0.21194246
170	0x3dc24087	0.09484964
171	0x3e5e87f4	0.2173155
172	0x3c476ddc	0.012172189
173	0x3df38781	0.1189108
174	0x3e4f5e77	0.20250879
175	0x3d6bf2af	0.057604488
176	0x3e34d149	0.17657961
177	0x3e30ad5f	0.17253636
178	0x3e34c838	0.17654502
179	0x3e1a81da	0.15088597
180	0xbc84cdb4	-0.016211368
181	0x3e199d19	0.15001334
182	0x3e3fe7ef	0.1874082
183	0xbe1a9469	-0.15095676
184	0xbe3e9531	-0.186116
185	0x3e53b5fa	0.20674887
186	0x3e5fc249	0.21851458
187	0xbdd0d3d8	-0.10196656
188	0x3e262103	0.1622353
189	0xbd8678bb	-0.06565996
190	0xbe1fd1b8	-0.15607345
191	0x3e08e2f9	0.13367833
192	0xbd08f4ab	-0.03343646
193	0xbc8a8705	-0.016910085
194	0x3dd64323	0.10462024
195	0x3cf255b7	0.029581888
196	0x3d9fd70b	0.07804688
197	0xbe4dafda	-0.20086613
198	0x3e81ef5f	0.25377938
199	0x3e1c5acd	0.15269013
200	0x3e72ffe3	0.23730426
201	0xbd633d45	-0.055478353
202	0x3d9e42eb	0.07727607
203	0x3d7c10b6	0.061539374
204	0x38a8d651	8.050784e-05
205	0xbd98a880	-0.07454014
206	0xbd0795e1	-0.03310192
207	0xbb57903a	-0.0032892362
208	0x3e28b346	0.16474637
209	0x3e5f629b	0.21814959
210	0x3dc4890a	0.095964506
211	0x3e2f00e7	0.17090188
212	0xbdf266b4	-0.11835995
213	0x3e3a8c48	0.18217576
214	0x3d07eb1a	0.033183195
215	0xbbf02631	-0.0073287715
216	0x3d209563	0.039204966
217	0x3e629479	0.2212695
218	0x3e876aae	0.26448578
219	0xbe21f864	-0.1581741
220	0x3e65e20b	0.2244951
221	0xbe113eff	-0.14184187
222	0xbe26d24c	-0.1629116
223	0x3d168465	0.036747355
224	0x3e43a2f2	0.19105127
225	0xbce25c39	-0.027631866
226	0x3df298f8	0.11845583
227	0x3d35c906	0.044381164
228	0x3c4bc7ad	0.012437743
229	0xbe0b489a	-0.13601914
230	0xbd0862cd	-0.03329735
231	0x3d856f51	0.065153725
232	0x3e3a09e1	0.18167831
233	0xbe22d5f8	-0.15901935
234	0x3d81fe84	0.06347373
235	0x3dd4b55e	0.103861555
236	0xbd92e59a	-0.07172699
237	0x3e273948	0.16330445
238	0x3dd9ff7e	0.106444344
239	0x3e328ad2	0.17435768
240	0x3d9eb502	0.07749368
241	0x3dc9aaa9	0.09847004
242	0x3d832529	0.06403572
243	0x3e1148ce	0.14187929
244	0xbd1464bd	-0.036228884
245	0x3db2f1e6	0.08737545
246	0x3d25bae4	0.040461436
247	0xbe04f9a9	-0.12985863
248	0xbd5f8787	-0.05457261
249	0x3e4da6ae	0.20083115
250	0x3e4beaa8	0.19913733
251	0xbd538d72	-0.051648565
252	0x3da2181c	0.07914755
253	0x3cc53848	0.024074689
254	0xbe831ac2	-0.25606352
255	0x3dbb4bf6	0.09145348

const_fold_opt__23 f4 [32, 1]
0	0x3ec83d7d	0.39109412
1	0x3e25b440	0.16182041
2	0x3ee0df18	0.43920207
3	0x3e8b7b3e	0.27242464
4	0x3de11079	0.1098947
5	0xbe6cdaba	-0.23130313
6	0x3eb538bb	0.35394844
7	0x3ec27c6a	0.37985545
8	0x3ee747f4	0.45172083
9	0xbdeef629	-0.11668045
10	0x3e292caa	0.16520944
11	0x3ece86d1	0.40337232
12	0xbefd901a	-0.49524003
13	0x3e2e6402	0.17030337
14	0x3ea6f99d	0.32612315
15	0x3e5e47ce	0.21707079
16	0x3e9bdbba	0.30441076
17	0x3e8679c8	0.26264787
18	0x3eb9104f	0.36145255
19	0x3e3933df	0.18086194
20	0xbef39b01	-0.47579196
21	0x3ea94cb7	0.3306634
22	0x3e96b0e9	0.29431847
23	0xbebc6550	-0.36796045
24	0xbefb8630	-0.49125814
25	0x3e9713e8	0.29507375
26	0x3ec688f7	0.3877637
27	0xbece86bb	-0.40337166
28	0x3ec6bb6a	0.3881486
29	0xbe26c353	-0.16285448
30	0xbeb4fb20	-0.35347843
31	0x3e493406	0.19648752

const_fold_opt__22 f4 [1536, 32]
0	0xbd939653	-0.072064064
1	0xbd7df167	-0.061997797
2	0xbb91f9db	-0.004454834
3	0x3de92d1d	0.11385558
4	0xbe23b743	-0.15987878
5	0xbde0d78a	-0.10978611
6	0xbdb391f0	-0.0876807
7	0xbdd1cf45	-0.10244612
8	0xbd288389	-0.041141067
9	0xbd865a83	-0.065602325
10	0xbd8e0d1a	-0.06936093
11	0xbcb7da5a	-0.022442985
12	0x3d343af1	0.044001523
13	0xbe03cd78	-0.12871349
14	0xbd993cc8	-0.07482296
15	0xbdd42718	-0.10359019
16	0xbde6e29b	-0.1127369
17	0x3d4bd28c	0.04976134
18	0x3d8c4ed5	0.068509735
19	0xbd198b43	-0.037486326
20	0xbd5e5aff	-0.054286
21	0xbd89f872	-0.0673684
22	0xbcd7c8d6	-0.026340883
23	0xbdb0f168	-0.086397946
24	0xbc4cd019	-0.012500786
25	0xbcdf8062	-0.027282897
26	0xbd534edf	-0.05158889
27	0xbdc6a153	-0.09698739
28	0xbda4fc04	-0.08055881
29	0xbe353f8c	-0.17700022
30	0x3b8b7d4f	0.0042568813
31	0xbe03b6ee	-0.12862751
32	0x3dcbbbfc	0.099479645
33	0x3d583f2f	0.05279463
34	0x3cfccb9a	0.030858804
35	0x3d1a4055	0.037659008
36	0x3dc28808	0.09498602
37	0x3db8c918	0.090227306
38	0x3d6d48c5	0.057930727
39	0x3dac7df2	0.0842246
40	0x3d2e5019	0.042556856
41	0x3d4be8ce	0.049782567
42	0x3d9a1eaa	0.0752538
43	0x3c657027	0.01400379
44	0x3c726319	0.014794135
45	0x3d7b5c80	0.06136751
46	0x3d8bbfe9	0.06823713
47	0x3d2473cd	0.0401495
48	0x3da743a1	0.08167196
49	0x3d340f12	0.043959685
50	0x3ce8d20a	0.028420467
51	0x3d2e8ca8	0.04261461
52	0x3c864439	0.016389953
53	0x3d63527a	0.055498578
54	0x3daaa725	0.083326615
55	0x3d5b1f88	0.053496867
56	0x3cefc6b2	0.02926955
57	0x3db6a9f7	0.08919137
58	0x3d9b0bb5	0.07570592
59	0x3d7cd294	0.06172426
60	0x3d5edf92	0.054412432
61	0x3c97349b	0.018457701
62	0x3cee2bd3	0.029073631
63	0x3d4f7dcd	0.050657082
64	0xbcea4d67	-0.028601361
65	0x3c3df82c	0.011594813
66	0x3d39442a	0.045231022
67	0x3dc23908	0.09483534
68	0x3dd4a169	0.10382349
69	0x3d865b97	0.06560438
70	0xbc0c4009	-0.008560189
71	0x3d1cecb1	0.038311664
72	0x3d87b5eb	0.06626495
73	0x3d3ef0a3	0.046616208
74	0xba3dcc5d	-0.00072402303
75	0xbb00be4a	-0.001964467
76	0xbb7ef48c	-0.0038903086
77	0x3c5d71f6	0.01351594
78	0x3da54d78	0.080714166
79	0x3d471097	0.048599806
80	0x3dc63a1b	0.096790515
81	0xbd85819f	-0.06518864
82	0xbd2a3d83	-0.04156257
83	0x3cfc3f7b	0.030791989
84	0xbc0e3f10	-0.008682027
85	0x3d569b30	0.052394092
86	0xbcc60199	-0.024170684
87	0xbc0c9209	-0.008579739
88	0xbc40a656	-0.011758408
89	0x3cdafd49	0.026732104
90	0x3d36c805	0.044624347
91	0x3d939b3e	0.072073445
92	0x3da96da5	0.08272866
93	0x3c6c07b6	0.014406135
94	0xbc47fca1	-0.0122062275
95	0xbb29cb11	-0.002590839
96	0xbe0e72bb	-0.13910954
97	0xbe647520	-0.22310305
98	0x3dd0deca	0.10198744
99	0xbcfdb36a	-0.03096934
100	0xbddcee51	-0.10787643
101	0xbe09104d	-0.13385125
102	0xbd1ab2d0	-0.037768185
103	0xbdc999c2	-0.0984378
104	0xbdf9409f	-0.121705286
105	0xbdb21709	-0.086958
106	0xbd82b3dc	-0.06381962
107	0x3e0def3a	0.13860789
108	0x3cf6f7bf	0.030147431
109	0xbe2a73ff	-0.16645811
110	0xbde629a6	-0.112384126
111	0xbdb3d697	-0.08781164
112	0xbdcc50cf	-0.099763505
113	0x3e31754b	0.173299
114	0x3dddd6f0	0.10832012
115	0xbde1c8c2	-0.1102462
116	0xbcfbf9c2	-0.030758742
117	0xbe25f7e7	-0.16207848
118	0xbdcc0e32	-0.09963645
119	0xbdc5bb12	-0.096548215
120	0x3e046d2f	0.12932275
121	0xbe49d94a	-0.19711795
122	0xbdb507b2	-0.088393584
123	0xbde3c452	-0.111214295
124	0xbe37aab2	-0.17936209
125	0xbe14fff8	-0.1455077
126	0x3dbc26f6	0.09187119
127	0xbdb1982c	-0.086716026
128	0x3dc2524e	0.094883546
129	0x3dfeb669	0.12437136
130	0x3cdfc534	0.027315713
131	0x3d254a1d	0.040353883
132	0x3da8f86c	0.08250508
133	0x3dd580e7	0.10424977
134	0x3db2eb26	0.08736257
135	0x3d85c63d	0.065319516
136	0x3e01ef04	0.12688833
137	0x3e10e6cc	0.14150542
138	0x3d7604eb	0.060063284
139	0xbdaee0f3	-0.085389994
140	0x3d350046	0.044189714
141	0x3dd0bde0	0.10192466
142	0x3dff3dea	0.12462981
143	0x3dc0ac5b	0.09407874
144	0x3d9d4cdf	0.076806776
145	0x3c83ebd1	0.016103657
146	0x3c9c2cea	0.019064385
147	0x3d793799	0.060844038
148	0x3d81da0a	0.06340416
149	0x3dfb8f8c	0.12283239
150	0x3dbd0c6d	0.09230886
151	0x3dab813d	0.083742596
152	0x3c8ccdd6	0.017187994
153	0x3dc5c4d6	0.09656684
154	0x3d75fca8	0.060055405
155	0x3dc00e20	0.09377694
156	0x3e05e443	0.13075356
157	0x3de74abd	0.11293552
158	0xbb85be48	-0.004081521
159	0x3dcd64ff	0.10029029
160	0x3d609573	0.054830026
161	0x3d239cce	0.039944462
162	0x3d5d2c42	0.053997286
163	0x3d3b773e	0.045768015
164	0x3d54d91b	0.05196486
165	0x3ce73199	0.028221892
166	0x3d8eb18d	0.06967459
167	0x3d2f97d6	0.04286941
168	0x3d444122	0.047913678
169	0x3cdf81b6	0.02728353
170	0x3d8de097	0.06927603
171	0x3d80564d	0.062664606
172	0x3da205bd	0.07911251
173	0x3d13ba71	0.036066476
174	0x3d13fbb2	0.036128707
175	0x3d4b986f	0.04970592
176	0x3d9103ad	0.07080779
177	0x3d87e606	0.0663567
178	0x3d95d064	0.07315138
179	0x3d4d5c2a	0.050136723
180	0x3d57ea9c	0.052713975
181	0x3d32b2fd	0.043627728
182	0x3d556df7	0.052106824
183	0x3b8dcf56	0.004327695
184	0x3da9fc5e	0.08300088
185	0x3d199c68	0.037502676
186	0x3d47c456	0.048771225
187	0x3d201a67	0.03908768
188	0x3ca8adac	0.020590626
189	0x3d382a79	0.04496238
190	0x3db991de	0.09061025
191	0x3d2d89e2	0.042367823
192	0x3ce1633f	0.027513145
193	0x3d86c838	0.065811574
194	0x3d446f62	0.047957785
195	0x3d993327	0.0748046
196	0x3d13cd0a	0.036084212
197	0x3d591df4	0.05300708
198	0x3d3a4f80	0.045485973
199	0x3d5181e8	0.05114928
200	0x3d700851	0.05860168
201	0x3d5f6d0f	0.054547366
202	0x3d9079f4	0.07054511
203	0xbcb19149	-0.021675723
204	0x3dc4ba83	0.09605887
205	0x3d2295ab	0.039693516
206	0x3bd49389	0.006487314
207	0x3d8b8aa6	0.068135545
208	0x3c78ab50	0.015177563
209	0x3d8a7d98	0.06762236
210	0x3d3b4dff	0.04572868
211	0x3cad66d2	0.021167193
212	0x3d9a6b30	0.07539976
213	0x3c939cec	0.018019162
214	0x3c9c841c	0.019105963
215	0x3d38a334	0.045077518
216	0x3de6e40a	0.11273964
217	0x3da3e65c	0.08002922
218	0x3da17257	0.07883137
219	0xbac8d9ce	-0.00153237
220	0x3a97e302	0.0011588039
221	0x3d0039ee	0.031305246
222	0x3db6e8d1	0.08931125
223	0x3cc8061a	0.024416972
224	0xbd7485ee	-0.059698038
225	0xbc2d03c7	-0.010559983
226	0xbd8db74a	-0.06919725
227	0xbd31ba45	-0.04339053
228	0x3ca18ea6	0.01972134
229	0x3b35fc1d	0.002776868
230	0xbd2aa0e3	-0.04165734
231	0xbba40bf9	-0.00500631
232	0xbd979361	-0.07401157
233	0xbd798ed2	-0.06092722
234	0x3ce2177c	0.027599089
235	0x3d08c7b4	0.033393577
236	0xbd443d77	-0.04791018
237	0xbc62bdb7	-0.013839177
238	0xbd0119cb	-0.03151874
239	0xbd3cb9a4	-0.04607548
240	0xbd340646	-0.043951295
241	0xbdcadafc	-0.09905049
242	0xbe03e4fc	-0.1288032
243	0x3c7d4c7a	0.015460128
244	0xbbbf20c4	-0.0058327634
245	0xbd6ea94f	-0.058266934
246	0xbc7e4b15	-0.015520831
247	0xbd60c1c5	-0.054872293
248	0xbddcd9dc	-0.10783741
249	0xba926f9f	-0.0011172182
250	0xbdc50392	-0.096198216
251	0xbd113119	-0.035447214
252	0xbdccbdb0	-0.099971175
253	0xbd90026f	-0.07031714
254	0xbd1b7f94	-0.037963465
255	0xbd8d59ec	-0.06901917
