en/ronaldo/Ronaldo.onnx (onnx, 205647 bytes, 9 tensors)

const_fold_opt__23 f4 [32, 1]
0.119233675 -0.37800875 -0.052206665 -0.32967097 -0.037264872 0.025860066 -0.041410457 0.14003116
0.11912413 0.1269697 -0.3173612 -0.31733078 0.1636002 -0.3688245 0.05336787 -0.0638185
0.16245529 -0.32209757 -0.34735045 0.16740997 0.009216895 0.16282065 -0.31065848 -0.28111884
-0.027199034 0.10203912 -0.12161123 0.12712084 0.10620616 -0.2838257 -0.06749693 0.18509321
00000000: c930 f43d 5d8a c1be a8d6 55bd a2ca a8be
00000010: 0da3 18bd 7dd8 d33c 039e 29bd 5464 0f3e
00000020: 5af7 f33d 5804 023e 2b7d a2be 2e79 a2be
00000030: d086 273e 91d6 bcbe 4598 5a3d 46b3 82bd
00000040: ae5a 263e f9e9 a4be ebd7 b1be 856d 2b3e
00000050: 7602 173c 75ba 263e a10e 9fbe cfee 8fbe
00000060: 82d0 debc e3f9 d03d 4f0f f9bd f72b 023e
00000070: 9d82 d93d 9a51 91be d53b 8abd 1389 3d3e

const_fold_opt__22 f4 [32, 32]
0.008427676 -0.1165944 0.02861317 0.027451137 -0.014181272 0.14164364 -0.0727226 0.031420324
-0.0055489065 0.16675332 -0.052783236 0.08387635 -0.11832849 -0.12712951 0.027592504 -0.08707645
-0.019837072 -0.0613604 0.10703153 0.06057283 0.1057277 -0.16550772 -0.13334005 0.121399805
0.07689412 -0.013022644 -0.1244717 0.16157562 -0.11530089 0.12070733 0.02536279 -0.12187919
-0.04045101 0.00045406105 -0.051231604 -0.12009023 0.055474866 0.1189742 -0.0025788718 -0.041433763
-0.13917151 -0.14395045 0.10251899 0.05777289 0.12520304 -0.12179488 0.14432223 0.1469614
0.050980132 0.023862345 -0.12372128 0.16334732 -0.11799258 0.12635922 -0.07849639 -0.1986164
-0.074390516 0.07633762 0.06186204 0.04918677 0.10880991 -0.04678486 0.10560051 0.11246861
-0.08408221 0.2691334 -0.119268835 0.03376018 -0.026493633 -0.12001869 -0.14207514 -0.22010346
0.07044462 -0.003390881 0.029994924 0.16929208 -0.21256374 0.07776174 -0.10286333 0.075426504
-0.045091998 0.18859828 -0.017382486 -0.14378951 -0.093684465 -0.18374716 0.12327573 0.0914774
-0.13997114 0.044610366 -0.08802231 -0.17468977 -0.042587645 0.122807264 -0.10698663 -0.16759528
-0.07556705 -0.043438602 0.004823815 0.039346743 0.063024916 -0.057287995 0.09727251 -0.07120328
0.21238975 0.1598953 -0.033792965 0.038709253 0.14842863 0.018109342 -0.050439898 0.051890716
-0.06552165 0.08996228 -0.13746592 0.09803551 -0.007134972 0.10996726 0.117531925 0.09520476
-0.040010545 -0.032760218 0.10494102 0.039072864 0.064346746 -0.046272878 -0.13905734 0.07905959
0.046876915 -0.0149038425 -0.039777037 -0.04131436 -0.017578116 0.055922043 0.00047874666 0.16627124
-0.08207676 0.0599048 -0.024204101 -0.16355082 0.15706173 -0.083710894 -0.030030696 -0.10601804
-0.14178944 0.015163897 -0.08073783 -0.021766098 -0.13617004 -0.043444123 -0.10004873 -0.003084958
0.03523313 -0.0024111953 -0.026633918 0.03895711 0.03503854 -0.05155294 -0.06182494 0.04132397
-0.078812934 -0.055830065 -0.13595046 0.132127 -0.05762914 0.076678656 -0.042683873 -0.004399386
-0.09289999 0.14475633 -0.16575952 0.14023528 0.087509364 -0.10841667 -0.10162744 -0.15041573
-0.009615804 -0.08430679 0.025197385 -0.061288275 -0.08554797 -0.12717704 0.03582644 -0.06710149
0.14844084 -0.0071173604 -0.16880073 -0.13138235 -0.14556643 -0.03033225 0.025029497 -0.034427404
-0.03925635 0.13425647 -0.07760425 -0.025765356 -0.13283145 0.08224069 0.029454773 -0.08320485
0.08512786 -0.1345367 0.024810968 0.03557119 -0.19025223 0.11967135 -0.15417627 -0.04422544
-0.09472226 -0.09600853 0.116052456 -0.13187115 0.068692535 0.017768692 0.07562592 -0.07141444
0.042627577 -0.10734733 -0.1040444 0.017827995 0.12631889 -0.07594138 0.117639765 -0.15237685
0.10083248 0.09522083 0.052668944 -0.06315521 -0.0020938392 -0.0013506748 -0.16480175 0.1698664
-0.058412787 -0.04893434 0.02544297 -0.0033653362 0.090063 0.043694742 0.08535638 0.092260614
0.15065968 0.06603963 -0.12247223 0.086133905 -0.12870985 -0.13871953 -0.005544483 0.0067652673
-0.11786786 -0.0007112009 0.04834369 0.09197319 0.13767554 0.1303775 -0.013516347 0.17824076
00000000: 3c14 0a3c 0bc9 eebd 2b66 ea3c 35e1 e03c
00000010: 9158 68bc 080b 113e 96ef 94bd 99b2 003d
00000020: 9ad3 b5bb 62c1 2a3e 3c33 58bd 5dc7 ab3d
00000030: 3556 f2bd 3d2e 02be ad09 e23c 2355 b2bd
00000040: 5b81 a2bc 0b55 7bbd 5933 db3d 371b 783d
00000050: c487 d83d db7a 29be 4b8a 08be 76a0 f83d
00000060: aa7a 9d3d ee5c 55bc 05eb febd 1474 253e
00000070: df22 ecbd 6835 f73d a0c5 cf3c cc9b f9bd
00000080: f5af 25bd 0b0f ee39 3bd8 51bd def1 f5bd
00000090: 9d39 633d bfa8 f33d 4a02 29bb 73b6 29bd
000000a0: fa82 0ebe bf67 13be 7af5 d13d 44a3 6c3d
000000b0: 3a35 003e 986f f9bd 35c9 133e 0d7d 163e
000000c0: 8bd0 503d f77a c33c 9561 fdbd 8544 273e
000000d0: 18a6 f1bd 5064 013e b7c2 a0bd 1962 4bbe
000000e0: 0e5a 98bd e656 9c3d 0d63 7d3d 1178 493d
000000f0: bbd7 de3d 7ba1 3fbd 1545 d83d f155 e63d
00000100: 4b33 acbd dacb 893e 3843 f4bd 1d48 0a3d
00000110: 2d09 d9bc 5ccc f5bd 257c 11be cd62 61be
00000120: 4545 903d 8b39 5ebb eab7 f53c e75a 2d3e
00000130: 4faa 59be 8c41 9f3d 02aa d2bd 3679 9a3d
00000140: 63b2 38bd e81f 413e b765 8ebc 8f3d 13be
00000150: a4dd bfbd 3728 3cbe fc77 fc3d 8158 bb3d
00000160: 9854 0fbe 5cb9 363d 0a45 b4bd e0e1 32be
00000170: 6270 2ebd 6082 fb3d ce1b dbbd 199e 2bbe
00000180: e6c2 9abd adec 31bd 1811 9e3b 0d2a 213d
00000190: 3513 813d d1a6 6abd cf36 c73d 06d3 91bd
000001a0: b37c 593e 98bb 233e 7e6a 0abd 988d 1e3d
000001b0: adfd 173e 0b5a 943c 119a 4ebd 5c8b 543d
000001c0: 3730 86bd 253e b83d dec3 0cbe d7c6 c83d
000001d0: 7ccc e9bb 8436 e13d 94b4 f03d b7fa c23d
000001e0: 19e2 23bd 942f 06bd 51eb d63d de0a 203d
000001f0: 3ac8 833d a188 3dbd 0c65 0ebe ffe9 a13d
00000200: 0202 403d 3f2f 74bc 3fed 22bd 3f39 29bd
00000210: fbff 8fbc 830e 653d 4a00 fb39 0243 2a3e
00000220: dc17 a8bd bc5e 753d ae47 c6bc de79 27be
00000230: cad4 203e 9e70 abbd ef02 f6bc fc1f d9bd
00000240: 4031 11be fe71 783c e059 a5bd d14e b2bc
00000250: 2970 0bbe 77f2 31bd 59e6 ccbd 022d 4abb
00000260: 9d50 103d 2505 1ebb 602f dabc 7e91 1f3d
00000270: 9284 0f3d 2d29 53bd 263c 7dbd 5343 293d
00000280: ad68 a1bd 11ae 64bd 9936 0bbe 4d4c 073e
00000290: 880c 6cbd b309 9d3d 49d5 2ebd b928 90bb
000002a0: 5a42 bebd 013b 143e ddbc 29be d699 0f3e
000002b0: 1c38 b33d 8f09 debd 0c22 d0bd 9506 1abe
000002c0: 9b8b 1dbc 0aa9 acbd bf6a ce3c 6a09 7bbd
000002d0: c633 afbd b33a 02be bfbe 123d 826c 89bd
000002e0: e000 183e bf38 e9bb 19da 2cbe 1889 06be
000002f0: 5e0f 15be 577b f8bc a90a cd3c c003 0dbd
00000300: 44cb 20bd 877a 093e faee 9ebd de11 d3bc
00000310: f804 08be cf6d a83d 234b f13c 4e67 aabd
00000320: 8457 ae3d fdc3 09be 5f40 cb3c 19b3 113d
00000330: 7bd1 42be 4116 f53d 62e0 1dbe bc25 35bd
00000340: bffd c1bd 1fa0 c4bd e9ac ed3d 3b09 07be
00000350: acae 8c3d a68f 913c c3e1 9a3d bc41 92bd
00000360: 419a 2e3d ebd8 dbbd 3b15 d5bd 040c 923c
00000370: bd59 013e 2787 9bbd 1eed f03d ad08 1cbe
00000380: 4281 ce3d 2303 c33d 64bb 573d 8557 81bd
00000390: cb38 09bb 2009 b1ba cac1 28be 75f1 2d3e
000003a0: 3f42 6fbd 606f 48bd c76d d03c f98c 5cbb
000003b0: f372 b83d 42f9 323d 53cf ae3d 22f3 bc3d
000003c0: 8846 1a3e c93f 873d b8d2 fabd f966 b03d
000003d0: 84cc 03be 7e0c 0ebe 7fae b5bb 2daf dd3b
000003e0: b464 f1bd e26f 3aba 0804 463d 715c bc3d
000003f0: d1fa 0c3e ae81 053e ab73 5dbc bf84 363e

const_fold_opt__20 f4 [1536, 32]
0.0057841954 0.010190732 0.0015753482 0.0022277473 0.010658064 0.0011145767 -0.005323208 -0.021433026
-0.0101645095 0.009083637 -0.005693174 -0.005336055 0.0050040027 0.0056780265 -0.006181044 0.013118604
0.004031724 -0.002578163 -0.012961673 0.014879294 -0.0270773 0.0054362663 -0.0010154668 -0.019296985
-0.017134523 -0.002942896 -0.009135634 -0.017286127 0.022174742 -0.013323904 0.036085647 0.013182344
0.009739888 0.004846859 0.00022439496 -0.0025591687 -0.0035720267 -0.0043395725 -0.008124678 0.023482954
0.0024762363 -0.0063602612 -0.0011589956 -0.008637057 0.023776269 -0.011963675 -0.024480773 -0.004854398
0.011350435 -0.010195866 -0.005099156 0.023805255 0.00036160264 -0.009939437 -0.020839259 -0.016272997
-0.005716453 0.0006163561 -0.023881681 -0.012291191 0.02259232 0.025051365 -0.02090077 -0.012242327
0.025197018 -0.01182341 0.0040779687 -0.000151917 0.01064961 -0.009584503 -0.005543249 0.019523986
0.0021229903 -0.027175926 0.0032663883 -0.021632012 -0.0021483856 -0.001248388 0.0071623465 -0.02225682
-0.011940153 -0.008111461 -0.014442824 -0.007095323 0.00720403 0.026957335 0.01435128 0.01102255
-0.003649449 0.0016173229 -0.011533629 0.01682914 -0.01294007 -0.018920034 0.016395824 -0.00029969812
-0.0071293465 -0.0018964213 0.0025619888 -0.051794507 0.011658148 0.022329558 -0.008452838 0.0031066302
-0.0050913044 -0.036722306 -0.0020102977 -0.004599677 0.016426368 0.020252094 -0.0303047 -0.021544097
-0.017195608 0.018507253 -0.008121305 -0.021275125 0.02685397 0.004903734 -0.0030048667 0.009466321
0.021435678 -0.021840042 -0.008549334 -0.03796283 -0.03308078 -0.019755356 -0.013056371 0.035539106
0.0042483034 0.016904982 -0.023271374 0.03728588 0.024172293 0.014657066 0.004368821 0.034950808
0.015343467 0.010284397 -0.017686963 0.027584493 -0.0021463712 0.0013683238 0.0005062944 0.010668526
0.035435747 0.031093875 0.019172998 0.003868491 0.00907618 0.032760445 -0.01220011 -0.007820911
-0.032462362 -0.009089358 -0.015474331 -0.013029298 0.008274408 0.010887771 0.023592085 -0.009108119
-0.00364231 0.019718066 -0.008118755 0.01297949 0.016582726 0.010192633 0.0061052805 0.0032678614
0.01776086 -0.019790176 0.001978274 0.0029035984 -0.009997779 0.008453648 -0.009336031 -0.014079932
0.0028173565 -0.015849758 0.021604553 0.022614159 0.0058719204 0.021220677 0.0064257607 0.015293549
0.02202754 0.0025345513 -0.007538545 -0.008738424 -0.0045555197 -0.015162455 0.021475745 -0.019407991
-0.0028268064 -0.005354497 0.0017380483 -0.025354212 -0.0012361992 -0.015816938 0.021706408 -0.02377196
0.01355439 0.008866522 -0.0063630193 -0.02043559 -0.0051546893 -0.007821949 0.012145643 0.010801444
0.013080807 -0.008915829 -0.020507768 0.019855192 -0.013545002 0.023583338 -0.027326752 -0.0008317868
0.010015124 -0.0037059435 0.012506961 0.003197638 -0.02245108 0.011086702 -0.024121942 0.00560479
0.014044453 0.0053365934 -0.0071230796 0.015557285 0.021021103 0.006897379 0.007821271 -0.008924506
0.009260101 -0.0031340146 -0.005203853 -0.009783812 -0.0056219352 -0.010080816 -0.01986384 0.010860155
0.022870911 0.002982319 0.02181 -0.025242973 -3.5584795e-05 0.0025331436 0.007975412 -0.019094814
-0.023795828 -0.008487083 0.022965273 0.009478417 0.0038775008 0.008850109 0.016145878 -0.021576568
00000000: 5989 bd3b 07f7 263c ea7b ce3a 66ff 113b
00000010: 299f 2e3c fd16 923a 4e6e aebb 5094 afbc
00000020: 0b89 26bc 89d3 143c ce8d babb 13da aebb
00000030: 9ef8 a33b bd0e ba3b 5b8a cabb 6aef 563c
00000040: 8d1c 843b 66f6 28bb 325d 54bc 48c8 733c
00000050: 37d1 ddbc b522 b23b 6919 85ba b614 9ebc
00000060: b35d 8cbc 9add 40bb a0ad 15bc a39b 8dbc
00000070: cea7 b53c 814c 5abc 8bce 133d c2fa 573c
00000080: 0d94 1f3c 66d2 9e3b 904b 6b39 bab7 27bb
00000090: aa18 6abb f932 8ebb 5f1d 05bc 535f c03c
000000a0: 5a48 223b bd69 d0bb 70e9 97ba 7182 0dbc
000000b0: 73c6 c23c 4a03 44bc e78b c8bc a411 9fbb
000000c0: 2df7 393c 900c 27bc d216 a7bb 3d03 c33c
000000d0: 7c95 bd39 05d9 22bc 18b7 aabc f34e 85bc
000000e0: 1551 bbbb f592 213a 84a3 c3bc fe60 49bc
000000f0: 8713 b93c 8538 cd3c 1738 abbc 0b94 48bc
00000100: fa69 ce3c fab6 41bc 7ba0 853b e94b 1fb9
00000110: b47b 2e3c 5208 1dbc 25a4 b5bb c4f0 9f3c
00000120: de21 0b3b 0ca0 debc e710 563b 9e35 b1bc
00000130: eecb 0cbb f3a0 a3ba 1eb2 ea3b ef53 b6bc
00000140: a2a0 43bc efe5 04bc 98a1 6cbc e27f e8bb
00000150: c90f ec3b a1d5 dc3c a221 6b3c ed97 343c
00000160: 982b 6fbb 5afc d33a 8cf7 3cbc 44dd 893c
00000170: 9602 54bc 30fe 9abc 8950 863c cd20 9db9
00000180: 4b9d e9bb 5791 f8ba 0ae7 273b 7a26 54bd
00000190: d101 3f3c 7aec b63c c67d 0abc 9b98 4b3b
000001a0: f5d4 a6bb 216a 16bd 33bf 03bb e3b8 96bb
000001b0: 9790 863c b8e7 a53c 9041 f8bc 3f7d b0bc
000001c0: cedd 8cbc 869c 973c 390f 05bc 2c49 aebc
000001d0: dbfc db3c 81af a03b 4ced 44bb a118 1b3c
000001e0: e099 af3c e3e9 b2bc 8112 0cbc ea7e 1bbd
000001f0: b67f 07bd fcd5 a1bc 64ea 55bc 7491 113d
00000200: 5a35 8b3b 517c 8a3c 9ca3 bebc 14b9 183d
00000210: f904 c63c 3124 703c 5428 8f3b 9428 0f3d
00000220: 2a63 7b3c e37f 283c 40e4 90bc e0f8 e13c
00000230: 22aa 0cbb 5459 b33a d8b8 043a 0bcb 2e3c
00000240: 1325 113d 95b8 fe3c b110 9d3c 8286 7d3b
00000250: 42b4 143c d12f 063d f8e2 47bc 4723 00bc
00000260: 41f7 04bd 88eb 14bc 0c88 7dbc d678 55bc
00000270: 6291 073c 9f62 323c 3044 c13c 383a 15bc
00000280: d2b3 6ebb c887 a13c 8704 05bc eda7 543c
00000290: 7fd8 873c 00ff 263c ce0e c83b 9e29 563b
000002a0: 397f 913c 021f a2bc eea5 013b 4c4a 3e3b
000002b0: b9cd 23bc 2b81 0a3c 27f6 18bc 84af 66bc
000002c0: 66a3 383b 5ad7 81bc 08fc b03c 5441 b93c
000002d0: 3d69 c03b fcd6 ad3c 308f d23b cb91 7a3c
000002e0: 1973 b43c b71a 263b e605 f7bb 9b2b 0fbc
000002f0: 7846 95bb f26b 78bc e7ed af3c 82fd 9ebc
00000300: f141 39bb c774 afbb 39cf e33a a3b3 cfbc
00000310: f607 a2ba 8692 81bc a3d1 b13c 6abd c2bc
00000320: 3b13 5e3c e444 113c e080 d0bb 8a68 a7bc
00000330: abe8 a8bb a227 00bc 85fe 463c 8af8 303c
00000340: e250 563c b213 12bc e8ff a7bc 5ba7 a23c
00000350: dbeb 5dbc d831 c13c 5adc dfbc 440c 5aba
00000360: 7a16 243c 6adf 72bb ffe9 4c3c 778f 513b
00000370: 54eb b7bc 00a5 353c 619b c5bc 63a8 b73b
00000380: b51a 663c 97de ae3b b968 e9bb fce3 7e3c
00000390: 7334 ac3c 6903 e23b ca24 003c 1738 12bc
000003a0: aeb7 173c 0a64 4dbb 1585 aabb 484c 20bc
000003b0: 3638 b8bb 022a 25bc 7eb9 a2bc cbee 313c
000003c0: c75b bb3c 0373 433b e3aa b23c 5aca cebc
000003d0: e240 15b8 1903 263b 4dab 023c ba6c 9cbc
000003e0: 78ef c2bc 680d 0bbc ab21 bc3c 5d4b 1b3c
000003f0: ab1d 7e3b 0c00 113c 5c44 843c 58c1 b0bc

Const_7 f4 [32]
0.08502863 0.3319984 -0.024092529 0.23825137 -0.01513452 0.0098168785 -0.0013079635 0.024708385
-0.009596101 0.0044335574 0.29418534 0.2416934 0.021762699 0.22353429 0.015875995 -0.00013269875
0.012694915 0.24078263 0.22255795 0.01784976 -0.011940659 0.033516053 0.2772092 0.24229893
-0.04274077 -0.0020293011 -0.0059428094 0.026261656 0.0068072146 0.27665612 -0.0073993756 0.059862133
00000000: 7e23 ae3d b2fb a93e b25d c5bc 2bf8 733e
00000010: c7f6 77bc f9d6 203c f96f abba 3d69 ca3c
00000020: f738 1dbc 6047 913b 769f 963e 7a7e 773e
00000030: b047 b23c 2ce6 643e 600e 823c 0d25 0bb9
00000040: 55fe 4f3c b98f 763e 3be6 633e a939 923c
00000050: c1a2 43bc 2148 093d 5dee 8d3e 361d 783e
00000060: f210 2fbd 06fe 04bb e6bb c2bb af22 d73c
00000070: 0e0f df3b dfa5 8d3e 7676 f2bb ff31 753d

Const_6 f4 [32]
1.0917295 1.4531047 0.97837263 1.2383517 0.9799752 1.0187356 1.0001066 1.0617535
1.0124654 1.0277785 1.357386 1.2400569 1.0698905 1.2167332 1.0347365 0.9510732
1.0205823 1.2410553 1.1957066 1.0393286 0.9919069 1.0575238 1.3224219 1.2260342
0.9679699 0.99840045 0.99626786 1.0451726 1.0020179 1.3106316 0.99839747 1.0986952
00000000: cbbd 8b3f 56ff b93f a176 7a3f 4f82 9e3f
00000010: a8df 7a3f ee65 823f 7e03 803f 8ae7 873f
00000020: 7798 813f 3f8e 833f d3be ad3f 2fba 9e3f
00000030: 2cf2 883f eabd 9b3f 3f72 843f 8979 733f
00000040: 71a2 823f e6da 9e3f ea0c 993f b808 853f
00000050: 9ced 7d3f f15c 873f 1f45 a93f b0ee 9c3f
00000060: e0cc 773f 2c97 7f3f 690b 7f3f 37c8 853f
00000070: 1f42 803f c7c2 a73f fa96 7f3f 0ba2 8c3f

Const_5 f4 [32]
-0.08067299 0.035679527 0.13322131 0.08704358 -0.068241335 -0.11740229 0.07462569 -0.09048223
-0.14314018 -0.06711561 0.006529547 0.061628986 -0.16175112 -0.06217021 -0.0077476096 0.02232527
0.14200777 -0.10604976 -0.059043802 -0.10205274 0.1425206 0.104330964 0.12708293 -0.07479436
0.11227342 -0.028981328 0.07929731 -0.0063700397 0.08100265 0.0027477464 0.12220393 0.021775557
00000000: e137 a5bd b224 123d 2b6b 083e e843 b23d
00000010: 1dc2 8bbd 9d70 f0bd 5bd5 983d bf4e b9bd
00000020: 5793 12be e973 89bd cff5 d53b ad6e 7c3d
00000030: 16a2 25be 31a6 7ebd a9df fdbb 7ce3 b63c
00000040: 7c6a 113e 9e30 d9bd ead7 71bd 0701 d1bd
00000050: ecf0 113e 79ab d53d 0722 023e c92d 99bd
00000060: 9bef e53d 406a edbc a166 a23d c4bb d0bb
00000070: b8e4 a53d 8913 343b 0e46 fa3d a762 b23c

Const_3 f4 [32]
-0.009815656 0.014562614 0.023310559 -0.0016234589 0.020068197 0.003971612 0.00808441 -0.006684912
-0.008753742 -0.007222686 -0.008222087 -0.0036051194 0.011476781 0.00964887 -0.03537384 -0.007986156
-0.013587403 -0.008155417 -0.012164621 -0.005195843 0.031534605 -0.008691799 -0.008373625 -0.011458386
0.015817309 -0.006579995 -0.0086111 -0.004578434 -0.0053525385 -0.005673339 -0.0036064743 0.0036936952
00000000: d8d1 20bc 0898 6e3c c9f5 be3c 3eca d4ba
00000010: 0f66 a43c 4c24 823b 7974 043c 1b0d dbbb
00000020: db6b 0fbc 48ac ecbb efb5 06bc de43 6cbb
00000030: 1c09 3c3c 4b16 1e3c 29e4 10bd 5ed8 02bc
00000040: b39d 5ebc 4c9e 05bc 1e4e 47bc e441 aabb
00000050: 6e2a 013d 0c68 0ebc 8731 09bc f4bb 3bbc
00000060: 4d93 813c 009d d7bb 9215 0dbc b006 96bb
00000070: 5964 afbb 6be7 b9bb 995a 6cbb ec11 723b

Const_2 f4 [32]
0.9767671 0.96784 1.0244954 1.0018382 0.98190856 0.94463897 0.9835189 0.994648
0.99816877 0.9862769 0.99851626 0.98730934 0.98702115 1.0019386 0.99284005 0.9958614
0.99022907 0.99896395 0.99702966 0.985096 1.0250503 1.0015751 0.9947209 0.98700696
1.0280809 0.9881039 0.9965037 0.9890959 0.9841252 0.92069197 0.9973238 0.99162334
00000000: 690d 7a3f 5dc4 773f aa22 833f 3c3c 803f
00000010: 5c5e 7b3f dcd3 713f e5c7 7b3f 40a1 7e3f
00000020: fd87 7f3f a57c 7c3f c39e 7f3f 4ec0 7c3f
00000030: 6bad 7c3f 863f 803f c42a 7e3f c6f0 7e3f
00000040: a77f 7d3f 1abc 7f3f 563d 7f3f 402f 7c3f
00000050: d934 833f 9d33 803f 07a6 7e3f 7dac 7c3f
00000060: 2898 833f 61f4 7c3f de1a 7f3f 6435 7d3f
00000070: a1ef 7b3f 78b2 6b3f 9d50 7f3f 07db 7d3f

Const_1 f4 [32]
-0.022364678 -0.0100925295 0.030098224 -0.025269054 -0.02120447 -0.018649364 0.013603784 0.00044843974
-0.013029603 -0.005457464 0.020713955 0.010247751 0.02384623 0.01804325 -0.019637408 0.0007648301
-0.009902771 -0.0031247656 0.019420095 -0.008649377 -0.020718895 0.019869491 0.0060742516 -0.0064317705
0.022209996 -0.0047828075 0.016656032 0.01826969 0.020209894 -0.00095360086 0.0004639528 -0.011556656
00000000: 2136 b7bc 235b 25bc 8d90 f63c 0c01 cfbc
00000010: ffb4 adbc 8dc6 98bc 68e2 5e3c 901c eb39
00000020: 1e7a 55bc 87d4 b2bb 50b0 a93c 2fe6 273c
00000030: 2b59 c33c 70cf 933c a1de a0bc e17e 483a
00000040: 3b3f 22bc dec8 4cbb e416 9f3c 1eb6 0dbc
00000050: acba a9bc 58c5 a23c 840a c73b 9ac1 d2bb
00000060: bdf1 b53c 19b9 9cbb 3b72 883c 51aa 953c
00000070: 388f a53c 12fb 79ba b13e f339 2158 3dbc
