en/ok_trevor/ok_trevor.onnx (onnx, 205651 bytes, 9 tensors)

const_fold_opt__23 f4 [32, 1]
0	0xbd5e9788	-0.05434373
1	0x3e60c2be	0.21949288
2	0xbd73acc0	-0.05949092
3	0x3d7f7b45	0.06237342
4	0xbeaa59a5	-0.33271518
5	0xbeaddb2f	-0.33956286
6	0x3defbee8	0.11706334
7	0xbeb1311b	-0.34607777
8	0xbc9f02ab	-0.019410452
9	0x3df5dc93	0.12004962
10	0xbc7ccb1b	-0.0154292835
11	0x3d81e2c6	0.06342082
12	0x3dbb0dca	0.091334894
13	0x3e6f24d5	0.23353894
14	0xba3bf308	-0.00071696984
15	0x3e7b57d5	0.24545224
16	0x3e2bec81	0.16789438
17	0xbea35fdc	-0.31909072
18	0xbd926ea7	-0.071500115
19	0xbe235ce8	-0.1595341
20	0xbeafd040	-0.3433857
21	0xbea55ab5	-0.32295766
22	0x3e306e42	0.1722956
23	0xbddac6f2	-0.10682477
24	0xbeb3a3ef	-0.3508601
25	0xbead1767	-0.33806917
26	0xbeac316b	-0.33631453
27	0xbe789904	-0.24277121
28	0xbeaf9044	-0.34289753
29	0x3cd73d58	0.026274368
30	0x3d822420	0.063545465
31	0x3de0516f	0.10953032

const_fold_opt__21 f4 [32, 32]
0	0x3bd99b06	0.0066407947
1	0x3e540403	0.20704655
2	0x3de7bb02	0.11314966
3	0x3a37cf97	0.00070118293
4	0xbd2d15ef	-0.042257246
5	0xbd9568c3	-0.07295372
6	0xba17b34d	-0.0005786911
7	0x3cad9666	0.02118988
8	0x3c2fd451	0.0107317725
9	0xbd333e7b	-0.043760758
10	0xbdb41b0f	-0.087942235
11	0xbc5de2cb	-0.013542841
12	0x3e4b83fa	0.19874564
13	0x3e332924	0.17496163
14	0xbde18647	-0.110119395
15	0x3e2c79d5	0.1684335
16	0xbd5286a1	-0.051397923
17	0x3d6892dc	0.05678068
18	0xbb3bec72	-0.0028674868
19	0x3db02f1f	0.08602738
20	0xbe1bfea8	-0.15233862
21	0x3d565054	0.0523227
22	0x3e350a22	0.17679647
23	0xbdc1705e	-0.094452605
24	0xbd0c714d	-0.03428774
25	0xbe3daddd	-0.18523355
26	0x3d31662f	0.04331034
27	0xbdd503ed	-0.104011394
28	0xbd48be36	-0.049009524
29	0xbd9d77ab	-0.076888405
30	0xbd407643	-0.046987783
31	0xbdea6775	-0.11445514
32	0xbe19cb98	-0.15019071
33	0x3c7ea214	0.015541572
34	0x3e328d03	0.17436604
35	0x3db41425	0.08792905
36	0xbd00b4fd	-0.031422604
37	0x3e337873	0.17526416
38	0x3e1cefc4	0.15325838
39	0xbdb3c86f	-0.08778464
40	0xbda02391	-0.07819284
41	0x3dabbc35	0.08385507
42	0x3dd606dc	0.10450527
43	0x3e2a425d	0.16626878
44	0x3db07b82	0.08617307
45	0xbd7de05f	-0.061981555
46	0x3df875ab	0.121318184
47	0xbe1be419	-0.15223731
48	0x3d891a7a	0.06694503
49	0x3d9a6bb3	0.07540073
50	0x3d895cfb	0.06707188
51	0xbd81b13f	-0.06332635
52	0xbc873dd0	-0.016508967
53	0x3dbede72	0.09319772
54	0xbdb15394	-0.086585194
55	0x3ce0783a	0.027401078
56	0xbdb578f9	-0.08860964
57	0x3da678b1	0.08128489
58	0x3df089cb	0.11745032
59	0xbdef8faf	-0.11697327
60	0xbd454265	-0.048159022
61	0xbe1f7351	-0.15571333
62	0x3e330e1f	0.17485856
63	0xbdf0a3d0	-0.11749995
64	0xbd199fd1	-0.03750593
65	0x3e0310a1	0.12799312
66	0xbdb78fb5	-0.08962957
67	0xbc05e2bf	-0.008171736
68	0x3bed8589	0.0072485846
69	0xbd9ce4ad	-0.07660804
70	0x3a3c92af	0.00071934884
71	0xbd509156	-0.050919853
72	0xbe27dc93	-0.16392736
73	0x3d6c1996	0.05764159
74	0x3e0f58c4	0.13998705
75	0x3c950c54	0.018194355
76	0x3c833a0d	0.016018892
77	0xbdde8fc2	-0.108672634
78	0x3dbf887a	0.09352203
79	0xbdc7450d	-0.09729967
80	0x3e31ee42	0.17376044
81	0x3e11a26f	0.1422212
82	0xb97647ac	-0.00023487088
83	0xbcab4d25	-0.020910809
84	0xbdfb40db	-0.122682296
85	0x3e167ea7	0.14696752
86	0x3deb1741	0.11479045
87	0xbdeddb8b	-0.1161414
88	0x3d6fc388	0.058536083
89	0xbdbc3790	-0.09190285
90	0xbdb53c00	-0.08849335
91	0xbdef7f7e	-0.11694239
92	0x3da25461	0.0792625
93	0x3df8158e	0.12113486
94	0x3e34c80b	0.17654435
95	0x3bd0ea6d	0.006375602
96	0x3ddfa5ab	0.109202705
97	0xbe34c46e	-0.17653057
98	0x3d1325d5	0.03592475
99	0x3dcb3cab	0.09923681
100	0xbca0a267	-0.01960869
101	0x3d604d56	0.054761253
102	0xbd4aca16	-0.04950913
103	0xbdf09574	-0.11747256
104	0x3d687b4b	0.056758206
105	0x3c2a45cd	0.010392618
106	0xbd21090f	-0.03931528
107	0x3e03ba8c	0.1286413
108	0xbd0a0e05	-0.033704776
109	0xbc680cb0	-0.014163181
110	0xbd2fcf47	-0.042922284
111	0x3e1152ad	0.14191695
112	0x3d03dff1	0.03219599
113	0xbdeb112f	-0.11477887
114	0xbdd11833	-0.10209694
115	0x3d36c788	0.04462388
116	0x3e216702	0.1576195
117	0x3e2bd23f	0.16779421
118	0xbba19b0c	-0.004931813
119	0x3e226c81	0.15861703
120	0xbd800496	-0.06250875
121	0xbda84cdf	-0.08217787
122	0x3df2331a	0.11826153
123	0xbc18f636	-0.009336045
124	0xbd679c39	-0.05654547
125	0x3d81cd4b	0.06337985
126	0xbe137828	-0.14401305
127	0x3dc8500d	0.097808935
128	0x3e260eb8	0.16216552
129	0xbdb3b61d	-0.0877497
130	0xbd491bf8	-0.04909894
131	0x3e2861a4	0.16443497
132	0xbddf1f31	-0.10894621
133	0x3e0181f3	0.12647228
134	0x3d149ec6	0.03628423
135	0xbdae10e7	-0.084993176
136	0x3e026c13	0.1273654
137	0x3c9a84f0	0.018862218
138	0x3df953b9	0.12174172
139	0x3cbc2b87	0.022969974
140	0xbe23e090	-0.16003633
141	0x3dd40501	0.10352517
142	0x3dbbeaa7	0.09175616
143	0x3d941346	0.072302386
144	0x3e17cc49	0.14824022
145	0xbe36a5ad	-0.17836638
146	0xbd64bdf2	-0.05584521
147	0xbdc39817	-0.09550493
148	0x3e14bb68	0.14524615
149	0xbce938dc	-0.028469495
150	0x3db4f03d	0.08834884
151	0xbe047600	-0.12935638
152	0xbe11579a	-0.14193574
153	0xbd2d890e	-0.042367034
154	0xbd6a12a9	-0.057146702
155	0x3e2b0efd	0.16704936
156	0x3d4f67f7	0.050636258
157	0xbd8c8cc6	-0.06862788
158	0xbcdc4738	-0.026889428
159	0x3d87bd7c	0.06627938
160	0x3b89c2e6	0.004204142
161	0xbe28c83f	-0.16482638
162	0x3b5202b0	0.003204506
163	0xbdbddff9	-0.09271235
164	0xbd401b8d	-0.046901274
165	0xbde3f064	-0.11129835
166	0x385989c9	5.1865154e-05
167	0x3e088ddd	0.13335367
168	0x3939e227	0.00017727223
169	0xbd86b871	-0.06578148
170	0x3dc55e99	0.09637184
171	0xbbe74077	-0.0070572454
172	0xbe28738a	-0.16450325
173	0x3d79b2e4	0.06096162
174	0x3cffc7c5	0.031223187
175	0x3e074dd3	0.13213281
176	0xbdfe8b75	-0.12428943
177	0x3dbebb56	0.09313075
178	0x3dc94812	0.098281994
179	0x3d4a87a5	0.049445767
180	0xbe2647d0	-0.16238332
181	0x3d010e2e	0.031507663
182	0x3d94237c	0.072333306
183	0x3d2915ae	0.04128044
184	0x3d6cc3c5	0.057803888
185	0x3e2b4505	0.16725548
186	0x3d40df89	0.04708818
187	0x3e0b7ef1	0.13622643
188	0x3e3b5521	0.18294193
189	0xbd6460cd	-0.05575638
190	0xbe2092ec	-0.15681046
191	0x3d5125d6	0.051061474
192	0xbde9cff3	-0.11416616
193	0x3dcd417a	0.10022254
194	0xbd1d779c	-0.038444147
195	0x3cffef8c	0.031242155
196	0x3db696a7	0.089154534
197	0x3c95277e	0.018207308
198	0x3df86572	0.12128724
199	0xbe11e418	-0.14247167
200	0x3dd29110	0.10281575
201	0xbde85fef	-0.11346423
202	0x3d89cf6a	0.06729014
203	0x3e093805	0.13400276
204	0xbd90aef3	-0.07064619
205	0xbd7c2dda	-0.061567165
206	0x3db3aabe	0.08772801
207	0x3e1e434b	0.15455358
208	0xbdcd487e	-0.100235924
209	0xbd08032f	-0.03320616
210	0xbd3958b5	-0.045250613
211	0x3b8da640	0.004322797
212	0x3d31d368	0.043414503
213	0xbe35fc13	-0.1777194
214	0x3e21f364	0.15815502
215	0x3cdae6c5	0.026721368
216	0x3b6a21ee	0.003572579
217	0xbd74499d	-0.059640516
218	0xbe041545	-0.12898739
219	0x3d1b5026	0.037918232
220	0xbdb0c550	-0.086313844
221	0x3db8d3d7	0.0902478
222	0xbd811ba7	-0.063041024
223	0x3d4165ad	0.047216106
224	0xbe0304e3	-0.12794833
225	0x3e091ab4	0.13389093
226	0x3e0013e9	0.12507595
227	0x3da713ad	0.0815805
228	0xbc827a8a	-0.015927572
229	0xbd8e6ec1	-0.069547184
230	0xbd7adf55	-0.061248142
231	0x3d82897d	0.0637388
232	0xbdaa3105	-0.08310131
233	0xbdfcfea9	-0.1235326
234	0x3d205e48	0.039152414
235	0x3dfe6e2f	0.124233596
236	0x3d3b64e8	0.04575053
237	0xba6bb5fe	-0.00089916575
238	0xbd1914ff	-0.03737354
239	0x3d2ab358	0.04167494
240	0x3dfdbe57	0.1238982
241	0x3dcb5e54	0.09930101
242	0x3d58c8dd	0.052925933
243	0xbdf60ab1	-0.12013758
244	0x3d03c179	0.03216693
245	0xbe3286fa	-0.17434302
246	0xbd949921	-0.072557695
247	0xbd949d61	-0.0725658
248	0x3d84898d	0.06471548
249	0xbd497450	-0.04918319
250	0xbd27852b	-0.040898483
251	0x3dd17029	0.10226471
252	0xbd8e46ee	-0.069471225
253	0xbb57fd0e	-0.0032957229
254	0xbd1ae09e	-0.037811868
255	0xbd5771db	-0.052598815

const_fold_opt__20 f4 [1536, 32]
0	0xbb2683b3	-0.0025408089
1	0x3d174a40	0.036936045
2	0x3d04bfa0	0.03240931
3	0x3cc16ad4	0.02361051
4	0x3c916999	0.017750548
5	0xbc1704db	-0.009217466
6	0x3cd9f8b7	0.026607854
7	0x3c00a481	0.007851721
8	0xbc8521a5	-0.016251395
9	0xba198247	-0.00058558997
10	0xbba44b13	-0.0050138324
11	0x3c009509	0.007848033
12	0xbc0af293	-0.008480686
13	0xbbf57592	-0.007490822
14	0xbb21899f	-0.002464868
15	0x3d062401	0.03274918
16	0xbd0506d4	-0.032477215
17	0x3c4c769a	0.012479449
18	0x3cd882c5	0.026429543
19	0xbc3a2c25	-0.011363064
20	0xbc1394b2	-0.00900762
21	0x3b8ac226	0.00423457
22	0x3c490c15	0.012270947
23	0xbb3134bb	-0.0027039486
24	0xba1ecc19	-0.00060576346
25	0xbd00ee22	-0.0314771
26	0xbbe93ccf	-0.0071178447
27	0xbc08c563	-0.008347842
28	0xb9dc65e6	-0.0004203759
29	0xbac50eac	-0.001503428
30	0x3bbeb9d6	0.005820493
31	0xbca28a31	-0.019841285
32	0xbc7badcb	-0.01536126
33	0x3b8d9a82	0.0043213973
34	0xbc971f4c	-0.01844754
35	0xbcd8bc34	-0.02645693
36	0xbc5100ff	-0.012756585
37	0x3c4a4fda	0.01234814
38	0xbc64a801	-0.013956071
39	0xbc650f35	-0.013980676
40	0xbba552de	-0.005045279
41	0xbc420973	-0.011843073
42	0xbc7e2d65	-0.015513753
43	0x3c4aaf2a	0.012370864
44	0x3cb827e8	0.022479966
45	0x3b348e5f	0.002755068
46	0x3ce8e77b	0.028430691
47	0x39be934d	0.00036349372
48	0xbc3689aa	-0.01114122
49	0x3a3cf330	0.00072078686
50	0xbc8d5787	-0.01725365
51	0x3a32c85a	0.0006820016
52	0xbc1ca83e	-0.009561596
53	0x3bee2e94	0.007268736
54	0xbc80fb87	-0.015744938
55	0xbb6725b2	-0.003527027
56	0x3cbbc425	0.022920677
57	0x3c980177	0.018555386
58	0xbb8692f2	-0.0041068727
59	0x3c32a298	0.010903023
60	0xbc1cb4c5	-0.009564583
61	0xbc64740a	-0.0139436815
62	0xbcb52d40	-0.022116303
63	0x3c3faba5	0.011698638
64	0xbcdd8a54	-0.027043499
65	0xbcd36e22	-0.025809351
66	0x3bdfbecd	0.006828165
67	0xbc23e535	-0.010003378
68	0xbc823468	-0.01589413
69	0xbc49aed5	-0.01230975
70	0xbcd59d3c	-0.026075952
71	0x3cd42f1c	0.02590137
72	0x3c4419db	0.011969055
73	0xbb57b980	-0.0032916963
74	0x3c3187bf	0.010835587
75	0x3c7f8238	0.015595011
76	0x3bf3c620	0.00743939
77	0x3c9687e6	0.018375348
78	0xbc7db969	-0.0154861
79	0xbbdf9fbb	-0.0068244613
80	0x3c030a38	0.007998042
81	0xbd2c1055	-0.042007763
82	0xbc62acd7	-0.013835154
83	0x3c2048ec	0.009783011
84	0x3b22d5a4	0.0024846578
85	0x3cca8301	0.02472067
86	0x3c60cb82	0.013720395
87	0x3cc9c5f8	0.024630532
88	0x3bca1bbe	0.006167858
89	0xba2073b3	-0.0006120756
90	0x3b2dcffa	0.0026521669
91	0xbc91661b	-0.017748883
92	0x3c3cd718	0.011525892
93	0xbce2134a	-0.027597088
94	0x3c4ef55f	0.012631743
95	0xbbf7cc84	-0.007562222
96	0xbcf53868	-0.029934123
97	0xbbb02b15	-0.0053762295
98	0xbd2b22d6	-0.04178127
99	0xbbe4518c	-0.006967729
100	0x3b2cf043	0.0026388324
101	0x3c648d2d	0.013949675
102	0xbb8f33ce	-0.0043701893
103	0xbc958f85	-0.018256912
104	0xbc7e144c	-0.015507769
105	0xbcc46eea	-0.02397867
106	0xbd047b6d	-0.03234427
107	0xbd23c41d	-0.03998195
108	0x3c7f1f11	0.015571372
109	0x3bbf7e52	0.005843916
110	0x3bf65706	0.007517698
111	0xbc28604a	-0.010276863
112	0x3cc67011	0.02422336
113	0xbbccaec9	-0.006246422
114	0x3cbe3e52	0.023223076
115	0x3d0dbd0d	0.03460412
116	0xbc89bcd7	-0.016813679
117	0xbd0eaf02	-0.03483487
118	0x3ae75976	0.0017650563
119	0x3ce8b70e	0.0284076
120	0x3c04251f	0.008065491
121	0x3d08db2b	0.03341214
122	0x3c74f5cc	0.014951181
123	0xbc65efb6	-0.014034202
124	0xbc1ee52c	-0.0096981935
125	0x3bd8d048	0.006616626
126	0x3cd1c4f8	0.025606617
127	0x3cf3353f	0.029688476
128	0x3ceb8afa	0.028752793
129	0x3ca12ae1	0.019673767
130	0x3cb39b5e	0.02192467
131	0x3c93bcb5	0.018034318
132	0x3cfd2ee2	0.030906145
133	0x3ca601b4	0.020264484
134	0xbbe118e4	-0.0068694223
135	0x386b4979	5.6096793e-05
136	0x3c1121d7	0.008858166
137	0x3cb7c4a9	0.022432642
138	0x3cea339f	0.028589068
139	0x3ce71ee7	0.028212978
140	0xbba44c53	-0.0050139814
141	0x3c5e61b9	0.013573104
142	0x3aa42579	0.0012523375
143	0x3c01533f	0.007893383
144	0xbc8ff030	-0.017570585
145	0x3ce28a2c	0.027653776
146	0x3bbb215e	0.005710765
147	0xbc4d4b48	-0.0125301555
148	0x3c1f0f2d	0.009708208
149	0x3b47c704	0.0030483613
150	0x3be94a04	0.007119419
151	0x3c207b37	0.009795002
152	0xbca5c005	-0.020233164
153	0xbccd37db	-0.025051048
154	0x3c91b1a2	0.017784897
155	0x3cb84d2c	0.022497736
156	0x3ccf7a7c	0.02532696
157	0xbc11ae09	-0.008891591
158	0xbba93a8c	-0.00516445
159	0xbc6cbdec	-0.014449578
160	0x3a6d41c1	0.00090506306
161	0x3c9c5975	0.019085625
162	0x3cb7c9ba	0.022435058
163	0xbca80826	-0.020511698
164	0xbaabb9a3	-0.0013101589
165	0xbc90bdb6	-0.017668586
166	0x3ce4e4d6	0.027941149
167	0xbbc2c026	-0.005943316
168	0xbc6ec847	-0.014574117
169	0xbcac7f19	-0.021056699
170	0xbbcefc79	-0.006316718
171	0xbc285761	-0.010274739
172	0x3c0a8db0	0.0084566325
173	0xbcb45e89	-0.022017734
174	0xbca64f21	-0.020301403
175	0x3c79f492	0.015256064
176	0x3b08e368	0.0020887498
177	0x3cd8b529	0.026453571
178	0x3ba8a6e3	0.0051468476
179	0x3ce6cf9a	0.028175164
180	0xbabf1008	-0.0014576921
181	0x3cb8e53c	0.022570245
182	0xbbd8c080	-0.0066147447
183	0x3b499e84	0.0030764649
184	0x3c2c3bc9	0.010512301
185	0x3befb221	0.007314936
186	0x3ca6c1f3	0.020356154
187	0x3ce80982	0.028324846
188	0xbcb57a60	-0.02215308
189	0x3c59d91b	0.013296391
190	0x3cb84dca	0.02249803
191	0xbb68ff54	-0.0035552578
192	0x3c31b364	0.010845993
193	0x3be99957	0.0071288752
194	0x3bebf31d	0.007200612
195	0x3c9e2063	0.019302553
196	0xbc746068	-0.014915563
197	0x3c969b02	0.01838446
198	0x3a7e73ac	0.00097065675
199	0xba888ea1	-0.0010418483
200	0xbcf24af2	-0.029576752
201	0x3b15c088	0.0022850353
202	0x3c496ae0	0.012293547
203	0x3c970691	0.018435748
204	0x3cfb9b05	0.030713568
205	0x3c91e538	0.017809495
206	0x3c8fb0de	0.017540392
207	0xbcc371a3	-0.023857897
208	0xbae59a4c	-0.0017517298
209	0xbc84d73e	-0.016215917
210	0x3c8f4b27	0.01749189
211	0x3cad5908	0.021160617
212	0xba19ddbc	-0.0005869528
213	0xbc4d7598	-0.012540244
214	0x3ac77856	0.0015218358
215	0xbc0b058d	-0.00848521
216	0xbcaca64e	-0.021075394
217	0x3d1e39c8	0.038629323
218	0x3cce6984	0.025196798
219	0xbba00f72	-0.0048846537
220	0xba9979c3	-0.0011709261
221	0xbc876c0d	-0.016531015
222	0xbb9811b7	-0.0046407836
223	0x3cd8d676	0.02646945
224	0xbb0026ed	-0.0019554452
225	0xbb101cc0	-0.0021989793
226	0xbbaec6b7	-0.0053337472
227	0xbc9ef014	-0.019401588
228	0x3c2fe454	0.01073559
229	0xbc042b2a	-0.008066932
230	0x3c267853	0.0101605235
231	0xbca29995	-0.019848624
232	0xbc03138c	-0.008000266
233	0xbcbf0b35	-0.023320774
234	0x3c8131f6	0.015770894
235	0x38feb391	0.00012145111
236	0xbca9b169	-0.020714479
237	0xbcbae70a	-0.022815246
238	0xbc15e550	-0.009148911
239	0x3c13eb7c	0.009028312
240	0x3b093eca	0.0020941966
241	0xbc9562e3	-0.01823563
242	0x3cb41ba1	0.02198583
243	0xbc746bf8	-0.01491832
244	0xbcb2498d	-0.021763587
245	0xbc1c7cfa	-0.009551281
246	0xbc3c844c	-0.011506151
247	0xbc80bccc	-0.015715025
248	0xbc5247e4	-0.012834523
249	0xbcac9c99	-0.021070765
250	0xbc8c46de	-0.017123636
251	0xbce757fd	-0.028240198
252	0xbacf6964	-0.0015824256
253	0x3b1cf4b7	0.0023949572
254	0xbcda67b5	-0.02666078
255	0xbc97717e	-0.018486734

Const_7 f4 [32]
0	0x3cbeaf5f	0.023276983
1	0x3d139c7e	0.036037914
2	0xbc204665	-0.009782408
3	0x3c8fd53a	0.017557729
4	0x3e8231fe	0.25428766
5	0x3e8326c9	0.25615528
6	0x3ccbb1f3	0.024865126
7	0x3e799917	0.24374805
8	0x3bbeca3d	0.0058224485
9	0x3d49d55b	0.049275737
10	0x3d02c3af	0.0319249
11	0x3cebbbfa	0.028776158
12	0x3cd4ed30	0.025992006
13	0x3cef6524	0.029223032
14	0xbc8ccebc	-0.017188422
15	0x3d43eddc	0.047834262
16	0x3d488338	0.048953265
17	0x3e82e6ad	0.25566617
18	0xbd1ac0b7	-0.037781443
19	0xbd191dc7	-0.037381914
20	0x3e6f2796	0.23354945
21	0x3e7ace41	0.24492742
22	0x3c80689a	0.015674878
23	0xbc135462	-0.008992286
24	0x3e97d818	0.29657054
25	0x3e91a943	0.2844945
26	0x3e704a24	0.23465782
27	0x3e1dc0e1	0.15405609
28	0x3e6eaad1	0.23307349
29	0x3bdc6894	0.006726334
30	0x3d62d5cb	0.05537967
31	0x3bc3c106	0.005973938

Const_6 f4 [32]
0	0x3f817cc7	1.0116204
1	0x3f88f294	1.0699029
2	0x3f7f620b	0.99758977
3	0x3f81547c	1.0103908
4	0x3fa22e92	1.2670462
5	0x3fa39974	1.2781205
6	0x3f833c03	1.0252689
7	0x3f9f6192	1.2451651
8	0x3f80e97e	1.0071256
9	0x3f8a8cbb	1.0824198
10	0x3f81c432	1.0137999
11	0x3f83da9f	1.0301093
12	0x3f864401	1.0489503
13	0x3f88700c	1.0659194
14	0x3f7ed0c3	0.99537295
15	0x3f8f3f10	1.119112
16	0x3f8831d2	1.0640204
17	0x3fa29f74	1.2704911
18	0x3f727ab3	0.94718474
19	0x3f7b67ce	0.9820527
20	0x3f9bf10c	1.2182937
21	0x3f9f027c	1.2422633
22	0x3f82ffc7	1.0234307
23	0x3f7f076c	0.996207
24	0x3fafeab7	1.3743504
25	0x3fac27b9	1.3449622
26	0x3f9b9879	1.2155906
27	0x3f86ada2	1.0521739
28	0x3f9c4bb7	1.2210606
29	0x3f801517	1.0006436
30	0x3f8730c9	1.0561763
31	0x3f800d28	1.0004015

Const_5 f4 [32]
0	0x3c1a606d	0.009422404
1	0xbdfcf8f8	-0.123521745
2	0x3b445fc0	0.0029964298
3	0x3df731f2	0.12070073
4	0x3d4521ae	0.048127823
5	0xbdc419e5	-0.095752515
6	0x3dfa5920	0.122240305
7	0xbd833fb4	-0.06408635
8	0x3d546e76	0.051863156
9	0x3d732f3a	0.05937121
10	0xbcbe731a	-0.023248244
11	0x3e20f7e0	0.15719557
12	0xbcf0d9bf	-0.029400704
13	0x3d270008	0.040771514
14	0x3d920fc0	0.0713191
15	0xbe0de757	-0.1385778
16	0x3d110611	0.035406176
17	0xbcb200df	-0.021728931
18	0xbe0278be	-0.12741372
19	0xbdbc8d14	-0.09206596
20	0xbce8c35e	-0.02841347
21	0xbe314a04	-0.17313391
22	0x3c810845	0.015751014
23	0x3de02e0e	0.10946284
24	0xbdd07b6d	-0.101797916
25	0x3e0cb53a	0.13741007
26	0x3d795e4b	0.06088094
27	0x3d3ab064	0.045578375
28	0x3e043779	0.12911786
29	0x3c7ea9be	0.015543399
30	0x3dd6fb9b	0.10497209
31	0x3cb02148	0.021500245

Const_3 f4 [32]
0	0x3c4a68e2	0.012354108
1	0xbca0040f	-0.019533185
2	0xbc2fb64b	-0.010724614
3	0xbb95098c	-0.004548257
4	0x3aec80c7	0.001804375
5	0x3c7d3fee	0.015457137
6	0x3ca01664	0.019541927
7	0xbb9c19a7	-0.0047638
8	0xbb9f0e9a	-0.0048540356
9	0xbc3a6172	-0.011375772
10	0xbb47538e	-0.0030414793
11	0xbbc52a0a	-0.0060169743
12	0xba23ea79	-0.00062528957
13	0xbc042454	-0.008065302
14	0x3b83fae9	0.0040277136
15	0xbbab0b00	-0.005219817
16	0x3bc3b9fc	0.005973099
17	0x3c5b2450	0.013375357
18	0x3d848636	0.06470911
19	0x3cc929df	0.024556099
20	0x3ab72eb6	0.0013975713
21	0xba485712	-0.0007642369
22	0xbae4f71c	-0.0017468664
23	0x3cf12c64	0.029440112
24	0xbb843044	-0.004034074
25	0x3cc7955b	0.02436321
26	0x3c4c33b2	0.012463497
27	0xbc06b501	-0.008221866
28	0x3c1b7fd2	0.009490924
29	0xba844db4	-0.0010093958
30	0x3ce4c87d	0.027927632
31	0x3c0c5540	0.008565247

Const_2 f4 [32]
0	0x3f828828	1.0197802
1	0x3f7cf9e7	0.9881882
2	0x3f7e1505	0.99250823
3	0x3f7fd3fa	0.99932826
4	0x3f7e15d8	0.9925208
5	0x3f7c42f8	0.98539686
6	0x3f832c82	1.0247958
7	0x3f7eb85d	0.99500066
8	0x3f7ee78a	0.9957205
9	0x3f7eb171	0.99489504
10	0x3f7f69de	0.99770916
11	0x3f7f9f8c	0.99852824
12	0x3f80fb5d	1.007671
13	0x3f7f5c9b	0.9975068
14	0x3f7a3229	0.9773279
15	0x3f7eaea8	0.99485254
16	0x3f83bf8b	1.0292829
17	0x3f7e4333	0.9932129
18	0x3f87f9fa	1.0623162
19	0x3f82c5b5	1.0216585
20	0x3f78391b	0.96962136
21	0x3f7ede79	0.99558216
22	0x3f7f9e8b	0.9985129
23	0x3f80529d	1.0025212
24	0x3f7d1df5	0.98873836
25	0x3f8b8efa	1.0903008
26	0x3f81d2da	1.0142472
27	0x3f79c613	0.9756786
28	0x3f809498	1.0045347
29	0x3f7f1f14	0.99656796
30	0x3f786fae	0.9704541
31	0x3f806089	1.002946

Const_1 f4 [32]
0	0xbcc98b58	-0.024602577
1	0xbcbfd2ff	-0.02341604
2	0x3c1c3e5a	0.00953635
3	0x3a045c04	0.0005049112
4	0xbcd9f679	-0.026606785
5	0x3cacfa1a	0.021115351
6	0xbc0b5963	-0.008505198
7	0xbcaf57cd	-0.021404171
8	0xbcc145ac	-0.023592792
9	0x3bdff61a	0.0068347575
10	0xbc93e82a	-0.01805504
11	0xbcbee6c1	-0.023303391
12	0x3cd82066	0.026382636
13	0xbc4ab64a	-0.012372563
14	0x3ce3fe04	0.027831085
15	0xbc6e476c	-0.0145433955
16	0x3bfb0d30	0.007661484
17	0x3bb2cbba	0.005456415
18	0xbcb4639f	-0.02202016
19	0x39801f1b	0.00024437238
20	0x3c8ca494	0.01716832
21	0x3ca713e8	0.020395234
22	0x3b3d295a	0.0028863759
23	0x3c94bf2c	0.018157564
24	0xbb111bab	-0.0022141736
25	0xbc67c479	-0.014145964
26	0xbc83a9d6	-0.016072195
27	0x3c39f923	0.011350903
28	0x3c718ebd	0.014743504
29	0x3cb34dce	0.021887686
30	0x3caf578b	0.021404048
31	0x3ccc821e	0.024964388
