en/home_assistant/Home_assistant.onnx (onnx, 205661 bytes, 9 tensors)

const_fold_opt__23 f4 [32, 1]
0.03884248 0.03394288 0.10364831 -0.008894443 0.14825457 0.071566746 -0.0007186229 0.17615843
-0.34389827 0.11297622 0.15595093 0.025058014 -0.35661408 -0.35141936 -0.33660504 0.025656756
0.10760371 0.09673866 -0.36728045 0.014907187 0.021191925 -0.35614064 0.004094945 0.1961737
-0.047002804 -0.02978688 -0.00995056 0.05892509 0.03032777 -0.13378885 -0.34309888 -0.35026905
00000000: 4b19 1f3d b007 0b3d 9145 d43d ffb9 11bc
00000010: 0cd0 173e 9691 923d f761 3cba e062 343e
00000020: 6f13 b0be 1460 e73d 9ab1 1f3e 7746 cd3c
00000030: 1f96 b6be 3ded b3be 7f57 acbe 1e2e d23c
00000040: 555f dc3d eb1e c63d 2f0c bcbe 463d 743c
00000050: b09a ad3c 1158 b6be e32e 863b c2e1 483e
00000060: 0386 40bd 9d03 f4bc ac07 23bc 6f5b 713d
00000070: f271 f83c f2ff 08be a8aa afbe 7756 b3be

const_fold_opt__21 f4 [32, 32]
0.1289349 -0.010142721 0.12214652 0.15420471 -0.02220836 0.16250306 0.09911862 -0.047653396
0.08262637 0.07814877 0.0022652952 -0.07952208 0.048122976 -0.124363735 -0.08116219 -0.015756194
0.16701773 -0.16746163 -0.17149207 0.0057526114 0.04731313 -0.14817232 -0.09284837 0.13962364
0.112418145 -0.0955618 0.03820844 -0.05249553 0.10600332 -0.037616286 -0.11181794 0.10396999
0.16270857 0.08369992 0.0325539 0.062040407 0.15771344 0.06001928 -0.03477052 -0.008710563
-0.10820815 -0.11400451 -0.16063185 -0.07273564 -0.010064549 -0.14290673 0.1630005 -0.15724789
-0.03049645 0.09274504 0.044645227 0.030185068 -0.14547497 -0.089425705 -0.05192345 -0.024212355
0.1739058 0.12227874 -0.046130594 -0.090417266 0.061990805 0.07943643 0.16251154 0.12773217
-0.059554815 0.085207805 -0.07742353 -0.14412351 -0.0032845917 0.17284462 -0.079079695 -0.15109996
-0.013032919 0.12516119 0.13323523 -0.027461084 -0.04234604 -0.17316824 -0.17697224 0.10114
-0.008573352 -0.032277875 -0.16654573 0.08379284 0.0030881688 0.025560983 -0.10530341 -0.029627556
-0.11040386 0.1405543 0.028965851 0.15610318 0.13159028 0.15442695 -0.03494754 -0.0393634
-0.11865858 0.010995578 0.02005026 -0.07402462 0.20590642 0.16587129 0.17213002 -0.088687524
-0.10554584 -0.13272394 0.09898045 0.1295901 -0.0037221517 -0.16539642 0.10757357 -0.09469563
-0.043395814 -0.05422544 -0.17431873 -0.10319702 0.18465726 -0.0775197 0.033510987 0.0045280363
-0.06406096 0.07903318 -0.065924756 0.09190836 0.11556129 0.022464093 -0.029806353 0.048554502
-0.089463025 -0.07027565 -0.017275453 0.038647253 0.12274658 0.13312817 -0.13853733 -0.124478154
0.038229555 0.14316463 0.08288821 0.01797441 -0.048217855 0.034405205 0.0018863436 -0.047541734
0.17295972 0.055557646 -0.10423421 -0.14490776 0.13216722 0.04616703 0.13468462 0.030796621
0.04003902 -0.13199462 0.098473765 -0.0262261 0.11262605 0.07207154 0.14075868 0.15435515
0.05374153 0.046359994 0.033550695 0.022053223 0.09626968 0.068796515 0.027958153 -0.033296537
-0.041171193 -0.012552666 0.11557455 0.13157241 -0.19477771 -0.05233419 0.06557277 0.16874765
-0.038491853 -0.040586498 0.042694353 -0.080733106 -0.07940622 0.11502691 0.04094158 -0.054783396
-0.079732455 0.12163339 0.14120837 0.10620446 0.061445814 -0.09521443 0.006551638 -0.1434408
-0.054131396 0.043078244 0.107187256 0.020821908 0.046579156 0.17023121 0.06620203 0.02931444
0.15655386 -0.010863243 -0.028836533 -0.0077455714 0.15472156 -0.14707564 0.13062935 0.17191128
0.13621901 -0.011727954 -0.039238364 -0.1709193 -0.081741534 0.15253912 0.13177092 -0.01788865
0.1629547 0.06308172 -3.7085705e-05 -0.15455334 0.07489809 0.04781078 -0.14956453 -0.15960406
-0.02749832 0.057011917 0.040409412 0.0109988 -0.08502367 -0.14677206 0.017331738 0.034578625
-0.0032067208 -0.048409678 0.19453774 0.09245948 -0.03623045 -0.124384835 0.06811476 0.018086104
0.10733471 0.050246935 0.14364816 0.1363071 0.019100443 0.034414273 -0.083063886 0.07548537
-0.08405579 0.04701188 0.12425076 0.048215147 -0.16901825 -0.033335224 -0.06587473 0.166232
00000000: 8307 043e a82d 26bc f427 fa3d d7e7 1d3e
00000010: 4eee b5bc 3467 263e b4fe ca3d 3530 43bd
00000020: 0438 a93d 760c a03d 5975 143b 79dc a2bd
00000030: 991c 453d 6ab2 febd 5d38 a6bd 2213 81bc
00000040: b206 2b3e 107b 2bbe 9e9b 2fbe 6780 bc3b
00000050: 6acb 413d 7cba 17be 4927 bebd 80f9 0e3e
00000060: 7c3b e63d e8b5 c3bd 7480 1c3d 8e05 57bd
00000070: 4518 d93d 8913 1abd ce00 e5bd 38ee d43d
00000080: 139d 263e dd6a ab3d 3d57 053d 151e 7e3d
00000090: a27f 213e c7d6 753d 886b 0ebd c0b6 0ebc
000000a0: 3c9c ddbd 327b e9bd ad7c 24be 6cf6 94bd
000000b0: c7e5 24bc 2456 12be 9ae9 263e 9705 21be
000000c0: b1d3 f9bc 1df1 bd3d eadd 363d ad46 f73c
000000d0: 64f7 14be d324 b7bd afad 54bd fd58 c6bc
000000e0: 5d14 323e 476d fa3d 6ff3 3cbd b02c b9bd
000000f0: 12ea 7d3d 91af a23d 6d69 263e 39cc 023e
00000100: c0ef 73bd 6e81 ae3d 3a90 9ebd 1d95 13be
00000110: 4e42 57bb 2efe 303e 89f4 a1bd f3b9 1abe
00000120: 0688 55bc 412a 003e d16e 083e 11f6 e0bc
00000130: 0b73 2dbd 0453 31be 3638 35be 7d22 cf3d
00000140: 3f77 0cbc ce35 04bd f78a 2abe 959b ab3d
00000150: e062 4a3b 4465 d13c 50a9 d7bd 7db5 f2bc
00000160: 6b1b e2bd 77ed 0f3e cb49 ed3c 83d9 1f3e
00000170: 9abf 063e 1922 1e3e 2725 0fbd 843b 21bd
00000180: 4503 f3bd cc26 343c 7140 a43c 389a 97bd
00000190: 22d9 523e 2ada 293e da42 303e cea1 b5bd
000001a0: 6b28 d8bd c9e8 07be 43b6 ca3d 44b3 043e
000001b0: 58ef 73bb ae5d 29be 884f dc3d c8ef c1bd
000001c0: cfbf 31bd 7f1b 5ebd 9c80 32be f658 d3bd
000001d0: cb16 3d3e a6c2 9ebd d142 093d ec5f 943b
000001e0: 6532 83bd 26dc a13d 8f03 87bd 733a bc3d
000001f0: 66ab ec3d 9e06 b83c 742c f4bc 16e1 463d
00000200: 6438 b7bd aeec 8fbd 4085 8dbc 954c 1e3d
00000210: 8f62 fb3d c052 083e bbdc 0dbe 67ee febd
00000220: 9896 1c3d c099 123e 4bc1 a93d 123f 933c
00000230: 1680 45bd 79ec 0c3d 303f f73a 1fbb 42bd
00000240: 5a1c 313e 6a90 633d bf78 d5bd b362 14be
00000250: d856 073e a419 3d3d c4ea 093e 3249 fc3c
00000260: f5ff 233d 9929 07be 9dac c93d 1ed8 d6bc
00000270: 7da8 e63d 3e9a 933d 0b23 103e 470f 1e3e
00000280: 1420 5c3d fae3 3d3d 746c 093d f6a8 b43c
00000290: 0a29 c53d 30e5 8c3d 7f08 e53c f361 08bd
000002a0: 20a3 28bd b2a9 4dbc 5ab2 ec3d ebba 063e
000002b0: cf73 47be 605c 56bd 044b 863d 2fcc 2c3e
000002c0: a2a9 1dbd 073e 26bd 46e0 2e3d 6657 a5bd
000002d0: ba9f a2bd 3b93 eb3d 5cb2 273d 8e64 60bd
000002e0: c54a a3bd ed1a f93d ed98 103e b981 d93d
000002f0: 9bae 7b3d c8ff c2bd 1faf d63b 25e2 12be
00000300: e2b8 5dbd d072 303d fe84 db3d b592 aa3c
00000310: c9c9 3e3d 1751 2e3e ee94 873d d624 f03c
00000320: a84f 203e befb 31bc 983a ecbc 90ce fdbb
00000330: 546f 1e3e ff9a 16be b3c3 053e 8309 303e
00000340: ff7c 0b3e 9b26 40bc 68b8 20bd 7805 2fbe
00000350: 1b68 a7bd 3733 1c3e f5ee 063e 388b 92bc
00000360: 99dd 263e fd30 813d 798c 1bb8 3b43 1ebe
00000370: 2b64 993d 3dd5 433d 7227 19be 3f6f 23be
00000380: 2844 e1bc 5485 693d 5784 253d 5034 343c
00000390: e420 aebd 6a4b 16be 4afb 8d3c 51a2 0d3d
000003a0: d927 52bb 3a49 46bd e734 473e 655b bd3d
000003b0: 6166 14bd 7abd febd c07f 8b3d 4f29 943c
000003c0: 4dd2 db3d bbcf 4d3d 8118 133e 1794 0b3e
000003d0: 8878 9c3c fbf5 0c3d 661d aabd 1398 9a3d
000003e0: 7125 acbd 878f 403d 2f77 fe3d 3f7d 453d
000003f0: 1f13 2dbe 848a 08bd 55e9 86bd b938 2a3e

const_fold_opt__20 f4 [1536, 32]
0.004494604 0.013898024 0.00266824 0.027682 0.016194835 0.02770456 0.017502757 -0.016393745
-0.010879547 0.013312832 0.009753567 -0.002911359 -0.011720145 -0.0011904215 0.01810457 0.019479973
0.012986081 -0.009583752 -0.011500616 -0.008657199 0.0011252597 0.013622057 0.016377931 -0.0139377415
-0.007531666 -0.008844632 0.008321432 -0.011634261 -0.0019541548 0.014086984 -0.009346551 -0.020816905
-0.004783854 -0.003382792 0.0055852616 0.0069767656 0.0048928903 -0.0032903806 -0.006074564 0.020629374
0.0063479575 -0.00022527241 -0.015876543 0.019400991 0.022458173 -0.014353013 0.024986442 -0.006871011
-0.019140132 -0.0005968133 0.011341297 -0.007132607 -0.0075558773 0.0006413141 -0.020684348 -0.01247081
-0.011118065 0.008104254 -0.025554359 0.010405096 0.022362173 -0.00935484 0.0030215096 -0.017814724
0.013673356 -6.1411316e-05 -0.019201864 -0.04466602 -0.012920387 -0.01605568 -0.0077582807 0.00828877
0.020501455 0.012667828 0.0027718192 0.0030887097 -0.029391985 0.0025188422 -0.0235121 -0.034245335
-0.007051501 0.027304338 0.015837936 -0.026950888 -0.021343073 0.049108755 -0.0013454463 0.032915805
0.005768978 0.007631634 -0.000273816 -0.00916642 -0.019019308 0.039687615 -0.03365378 -0.042755913
-0.01362594 -0.024451455 0.011986003 -0.02219877 -0.018323006 -0.0052339514 -0.023350557 0.009559432
-0.015973961 -0.027262498 0.00086321373 0.010886915 0.01399697 0.0023998155 -0.009117136 0.022720132
0.015810689 -0.0030416131 0.005918107 0.004965715 -0.024748301 0.012400966 0.0035191649 -0.020102106
-0.002692451 0.0006443412 -0.016290138 0.010536136 0.024588179 0.007602783 0.008433452 -0.0027514026
0.0093564335 0.010875605 -0.0066660997 0.020309094 -0.0034576498 -0.015749862 0.019884741 -0.0073196692
-0.0153025435 -0.0019761717 0.005768552 0.0051226243 -0.008859741 0.014740531 -0.003791437 -0.011867596
0.018989101 -0.0052076695 0.0053192065 -0.017120494 -0.005735613 -0.0071392143 -0.012311811 0.00077860354
-0.0042285523 0.008596553 0.00065074314 0.020098547 0.019355843 0.0015091322 -0.00572212 0.0013626772
0.007144048 -0.008353848 -0.012131508 0.0008440629 -0.001420361 -0.012433935 -0.010764853 -0.0011975741
0.023637885 -0.02278895 0.007373457 0.023542881 0.013793691 0.018102836 -0.011055422 0.017519785
-0.0059551666 0.017156256 -0.016948916 0.016560566 -0.009888436 0.0015568072 0.009372489 -0.012135076
0.013607343 0.025637072 0.017781531 -0.016567543 -0.0036147824 0.00739122 -0.0019281292 -0.019367358
-0.023123847 0.010380591 -0.029309934 0.0003665303 -0.010579215 -0.005491057 -0.020107098 -0.009586692
0.01840884 -0.012316224 0.009155792 0.017490983 0.005990878 0.0064377645 0.009402671 0.013820206
0.00511465 -0.0036374123 0.0005137894 -0.013726828 -0.021395216 -0.013718958 0.008419015 0.0046276255
0.0009916965 0.00027980199 -0.0017092763 0.018611692 0.008246649 0.019365763 0.012216689 0.016628051
-0.004871569 0.005692864 0.005969712 0.0041820924 0.026991552 0.022122761 -0.0030160467 -0.0034137792
0.0063268393 0.0010256935 0.0071474295 -0.009614698 0.0046763164 0.0033081938 -0.020283584 -0.005344825
-0.015066806 -0.021955539 0.016666863 0.02781627 -0.0076814755 -0.0068934415 0.00092213915 0.0053436095
-0.023110494 -0.025349325 -0.0012762534 0.0078121456 -0.025121558 -0.00921475 0.006913194 0.018958123
00000000: 7947 933b 8ab4 633c a4dd 2e3b 5dc5 e23c
00000010: 08ab 843c acf4 e23c f161 8f3c 2d4c 86bc
00000020: 2140 32bc 111e 5a3c 6dcd 1f3c 80cc 3ebb
00000030: da05 40bc eb07 9cba 0950 943c 7794 9f3c
00000040: 92c3 543c 2b05 1dbc 146d 3cbc edd6 0dbc
00000050: 737d 933a 0c2f 5f3c 032b 863c 205b 64bc
00000060: 32cc f6bb 13e9 10bc 9e56 083c a19d 3ebc
00000070: 4711 00bb 18cd 663c 4722 19bc 3788 aabc
00000080: e0c1 9cbb d5b1 5dbb 9204 b73b 5a9d e43b
00000090: 8a54 a03b 6da3 57bb 230d c7bb effe a83c
000000a0: 8702 d03b 1a37 6cb9 860f 82bc d4ee 9e3c
000000b0: 34fa b73c e628 6bbc 5eb0 cc3c 3826 e1bb
000000c0: c4cb 9cbc 7673 1cba d9d0 393c a5b8 e9bb
000000d0: 4b97 f7bb dc1d 283a 3972 a9bc 5e52 4cbc
000000e0: 8b28 36bc b4c7 043c 6057 d1bc 237a 2a3c
000000f0: e030 b73c 0b45 19bc 8504 463b 2ff0 91bc
00000100: 3606 603c f3c9 80b8 3a4d 9dbc b7f3 36bd
00000110: 08b0 53bc 3487 83bc 2d39 febb 9fcd 073c
00000120: abf2 a73c b98c 4f3c 69a7 353b f36b 4a3b
00000130: 76c7 f0bc 2913 253b 739c c0bc d644 0cbd
00000140: 4710 e7bb 59ad df3c 8fbe 813c 1cc8 dcbc
00000150: abd7 aebc 4326 493d b059 b0ba b9d2 063d
00000160: b209 bd3b c912 fa3b f68e 8fb9 c12e 16bc
00000170: 61ce 9bbc 7b8f 223d 8cd8 09bd d320 2fbd
00000180: 563f 5fbc 6b4e c8bc f160 443c 32da b5bc
00000190: 211a 96bc 9181 abbb ab49 bfbc 2a9f 1c3c
000001a0: d3db 82bc 9a55 dfbc 4b49 623a 085f 323c
000001b0: 8c53 653c 3946 1d3b 0a60 15bc 921f ba3c
000001c0: 6b85 813c cd55 47bb aeec c13b 70b7 a23b
000001d0: f3bc cabc 6c2d 4b3c caa1 663b 2cad a4bc
000001e0: d573 30bb 02e9 283a e572 85bc c29f 2c3c
000001f0: 266d c93c c420 f93b 762c 0a3c e050 34bb
00000200: ba4b 193c 982f 323c 4c6f dabb 425f a63c
00000210: bd99 62bb db05 81bc 53e5 a23c d6d9 efbb
00000220: 85b7 7abc a982 01bb 1f06 bd3b b0db a73b
00000230: 7228 11bc 4582 713c c279 78bb 4e70 42bc
00000240: 088f 9b3c 19a5 aabb bd4c ae3b 4740 8cbc
00000250: cff1 bbbb 12f0 e9bb 7ab7 49bc 331b 4c3a
00000260: ab8f 8abb 8ed8 0c3c a296 2a3a b5a5 a43c
00000270: 2590 9e3c 13ce c53a 9f80 bbbb dc9b b23a
00000280: 9e18 ea3b 94de 08bc 3cc3 46bc 1a44 5d3a
00000290: 682b baba b4b7 4bbc 115f 30bc ebf7 9cba
000002a0: 3da4 c13c e4af babc 0a9d f13b 00dd c03c
000002b0: effe 613c 664c 943c cd21 35bc a785 8f3c
000002c0: 8f23 c3bb 478b 8c3c 74d8 8abc 06aa 873c
000002d0: 1b03 22bc c80d cc3a 118f 193c 33d2 46bc
000002e0: 55f1 5e3c d604 d23c 93aa 913c a8b8 87bc
000002f0: fce5 6cbb 0c32 f23b 48b9 fcba 4ba8 9ebc
00000300: 396e bdbc 5b13 2a3c 631b f0bc dd2a c039
00000310: 7254 2dbc 53ee b3bb a4b7 a4bc 8011 1dbc
00000320: 23ce 963c fdc9 49bc 2d02 163c 4049 8f3c
00000330: 214f c43b e2f3 d23b a90d 1a3c 256e 623c
00000340: cb98 a73b a761 6ebb d3af 063a 7de6 60bc
00000350: 0545 afbc 7bc5 60bc e9ef 093c 56a3 973b
00000360: d0fb 813a 63b2 9239 cc09 e0ba 8c77 983c
00000370: f41c 073c f3a4 9e3c 8228 483c 8d37 883c
00000380: afa1 9fbb 348b ba3b 939d c33b ef09 893b
00000390: 631d dd3c cb3a b53c dea8 45bb b6b9 5fbb
000003a0: 6051 cf3b 9070 863a fc34 ea3b f786 1dbc
000003b0: c93b 993b 48ce 583b c229 a6bc a423 afbb
000003c0: c4da 76bc 1adc b3bc f288 883c f2de e33c
000003d0: e3b4 fbbb 61e2 e1bb b6bb 713a 7219 af3b
000003e0: 3852 bdbc 63a9 cfbc f547 a7ba 07fd ff3b
000003f0: bacb cdbc 76f9 16bc 1388 e23b 114e 9b3c

Const_7 f4 [32]
0.043967217 -0.010384564 0.015788566 0.008610551 0.0053004986 0.028489184 -0.0011512544 0.042140353
0.24309756 0.016439013 0.04577345 -0.03231574 0.28097367 0.26317143 0.29486012 0.004967493
0.063242756 0.05636557 0.2508164 -0.01218611 0.0017582255 0.24812676 -0.015551548 0.021400359
-0.03117865 -0.08167421 0.026623415 0.008699564 0.0106267305 -0.033478364 0.28838572 0.30645612
00000000: f816 343d 0524 2abc 0657 813c 4513 0d3c
00000010: ceaf ad3b 2662 e93c b0e5 96ba 5d9b 2c3d
00000020: 91ee 783e 1cab 863c f17c 3b3d 825d 04bd
00000030: c8db 8f3e 68be 863e e8f7 963e 5ac6 a23b
00000040: 6b85 813d 95df 663d 026b 803e 40a8 47bc
00000050: 4274 e63a f114 7e3e eccb 7ebc ce4f af3c
00000060: 5e6a ffbc cf44 a7bd 5919 da3c 9e88 0e3c
00000070: bd1b 2e3c 9c20 09bd 4ba7 933e d1e7 9c3e

Const_6 f4 [32]
1.0516485 0.99539894 1.0124422 1.0021446 1.0216284 1.0304066 0.9914261 1.0906354
1.2060628 1.0348856 1.1128001 0.9612926 1.3153043 1.2718847 1.3407253 1.0123043
1.083849 1.0672255 1.2425027 0.9783688 1.0007817 1.2289982 0.9776789 1.0274805
0.97794914 0.91956383 1.0155079 1.0159774 1.0118107 0.98008466 1.3246359 1.3687657
00000000: 6b9c 863f 77d2 7e3f b597 813f 4646 803f
00000010: b8c4 823f 5de4 833f 1ace 7d3f f199 8b3f
00000020: 4460 9a3f 2277 843f 3c70 8e3f 4617 763f
00000030: e45b a83f 1ecd a23f e39c ab3f 3093 813f
00000040: 90bb 8a3f d89a 883f 540a 9f3f 6176 7a3f
00000050: 9d19 803f d04f 9d3f 2a49 7a3f 7b84 833f
00000060: e05a 7a3f 8968 6b3f 2afc 813f 8c0b 823f
00000070: 0383 813f d4e6 7a3f ab8d a93f b733 af3f

Const_5 f4 [32]
-0.05580555 0.08538039 0.11380203 -0.08539794 0.042021576 0.01597344 0.0419569 0.011882873
0.13790983 0.07685099 0.027225846 0.16882204 0.11936311 0.15646408 -0.128843 -0.091800146
0.007886684 0.061427277 0.1398176 -0.06277378 -0.05136198 -0.09039511 0.13580827 -0.06694524
0.021127194 -0.026485423 -0.066967666 -0.1355227 0.012771541 -0.012434522 0.022129098 0.17340824
00000000: 5c94 64bd eadb ae3d 0a11 e93d 1de5 aebd
00000010: d11e 2c3d bbda 823c 00db 2b3d 62b0 423c
00000020: 3c38 0d3e 0d64 9d3d bd08 df3c afdf 2c3e
00000030: a574 f43d 1f38 203e 6bef 03be b701 bcbd
00000040: 2637 013c 2b9b 7b3d 582c 0f3e 8a8f 80bd
00000050: f160 52bd 1221 b9bd 5311 0b3e 961a 89bd
00000060: f012 ad3c f5f7 d8bc 5826 89bd 76c6 0abe
00000070: ba3f 513c 2aba 4bbc 1548 b53c ee91 313e

Const_3 f4 [32]
-0.016799541 -0.01777727 -0.01422858 -0.005054493 -0.01269564 -0.013219004 -0.014903705 -0.012091552
0.023091223 -0.016748479 0.029716985 0.013264715 0.0033449025 0.0021792988 -0.0029079616 -0.02480754
-0.016689477 -0.0030190626 0.014341172 0.01345471 -0.0068761776 0.012031726 0.002105279 0.002503532
0.0071717743 0.017403603 -0.009268068 0.029055286 -0.00028129976 0.017731935 -0.0016879527 0.018151661
00000000: 319f 89bc a3a1 91bc fd1e 69bc 29a0 a5bb
00000010: 6001 50bc 8594 58bc ab2e 74bc a51b 46bc
00000020: ce29 bd3c 1b34 89bc 0971 f33c 3f54 593c
00000030: 2736 5b3b 91d2 0e3b 8093 3ebb 2f39 cbbc
00000040: 5fb8 88bc 77db 45bb 3cf7 6a3c 2571 5c3c
00000050: 8f51 e1bb b720 453c b8f8 093b 4c12 243b
00000060: 3401 eb3b 0092 8e3c 18d9 17bc 5a05 ee3c
00000070: 6a7b 93b9 9042 913c 4b3e ddba cbb2 943c

Const_2 f4 [32]
0.99746406 0.99274653 0.99533683 1.000186 0.99318415 0.9832585 0.99757516 0.95692074
1.0021082 0.9976085 0.98463833 0.99280226 1.0162822 0.9728627 0.98722225 0.9926129
0.9978858 0.96958107 1.0006226 0.97329223 0.9890753 1.0502241 1.0155516 0.9811452
1.0126665 1.0013585 0.9938462 1.0163071 1.0136931 1.0055588 0.98169345 1.0174338
00000000: ce59 7f3f a324 7e3f 65ce 7e3f 1806 803f
00000010: 5141 7e3f d4b6 7b3f 1661 7f3f c2f8 743f
00000020: 1545 803f 4563 7f3f 4211 7c3f 4a28 7e3f
00000030: 8915 823f 880d 793f 99ba 7c3f e11b 7e3f
00000040: 7275 7f3f 7736 783f 6714 803f ae29 793f
00000050: 0a34 7d3f be6d 863f 98fd 813f 552c 7b3f
00000060: 0e9f 813f 842c 803f b46c 7e3f 5a16 823f
00000070: b2c0 813f 27b6 803f 4350 7b3f 453b 823f

Const_1 f4 [32]
-0.01128414 0.02206475 0.022366786 0.00217031 -0.013715701 -0.006170611 -0.0024463388 -0.0068983166
0.013526716 -0.025275055 0.011201222 -0.01975345 -0.015027979 -0.017145267 -0.018095301 0.015086987
-0.011442612 0.0087475935 -0.0022194006 0.02103249 -0.009316169 0.03027986 -0.0041004047 0.015810266
-0.01549174 0.002123386 0.008879046 -0.017209537 -0.0035758005 -0.014692665 -0.013789322 -0.019971143
00000000: 1de1 38bc 22c1 b43c 8d3a b73c c23b 0e3b
00000010: d2b7 60bc d632 cabb c152 20bb 460b e2bb
00000020: 299f 5d3c a20d cfbc 5585 373c fdd1 a1bc
00000030: ea37 76bc 3b74 8cbc 993c 94bc 692f 773c
00000040: cb79 3bbc 1152 0f3c 5d73 11bb 544c ac3c
00000050: d8a2 18bc 780d f83c b05c 86bb 8884 813c
00000060: 11d1 7dbc 8128 0b3b 6b79 113c 04fb 8cbc
00000070: fa57 6abb 81b9 70bc 9cec 61bc 869a a3bc
