en/ok_tau/ok_tau.onnx (onnx, 206971 bytes, 9 tensors)

const_fold_opt__23 f4 [32, 1]
0	0xbc6d65b8	-0.014489584
1	0xbeb422d6	-0.35182828
2	0x3e3a5317	0.18195759
3	0x3e4810e7	0.19537698
4	0xbde6d295	-0.11270634
5	0xbea6c45a	-0.3257168
6	0x3d9c3591	0.076274045
7	0x3cf7437b	0.030183544
8	0xbcb85a65	-0.022504041
9	0x3e3ca6c4	0.18422991
10	0x3ddccc4f	0.10781156
11	0xbcb23184	-0.021752127
12	0xbea12642	-0.314745
13	0xbc40921e	-0.011753587
14	0x3dcc0acf	0.09962999
15	0xbeb16b00	-0.34651947
16	0xbeafd4f2	-0.34342152
17	0x3e44b9f3	0.19211559
18	0x3d00dc1c	0.031459913
19	0x3e72a870	0.23697066
20	0x3e2587fd	0.16165157
21	0xbea91246	-0.33021754
22	0x3de82a8e	0.11336242
23	0x3d7e2bde	0.062053554
24	0x3dfb1670	0.12260139
25	0x3e2f8873	0.17141895
26	0xbeae75ff	-0.340744
27	0xbea39908	-0.3195269
28	0x3e18c6ee	0.14919636
29	0xbe1e609e	-0.15466544
30	0xbea62e6e	-0.32457298
31	0x3d398bb4	0.045299247

const_fold_opt__22 f4 [32, 32]
0	0x3e133128	0.1437422
1	0xbde3dac2	-0.11125709
2	0x3dca8f54	0.09890619
3	0xbdf8add3	-0.12142529
4	0xbe137c5a	-0.14402905
5	0x3e1a88d8	0.15091264
6	0x3cfba65d	0.030718977
7	0xbe0c4f38	-0.13702095
8	0xbc5b3b9b	-0.01338091
9	0xbe2ea40f	-0.17054771
10	0x3b50f893	0.0031886443
11	0x3e149cae	0.14512894
12	0x3da3f140	0.08004999
13	0xbdcaab18	-0.09895915
14	0x3df05bc7	0.11736255
15	0xbcfc55f8	-0.030802712
16	0x3e25662e	0.1615226
17	0xbd8362d2	-0.06415333
18	0xbd619219	-0.05507097
19	0x3d2692a8	0.040667206
20	0xbe0a348f	-0.13496612
21	0xbcc99f28	-0.024612024
22	0xbb02e67a	-0.00199738
23	0xbd9da0a0	-0.076966524
24	0xbdd0efdf	-0.10202002
25	0xbc2c67da	-0.010522807
26	0x3d988718	0.07447642
27	0x3e019c2b	0.1265723
28	0xbde9098f	-0.11378776
29	0x3c17c1cf	0.009262516
30	0x3db97ed1	0.090573914
31	0x3d9918ed	0.07475457
32	0xbd103db7	-0.035215106
33	0x3dc38c37	0.09548228
34	0x3dd21cd5	0.102594055
35	0xbb3bfbc7	-0.0028684007
36	0xbdc8e306	-0.09808926
37	0xbe17cfaf	-0.14825319
38	0xbdd02f77	-0.10165303
39	0xbca74b3c	-0.020421617
40	0xbe24287e	-0.16031072
41	0xbb91cebe	-0.0044496944
42	0x3d89e844	0.06733754
43	0xbd5e1190	-0.054215968
44	0xbdfda142	-0.12384273
45	0x3dc15ffb	0.09442135
46	0x3e0bf4ea	0.13667646
47	0xbc95e3bf	-0.018297074
48	0xbd9be923	-0.07612827
49	0x3dea122a	0.11429246
50	0xbdccf457	-0.100075416
51	0xbdbe741e	-0.09299491
52	0x3e0ae944	0.13565546
53	0x3df74466	0.12073593
54	0x3c95cf0c	0.018287204
55	0x3db8b4ce	0.09018861
56	0xbe17a5e8	-0.14809382
57	0x3e246809	0.16055311
58	0xbae259f9	-0.0017269246
59	0x3bb34541	0.005470902
60	0x3e2fbcef	0.17161916
61	0xbe115d1b	-0.14195673
62	0x3da1c28d	0.07898436
63	0xbdeaefee	-0.11471544
64	0xbe117cc2	-0.14207748
65	0x3d4bbfc3	0.049743425
66	0xbcfc788b	-0.030819198
67	0xbdb65bb7	-0.08904212
68	0xbd113e92	-0.035460062
69	0x3d81f6a2	0.063458696
70	0xbe0d4047	-0.13794051
71	0xbd595f81	-0.053069595
72	0x3da519d0	0.08061564
73	0xbc2946ea	-0.010331849
74	0x3d15e3b1	0.036594097
75	0x3c2eae07	0.010661609
76	0x3e1987c1	0.14993192
77	0xbcbab19e	-0.022789773
78	0xbc10afb8	-0.008830957
79	0x3e0822dc	0.13294548
80	0x3e042059	0.12902965
81	0xbb507cb3	-0.0031812608
82	0xbd7d1f34	-0.061797336
83	0xbdda53d3	-0.106605195
84	0x3e201f45	0.15636928
85	0x3d7940ab	0.060852688
86	0x3ce202f6	0.027589303
87	0x3e0328d8	0.1280855
88	0x3da18a00	0.078876495
89	0xbddaa82c	-0.106766075
90	0x3d8e3d8c	0.06945333
91	0x3be66ef7	0.007032271
92	0xbc239206	-0.009983545
93	0x3d8f86ec	0.07008156
94	0x3e19b6c1	0.15011121
95	0xbd1865ce	-0.037206464
96	0xbd2bacaa	-0.041912712
97	0xbd06340d	-0.032764483
98	0xbe1e942c	-0.1548621
99	0x3e181424	0.14851433
100	0x3d522eaa	0.051314034
101	0x3e035a44	0.12827402
102	0x3da1a493	0.07892718
103	0x3de6c30b	0.1126767
104	0xbd8b8df3	-0.06814184
105	0x3e0b5a1e	0.13608596
106	0xbc54829f	-0.012970596
107	0x3e0a936a	0.13532797
108	0x3e07a4a6	0.13246402
109	0xbd76f566	-0.060292624
110	0xbca92fec	-0.020652734
111	0x3d012808	0.031532317
112	0x3e1753c9	0.14778055
113	0xbd736dea	-0.059430994
114	0xbdb050e7	-0.08609181
115	0x3e08af1e	0.13348052
116	0x3dec8a25	0.115497865
117	0x3c973235	0.018456558
118	0xbd177098	-0.036972612
119	0xbe12d789	-0.14340033
120	0xbe255c72	-0.16148546
121	0xbe010835	-0.12600787
122	0xbda96065	-0.08270339
123	0x3d125163	0.035722148
124	0x3dc28f5a	0.094999984
125	0xbd9e6b74	-0.07735339
126	0xbb2e90b8	-0.0026636552
127	0x3e224a83	0.15848736
128	0x3e0b83fb	0.13624565
129	0x3e384abc	0.17997259
130	0x3e241133	0.16022186
131	0xbe4fb81e	-0.20285079
132	0x3cadd293	0.021218574
133	0xbae556c5	-0.0017497173
134	0x3dfa2235	0.12213556
135	0x3df0750b	0.11741074
136	0x3db38f86	0.08767609
137	0xbe4f4a1d	-0.20243116
138	0xbded3974	-0.11583224
139	0x3e0b4b16	0.13602862
140	0xbc8d0ac7	-0.017217053
141	0xbe3a5b06	-0.18198785
142	0x3d28718e	0.04112392
143	0xbd9c16c1	-0.076215275
144	0x3d1018c1	0.035179857
145	0xbdeebf47	-0.11657577
146	0x3e022160	0.12708044
147	0xbdda4907	-0.1065846
148	0x3ccccdbb	0.025000444
149	0x3e224fcf	0.15850757
150	0xbdd06400	-0.101753235
151	0xbe2e883b	-0.17044155
152	0xbcc5246e	-0.024065223
153	0xbdd98ac8	-0.106221735
154	0x3e25f99c	0.162085
155	0xbd60c204	-0.054872528
156	0x3d4d2544	0.050084367
157	0x3e00f17b	0.12592117
158	0x3dc11e44	0.09429601
159	0x3c93a9fd	0.018025393
160	0x3df305cb	0.11866339
161	0x3b89f27b	0.004209814
162	0x3ce820c7	0.028335942
163	0xbda3886f	-0.07985007
164	0x3d614a6f	0.055002626
165	0xbd9d734d	-0.076880075
166	0x3c784e2b	0.015155355
167	0x3d3f0d0e	0.04664331
168	0xbda9d3d7	-0.08292358
169	0xbde23a9c	-0.11046335
170	0x3dbf8815	0.093521275
171	0x3c20d556	0.009816488
172	0x3d072785	0.032996673
173	0xbd754bf1	-0.059886876
174	0x3e32a0ea	0.17444196
175	0xbe0ec86c	-0.13943642
176	0x3dbf12a4	0.09329727
177	0xbcc100fb	-0.023560038
178	0x3e315bfc	0.17320246
179	0xbd77e824	-0.06052412
180	0x3d83caf8	0.064351976
181	0xbdf6808d	-0.12036238
182	0xbe06a73f	-0.13149737
183	0xbda85c2f	-0.082207076
184	0xbe024d2f	-0.12724756
185	0x3df3970f	0.118940465
186	0xbe008c20	-0.12553453
187	0xbdc513da	-0.09622927
188	0x3d398ff4	0.0453033
189	0xbd925234	-0.07144585
190	0xbe296390	-0.16541886
191	0xbd3a5820	-0.0454942
192	0x3e183df3	0.14867382
193	0xbe0e0829	-0.138703
194	0xbe0d3f21	-0.13793613
195	0xbd74bdec	-0.059751436
196	0xbe2a2595	-0.16615899
197	0xbe36eea7	-0.17864476
198	0xbdef9260	-0.11697841
199	0x3c9a1598	0.018809125
200	0x3d920dd6	0.07131545
201	0x3d98bceb	0.07457908
202	0xbcf58e54	-0.029975094
203	0x3d2bfc38	0.04198858
204	0x3c1b862d	0.009492439
205	0xbe3be5f3	-0.18349437
206	0x3d8d1092	0.06887926
207	0xbce4c123	-0.027924126
208	0x3de5446b	0.1119469
209	0xbd1b621a	-0.037935354
210	0x3d0eed56	0.03489431
211	0x3e39e387	0.18153201
212	0xbe012ffb	-0.1261596
213	0x3d2b72b3	0.041857433
214	0x3e27c8cc	0.16385192
215	0x3e1ff850	0.15622067
216	0xbdea6be5	-0.114463605
217	0x3d93761b	0.07200261
218	0xbdb35c74	-0.087578684
219	0xbbc000af	-0.0058594565
220	0x3d53cd2c	0.05170934
221	0xbdf608a9	-0.120133705
222	0xbe0b8854	-0.13626224
223	0xbddd30ee	-0.10800348
224	0x3d28d6dc	0.04122053
225	0x3d842b09	0.06453521
226	0xbcadc0a3	-0.02121002
227	0xbcb5e1ce	-0.022202399
228	0x39c7b461	0.0003809063
229	0xbc7cca53	-0.015429097
230	0x3e3385ee	0.17531559
231	0x3e14c266	0.14527282
232	0xbe0a77cb	-0.1352226
233	0xbc8cd369	-0.017190652
234	0xbdf21609	-0.11820609
235	0xbcd11b90	-0.025525838
236	0xbc854a0a	-0.016270656
237	0xbe1b6f10	-0.15179086
238	0x3e2542b1	0.16138722
239	0xbdc8aedc	-0.09798977
240	0x3cec304b	0.028831622
241	0x3dfbf5fb	0.123027764
242	0xbdaa6e76	-0.0832185
243	0x3ddf45ad	0.109019615
244	0x3d35c205	0.044374485
245	0x3df08639	0.11744351
246	0x3e29ad70	0.16570067
247	0xbd5e54d6	-0.054280125
248	0xbde7702a	-0.113006905
249	0x3df055d4	0.117351204
250	0xbe295077	-0.16534601
251	0x3d3007cd	0.04297619
252	0xbde0fa5b	-0.109852515
253	0xbe081d2e	-0.13292381
254	0xbb5dc1ed	-0.0033837513
255	0x3e33f33f	0.1757326

const_fold_opt__20 f4 [1536, 32]
0	0x3ced44c1	0.028963448
1	0x3cefd313	0.029275453
2	0xbbd48e3a	-0.0064866813
3	0x3c3fc78b	0.01170529
4	0xbc07e009	-0.00829316
5	0x3c9674bb	0.018366208
6	0x3cdc556a	0.026896197
7	0xbad942a5	-0.0016575648
8	0x3bc25d9c	0.0059315693
9	0xbc8a3ecc	-0.016875647
10	0x3af268c8	0.0018494362
11	0x3d043206	0.03227427
12	0x3b908d05	0.004411342
13	0x3b945e2a	0.004527827
14	0x381808a4	3.624767e-05
15	0xbc08fddd	-0.008361307
16	0xbb1542b8	-0.0022775363
17	0xbc19aca8	-0.009379543
18	0x3c4aaf0f	0.012370839
19	0xbcaae0c1	-0.020859124
20	0x3ca27136	0.019829374
21	0x3c87cab1	0.016576143
22	0xbc613d8c	-0.013747584
23	0x3bd5c856	0.006524126
24	0x3c52a0bb	0.012855704
25	0xbbe364ac	-0.0069394913
26	0xbb363759	-0.0027803986
27	0xbc7af09a	-0.015316153
28	0xbb8a7989	-0.004225914
29	0xbc1f0a90	-0.009707108
30	0xbc548fd2	-0.012973743
31	0xbbcb857c	-0.006210981
32	0x3b6c2573	0.0036033064
33	0x3c4224cc	0.011849593
34	0x3befa75d	0.0073136524
35	0xbbcb20f4	-0.0061989967
36	0x3bebb2cc	0.007192945
37	0xba307f76	-0.00067328603
38	0xba9724a7	-0.0011531309
39	0xbba818f6	-0.0051299287
40	0x3ce5e271	0.028062077
41	0x3c12eb36	0.0089672115
42	0xbc41fdbf	-0.011840283
43	0x3b02d67f	0.0019964275
44	0xbc8acba3	-0.016942805
45	0xbc182907	-0.009287125
46	0x3ca8d93e	0.020611402
47	0x3b15e175	0.0022869979
48	0x3ba5f8dd	0.005065067
49	0xbabd058c	-0.0014421209
50	0x3c84a644	0.016192563
51	0xbb98ecd1	-0.0046669026
52	0x3c761262	0.015019031
53	0xbc752019	-0.014961266
54	0xbc46261b	-0.012094046
55	0xbc3f220b	-0.011665831
56	0x3b7e1662	0.0038770665
57	0xbcadac42	-0.021200303
58	0x36c91cb0	5.9936065e-06
59	0xbc153ca1	-0.009108693
60	0x3ca7b421	0.020471634
61	0x3a0030c2	0.0004890078
62	0xbbc68142	-0.006057889
63	0x3cc78584	0.024355657
64	0xbc5d1a72	-0.013495075
65	0x3be846e2	0.007088528
66	0xbcf0d864	-0.029400058
67	0xbc436a74	-0.011927236
68	0xbc8f0f7e	-0.017463442
69	0x3bec44a4	0.007210331
70	0xbb10e6cd	-0.0022110224
71	0x3c91799e	0.017758187
72	0xbc43b85c	-0.01194581
73	0xba8756a7	-0.0010325507
74	0x3ca8c730	0.020602793
75	0x3c6d5e81	0.0144878635
76	0xbb822897	-0.003972124
77	0x3cc3fed4	0.023925222
78	0xbc32b73e	-0.010907946
79	0xbc0bb36c	-0.008526664
80	0xbd28273f	-0.041053053
81	0xba9fa3a6	-0.0012179508
82	0x3c0e7413	0.008694666
83	0xbca9761f	-0.020686207
84	0x3c87cfb2	0.016578529
85	0xbbd72db1	-0.006566726
86	0x3bbd877e	0.005783974
87	0x3c030997	0.007997892
88	0xbb918933	-0.0044414042
89	0x3cd3875f	0.025821386
90	0x3b06ae3d	0.0020550631
91	0xbc258cf2	-0.010104405
92	0x3c9e2ef5	0.0193095
93	0xbbaa8775	-0.005204136
94	0x3cfa5307	0.030557169
95	0xbc5d0192	-0.013489144
96	0xbad4aea8	-0.0016226368
97	0xbd35dbbc	-0.04439901
98	0x3c2ba01e	0.010475187
99	0xbb9523c4	-0.0045513827
100	0xbc12685a	-0.008936012
101	0xbd423cbf	-0.047421213
102	0xbd5f34c4	-0.05449368
103	0xbd4423ae	-0.04788559
104	0xbd3e26ef	-0.04642385
105	0xbb0b862b	-0.0021289687
106	0xbd67e84a	-0.056618012
107	0xbce5129d	-0.027962977
108	0x3c65708f	0.014003887
109	0xbc8b5787	-0.01700951
110	0xbcd66d0c	-0.026175044
111	0xbd2665d8	-0.04062447
112	0x3bb4cae0	0.0055173486
113	0xbcb6f2cc	-0.022332571
114	0xbae1af81	-0.0017218442
115	0x3bd10854	0.0063791666
116	0xbd6ced24	-0.057843342
117	0xbbff83a3	-0.0077976747
118	0x3a6f4b0e	0.00091283105
119	0xbd535593	-0.05159528
120	0xbbcfcad7	-0.006341319
121	0xbcd48ab1	-0.02594504
122	0x3c5a5ccb	0.013327788
123	0x3c4a555d	0.012349454
124	0xbd017bdd	-0.031612266
125	0x3c3c2d08	0.011485346
126	0xbd917f26	-0.0710433
127	0x3d1c7ce5	0.038205046
128	0xbc828cb3	-0.015936231
129	0x3caee19b	0.021347811
130	0xbd140be5	-0.036144156
131	0x3c2a10c4	0.010379974
132	0xbc34b55f	-0.01102957
133	0x3c2a2387	0.010384447
134	0x3c9b57c2	0.018962745
135	0x3ced27e4	0.028949685
136	0x3c9ce50f	0.019152192
137	0x3cbb1161	0.022835435
138	0x3cd6b112	0.02620748
139	0x3bf7d25e	0.0075629195
140	0xbb4898b7	-0.0030608603
141	0xbba67e77	-0.0050809938
142	0x3c033d7f	0.008010267
143	0x3c40c713	0.011766213
144	0x3a3ad61e	0.0007127243
145	0xbc01d5aa	-0.007924477
146	0xbc05a582	-0.008157136
147	0xbc6ad695	-0.014333387
148	0x3d215818	0.039390653
149	0x3c655a8d	0.01399864
150	0x3cc77f23	0.024352616
151	0x3c0ea420	0.008706123
152	0x3c8b2a54	0.016987957
153	0xbc03a058	-0.008033834
154	0x3b5ed6e5	0.00340026
155	0xbc2fdf34	-0.010734368
156	0x3c97a586	0.018511545
157	0x39f5a395	0.0004685192
158	0x3bd4ca39	0.0064938334
159	0xbccf12ee	-0.025277581
160	0x3cb06915	0.021534482
161	0xbb71a199	-0.0036870001
162	0xbc6a71d2	-0.014309363
163	0xbb4cd1f6	-0.0031253076
164	0xbc84c297	-0.016206069
165	0x3ca352d0	0.019936949
166	0xbc954f5c	-0.018226318
167	0x3b526b57	0.0032107437
168	0x3ca5a73a	0.020221341
169	0x3ca0d522	0.01963288
170	0x3c08840e	0.008332266
171	0x3ca3e15d	0.020004923
172	0x3cd359c5	0.025799641
173	0x3b46147d	0.0030224614
174	0x3ca2cb3e	0.019872304
175	0xbc2460d6	-0.010032853
176	0x3c542a52	0.012949543
177	0x3c91b8ae	0.017788257
178	0x3cae69f1	0.021290751
179	0x3cbb2f0d	0.022849584
180	0x3c787d5e	0.015166609
181	0x3c2da7b6	0.010599067
182	0x3c2ebcb1	0.010665105
183	0x3c6d503f	0.014484464
184	0x3c72848e	0.014802111
185	0x3cd99061	0.026558103
186	0x3ca2a57a	0.019854296
187	0xbb884022	-0.004158036
188	0xbca7bc9a	-0.020475674
189	0xbc2d3606	-0.010571962
190	0x3c06b648	0.00822217
191	0x3c8a4ac7	0.01688136
192	0xbb68f730	-0.0035547726
193	0xbbd8a5e5	-0.006611573
194	0xbc80af2a	-0.015708525
195	0x388d18cc	6.728023e-05
196	0xbcbd76cd	-0.023127938
197	0xbc2c5994	-0.010519404
198	0x3ca2742d	0.019830788
199	0x3b687aab	0.0035473506
200	0x3ca15eb2	0.019698475
201	0xbcc5c009	-0.024139421
202	0x3bf415fb	0.0074489093
203	0x3b849b83	0.0040468588
204	0x3cb0d16c	0.021584235
205	0x3c155804	0.009115223
206	0x3c823e65	0.015898893
207	0x3c12c1a1	0.008957298
208	0xbc965e0c	-0.018355392
209	0x3cb6e31b	0.02232509
210	0xbc4b7b87	-0.012419588
211	0x3c94980a	0.018138904
212	0x3bae698b	0.0053226403
213	0xbcd24d9a	-0.025671769
214	0xbcb75da1	-0.022383513
215	0x3c5f57c0	0.013631761
216	0x3cc5ca89	0.024144428
217	0x3bf4e719	0.007473838
218	0x3c8236fc	0.01589536
219	0x3c3128f5	0.010812988
220	0x3b45e726	0.003019759
221	0xbc94f450	-0.018182904
222	0xbbc1f415	-0.0059189894
223	0xbccd9689	-0.025096195
224	0x3b0afca0	0.0021207705
225	0x3c70188b	0.014654289
226	0x3af8e6c3	0.0018989671
227	0xbc99ee11	-0.018790277
228	0xbb4a5a8c	-0.0030876724
229	0x3d046923	0.03232683
230	0x3c6138a6	0.013746416
231	0x3c56222f	0.013069673
232	0x3cb734a3	0.022363966
233	0x3b16f350	0.002303321
234	0xbc638bca	-0.013888309
235	0x3c102d25	0.008799826
236	0xbca3ae9b	-0.01998072
237	0x3bee7246	0.007276806
238	0xbc0fd693	-0.008779186
239	0xbc3f62b8	-0.011681251
240	0x3b824e67	0.0039766314
241	0xbac608d3	-0.0015108831
242	0xbb9be4dd	-0.0047575072
243	0xbbd9a4a2	-0.00664194
244	0xbb620dfe	-0.0034493203
245	0xbbc9850a	-0.0061498927
246	0x3c226c1d	0.0099134715
247	0xbb4a5c2c	-0.0030877693
248	0x3c41de0a	0.011832723
249	0x3b8bb963	0.004264043
250	0xbbaab436	-0.005209471
251	0xbc8c3f94	-0.01712016
252	0x3be05756	0.0068463488
253	0xbc91f584	-0.017817266
254	0x3c835b99	0.016034888
255	0xbba59fe6	-0.005054462

Const_7 f4 [32]
0	0xbc9e79d0	-0.019345194
1	0x3e83970d	0.2570118
2	0x3c5c0f62	0.013431402
3	0x3d1bc25f	0.038027164
4	0x3c1d299a	0.009592438
5	0x3e8303f0	0.25588942
6	0x3d59c173	0.053163003
7	0x3bb33d66	0.0054699657
8	0x3ca81de2	0.020522062
9	0x3d28f5f8	0.0412502
10	0x3d8f39cd	0.069934465
11	0x3ca2d270	0.019875735
12	0x3e8f37ca	0.2797225
13	0xbd1c96cb	-0.038229745
14	0x3c2182d9	0.009857857
15	0x3ea1e5e6	0.3162071
16	0x3e814f3c	0.25255764
17	0x3d2eed98	0.042707056
18	0x3c9d5e12	0.019209895
19	0x3ccd4ba8	0.02506049
20	0x3a1ead3e	0.0006053037
21	0x3e9b7efb	0.30370316
22	0xbb59f5fb	-0.0033258188
23	0xb9bce7c3	-0.0003603083
24	0xbc9034f2	-0.017603371
25	0x3c31c0c0	0.010849178
26	0x3e77d2eb	0.24201553
27	0x3e94156b	0.2892259
28	0xbb988f5f	-0.004655763
29	0xbcb2acc6	-0.0218109
30	0x3eaa75b4	0.33292925
31	0x3d8c519b	0.068515025

Const_6 f4 [32]
0	0x3f7d8f92	0.99047196
1	0x3fa0df7d	1.2568203
2	0x3f82e324	1.0225568
3	0x3f8c145a	1.0943711
4	0x3f8153fe	1.0103757
5	0x3f9eded6	1.2411754
6	0x3f89ac90	1.0755787
7	0x3f82027b	1.0157007
8	0x3f81d492	1.0142996
9	0x3f88ab9a	1.0677369
10	0x3f8b0dcf	1.0863589
11	0x3f816cde	1.0111349
12	0x3fa5d8f2	1.2956831
13	0x3f73ca69	0.9523073
14	0x3f82c698	1.0216856
15	0x3fb101fb	1.3828729
16	0x3f9eabcf	1.2396182
17	0x3f880bbe	1.0628583
18	0x3f8249cb	1.017877
19	0x3f89f737	1.0778569
20	0x3f8003d6	1.0001171
21	0x3fad85ee	1.3556497
22	0x3f7f86e4	0.998152
23	0x3f80659f	1.0031012
24	0x3f7edb4d	0.99553376
25	0x3f829146	1.0200584
26	0x3f9a247d	1.2042385
27	0x3fa8d595	1.319018
28	0x3f8006fa	1.0002129
29	0x3f7a61ee	0.9780568
30	0x3fb4f1a4	1.4136243
31	0x3f85483a	1.0412667

Const_5 f4 [32]
0	0x3d589444	0.052875772
1	0x3cf631c5	0.030053029
2	0x3e1ad5e1	0.15120651
3	0x3c408209	0.011749753
4	0xbe1fb7f6	-0.1559752
5	0xbd0af4d0	-0.033924878
6	0x3d6a8a51	0.057260815
7	0xbd289a2f	-0.041162666
8	0x3d84db36	0.06487124
9	0x3e134007	0.14379893
10	0x3e4819ed	0.1954114
11	0xbd2c6a74	-0.04209371
12	0xbda319ce	-0.07963906
13	0x3ca105b5	0.019656042
14	0xbde73381	-0.112891205
15	0xbbc4a093	-0.0060005873
16	0xbdd60f9f	-0.10452198
17	0x3e281406	0.16413888
18	0xbda3843f	-0.07984208
19	0x3d2d35b6	0.04228755
20	0xbe1fb686	-0.15596971
21	0x3d83a020	0.06427026
22	0xbdf2aeb5	-0.11849729
23	0x3d971f3e	0.07379006
24	0xbe2d4951	-0.16922499
25	0x3af5c613	0.0018751047
26	0x3df6e46c	0.12055287
27	0x3dbbf4ee	0.09177576
28	0xbe10a56f	-0.14125608
29	0x3d700c2e	0.058605365
30	0x3cbd19f0	0.023083657
31	0xbdfc1b1d	-0.12309859

Const_3 f4 [32]
0	0x3c7a0ded	0.015262109
1	0xbc41183c	-0.011785563
2	0x3c9bc0dc	0.019012861
3	0x3cd2939a	0.025705148
4	0x3c30654a	0.010766337
5	0x3a8782e0	0.0010338686
6	0x3d017558	0.03160605
7	0xbb858bf6	-0.0040755225
8	0x3cda7f03	0.026671892
9	0xbc7781ef	-0.015106662
10	0x3c8fbe7e	0.017546888
11	0xbc7f3e18	-0.015578769
12	0x3cc81f45	0.024428973
13	0x3ca65c4f	0.020307688
14	0xbc4480e4	-0.011993621
15	0x3d046960	0.032327056
16	0x3c77dc04	0.015128139
17	0x3b354224	0.002765783
18	0xbc0717a2	-0.008245381
19	0x3c6d2f60	0.014476627
20	0xbbf4f56b	-0.007475545
21	0xbc4fed1e	-0.0126908105
22	0xbc17ff37	-0.009277157
23	0x3ce93a4c	0.02847018
24	0x3c8bf423	0.017084187
25	0x3b7ae778	0.0038284939
26	0x3ca05569	0.019571977
27	0x3cb157e7	0.02164836
28	0xb96fecf6	-0.00022881091
29	0x3cbc620a	0.022995967
30	0x3c14bbcf	0.00907798
31	0x3cd157eb	0.025554618

Const_2 f4 [32]
0	0x3f7bdb34	0.9838135
1	0x3f7f4d89	0.99727684
2	0x3f84d41b	1.037723
3	0x3f78934a	0.97099745
4	0x3f7d8880	0.9903641
5	0x3f8031c5	1.0015188
6	0x3f82615b	1.018596
7	0x3f816e34	1.0111756
8	0x3f825cb1	1.0184537
9	0x3f7f37de	0.9969462
10	0x3f822f7d	1.0170742
11	0x3f7efabf	0.9960136
12	0x3f778bd9	0.96697766
13	0x3f7daa04	0.9908755
14	0x3f7e8a35	0.9942964
15	0x3f83b64f	1.0290011
16	0x3f7ed9b6	0.9955095
17	0x3f80aefd	1.0053402
18	0x3f7d60da	0.9897591
19	0x3f7bfeef	0.9843587
20	0x3f7c74b1	0.98615557
21	0x3f7f640d	0.9976204
22	0x3f7f4a63	0.9972288
23	0x3f842b9c	1.0325809
24	0x3f7a471b	0.9776475
25	0x3f78f174	0.9724343
26	0x3f80e557	1.0069989
27	0x3f81998f	1.0124987
28	0x3f8225ca	1.0167782
29	0x3f7f840b	0.99810857
30	0x3f801ab8	1.0008154
31	0x3f88b8b9	1.0681373

Const_1 f4 [32]
0	0xbbd7f11a	-0.006590021
1	0xbca88da1	-0.020575346
2	0x3a10d153	0.0005524356
3	0x3cd79680	0.026316881
4	0xbb86da2d	-0.004115364
5	0x3cb3e5e0	0.021960199
6	0x3bcbbb88	0.006217424
7	0xbcf5b64d	-0.029994154
8	0xba5baf74	-0.00083803316
9	0xbce6bdd5	-0.02816669
10	0xbc91f623	-0.017817562
11	0xbca44a4b	-0.020054957
12	0x3cc9c042	0.024627808
13	0xbc9affc1	-0.018920781
14	0xbcb8dcdc	-0.022566251
15	0x3c21c81a	0.009874368
16	0xbb34a3d7	-0.0027563476
17	0x3c83df62	0.016097728
18	0x3cb86734	0.022510149
19	0xbb7cb8bb	-0.0038562256
20	0x3c615f33	0.013755607
21	0xbb34f326	-0.0027610748
22	0x3ad1daa6	0.0016010597
23	0x3b9431d0	0.0045225397
24	0x3cdbe921	0.026844563
25	0x3aa6ed71	0.0012735558
26	0xbca9562d	-0.020670975
27	0xbca10138	-0.019653901
28	0xbbdb4205	-0.0066912198
29	0x3cbf38f5	0.023342589
30	0xbcccdeb6	-0.02500854
31	0x3be2e151	0.0069238325
