en/sheila/sheila_v1.onnx (onnx, 208134 bytes, 9 tensors)

model/tf.math.add_1/Add/y f4 [32]
-0.075243406 0.06113751 0.03692212 -0.1878091 0.025789425 0.19009751 -0.113109335 0.049089193
0.16728528 0.008273885 0.05940174 0.031867564 0.010794095 -0.14898264 -0.074997574 -0.12340553
-0.053364724 -0.047679078 -0.025528003 0.005954992 -0.15959673 -0.009602546 0.27978674 0.054318454
-0.012859595 -0.03363153 -0.17978631 -0.1390811 -0.09030522 -0.059846297 0.16758257 0.25395873
00000000: 3719 9abd 536b 7a3d a63b 173d 0751 40be
00000010: 5844 d33c eca8 423e dea5 e7bd c011 493d
00000020: d54c 2b3e 308f 073c 3d4f 733d 9087 023d
00000030: b7d9 303c e88e 18be 5498 99bd 0abc fcbd
00000040: f894 5abd 234b 43bd 1a20 d1bc 1822 c33b
00000050: 536d 23be ff53 1dbc 3540 8f3e 077d 5e3d
00000060: 0db1 52bc 37c1 09bd e719 38be 476b 0ebe
00000070: f1f1 b8bd 6421 75bd c49a 2b3e e106 823e

model/tf.math.add/Add/y f4 [32]
0.08417667 0.021244913 0.038576026 0.08036206 0.021765724 0.022583662 0.010881501 0.021204712
0.07242015 0.0060829283 0.003048292 0.064094 0.009732247 -0.0030330825 -0.001104112 -0.008358441
0.011343024 0.0011456391 -0.0013621197 0.06389536 -0.0018271677 0.10929221 0.042748995 0.019024605
0.037026096 -0.012936724 0.06573826 0.05798932 0.09021643 0.03592202 -0.002944843 -0.0033706434
00000000: d164 ac3d d009 ae3c e501 1e3d dd94 a43d
00000010: 084e b23c 5f01 b93c 5348 323c 81b5 ad3c
00000020: 0451 943d 4d53 c73b dac5 473b b743 833d
00000030: 0174 1f3c aec6 46bb dab7 90ba d8f1 08bc
00000040: 17d8 393c 4529 963a 2789 b2ba 92db 823d
00000050: 937d efba 98d4 df3d 9219 2f3d 7dd9 9b3c
00000060: ada8 173d 8ef4 53bc c8a1 863d 3686 6d3d
00000070: 64c3 b83d f822 133d 44fe 40bb 03e6 5cbb

model/layer_normalization_1/batchnorm/mul/ReadVariableOp/resource f4 [32]
1.2148713 1.0594256 1.2284096 1.2305516 1.1738265 1.0034382 1.1637567 1.2404965
1.1259596 1.2050658 1.1760064 1.268369 1.1798589 1.2458602 1.2778678 1.2510947
1.1959249 1.3276502 1.2896187 1.2397747 1.0443888 1.2530823 1.4247162 1.3378353
1.3077422 1.1204739 1.2977049 1.2239662 1.1921034 1.1464664 1.1436895 1.4137945
00000000: e780 9b3f 429b 873f 873c 9d3f b782 9d3f
00000010: f23f 963f aa70 803f fbf5 943f 97c8 9e3f
00000020: 721f 903f 993f 9a3f 6187 963f ea59 a23f
00000030: 9e05 973f 5978 9f3f 2c91 a33f df23 a03f
00000040: 1114 993f 71f0 a93f 3a12 a53f f0b0 9e3f
00000050: 88ae 853f 0065 a03f 1a5d b63f 303e ab3f
00000060: 1964 a73f b06b 8f3f 321b a63f edaa 9c3f
00000070: d896 983f 69bf 923f 6b64 923f 38f7 b43f

model/layer_normalization_1/batchnorm/ReadVariableOp/resource f4 [32]
-0.17181464 -0.08671754 0.09684358 0.08874666 0.009587737 0.03098136 0.14014967 -0.088607
0.20802502 0.11700167 0.08667119 0.20862171 0.13723135 0.011067536 0.10778475 0.12264577
0.18662919 0.18119003 0.15623252 0.02606776 -0.0054207216 0.008577425 0.26883212 -0.015122731
0.26452687 0.06317273 0.15924723 0.17147107 0.21833557 -0.09701133 0.09332708 0.29102772
00000000: 2df0 2fbe f798 b1bd ed55 c63d cfc0 b53d
00000010: e215 1d3c 9fcc fd3c 6583 0f3e 9677 b5bd
00000020: 8304 553e 929e ef3d aa80 b13d eea0 553e
00000030: 6086 0c3e 9c54 353c 40be dc3d b52d fb3d
00000040: b91b 3f3e e189 393e 6bfb 1f3e 0e8c d53c
00000050: 4fa0 b1bb 5488 0c3c 5da4 893e 55c5 77bc
00000060: 1170 873e b460 813d b511 233e 1d96 2f3e
00000070: 5c93 5f3e e0ad c6bd 4522 bf3d 9601 953e

model/layer_normalization/batchnorm/mul/ReadVariableOp/resource f4 [32]
1.2909294 0.9917006 0.95128506 1.4773656 1.0311996 1.1224482 0.9872044 1.027793
1.0142407 0.9831302 1.1007423 1.3335004 1.1023908 1.0001676 1.0008826 1.0523255
1.0922073 1.0208707 1.0071025 1.0658631 1.0752418 0.9800583 1.0279678 0.9835017
0.91300297 0.97799164 1.1359259 1.2906595 1.0812441 0.9859281 0.9775428 0.93658084
00000000: 2d3d a53f 17e0 7d3f 6b87 733f 511a bd3f
00000010: 59fe 833f 62ac 8f3f 6db9 7c3f b98e 833f
00000020: a4d2 813f 6cae 7b3f 20e5 8c3f 24b0 aa3f
00000030: 241b 8d3f 7e05 803f ec1c 803f 9ab2 863f
00000040: 73cd 8b3f e4ab 823f bce8 803f 346e 883f
00000050: 86a1 893f 1ae5 7a3f 7394 833f c4c6 7b3f
00000060: 90ba 693f a95d 7a3f 0566 913f 5534 a53f
00000070: 3566 8a3f c965 7c3f 3f40 7a3f c3c3 6f3f

model/layer_normalization/batchnorm/ReadVariableOp/resource f4 [32]
0.102552496 -0.034937695 -0.06037203 0.115227215 0.0836374 -0.05609583 0.027043883 0.06637161
0.010182985 -0.0449434 0.04620339 0.109151684 0.0048670247 0.0027484787 -0.009459218 0.064705856
0.046599846 -0.02658036 0.0130035 0.107109465 -0.029175943 0.08033009 0.06818346 -0.010451734
-0.044080194 -0.066003196 0.029599132 0.04990601 0.11665501 -0.011256991 0.029297926 -0.08752766
00000000: 0b07 d23d d41a 0fbd a948 77bd 3ffc eb3d
00000010: 164a ab3d bec4 65bd 228b dd3c d7ed 873d
00000020: 89d6 263c 9216 38bd c43f 3d3d eb8a df3d
00000030: 907b 9f3b d21f 343b d6fa 1abc 8184 843d
00000040: 7bdf 3e3d 0ebf d9bc a20c 553c 355c db3d
00000050: 6302 efbc 1a84 a43d c5a3 8b3d c03d 2bbc
00000060: 6f8d 34bd af2c 87bd e179 f23c 3f6a 4c3d
00000070: d2e8 ee3d 3e6f 38bc 3402 f03c b441 b3bd

const_fold_opt__25 f4 [1536, 32]
0.010181706 0.010822472 -0.052662745 -0.016546085 -0.06592015 -0.04244799 -0.057653893 -0.010666892
0.04418373 -0.046330813 -0.13797973 -0.06974447 -0.13955893 -0.022896983 -0.07386507 -0.020660257
0.0022202758 -0.07594075 -0.036011938 -0.0142801395 -0.15435593 0.08003475 -0.030627435 -0.019168299
-0.060311154 -0.02908297 -0.006754592 0.22550513 0.04540046 -0.11143864 -0.07203176 0.015955336
0.057727218 0.030826686 0.018002942 0.0576194 0.007435664 0.042041436 0.04961045 0.055658054
0.05210219 0.05780768 0.066008374 0.037446324 0.030152038 0.04501714 0.053169135 0.02307541
0.042611502 0.028992686 0.016293881 0.060063846 0.06917421 0.07637249 0.01965939 0.043093316
0.054595746 0.029400587 0.03650592 -0.04172154 0.051919486 0.009486807 0.026106237 0.04264322
-0.04411923 -0.04675156 -0.058684096 0.15204766 -0.035437733 -0.0588739 -0.0011933766 -0.015416038
-0.05425242 -0.039508022 -0.018759789 0.049984448 -0.020634005 -0.10345831 -0.055261426 -0.03828156
0.0097409915 -0.039945997 -0.047896296 0.070084505 0.018460121 0.0581915 -0.03402841 0.042762347
-0.004984448 0.016242256 0.016813058 0.051943053 0.010234226 -0.104682 -0.06759588 -0.05948156
-0.10439544 -0.02945598 0.028835889 0.02116173 0.043236785 0.0053076493 0.030748606 -0.065104276
0.0413856 -0.032106094 -0.03603146 -0.1454429 0.073522225 0.141558 0.035256643 0.050227284
0.041944332 -0.04101715 0.0102087 -0.074384995 -0.0045498684 -0.024344824 0.03098262 0.0507425
0.040967885 0.10671445 -0.20213374 -0.050366536 0.024560183 0.02069013 0.044209465 0.028552027
-0.02203857 0.13720313 0.09701457 -0.056176588 0.1086032 0.12394124 0.08707082 0.109389596
0.0031201434 0.11050817 0.11936575 -0.008621335 0.11882551 0.086093605 0.09918154 0.09942574
0.10991289 0.12624136 0.12752883 -0.034507018 0.11180387 0.013280409 0.09891083 0.055217016
0.09125819 0.05169608 0.06086446 -0.028126122 -0.014304071 0.12148713 0.12400011 0.103906386
0.062967665 0.03583709 0.019576766 0.06282393 -0.006623834 0.04075226 0.03983119 0.037959322
0.026274089 0.00014827079 0.026048627 0.089459404 -0.00039098322 0.040048208 0.02904941 0.008151076
0.05162986 0.013571574 0.03979805 0.07145393 0.030964347 0.10377722 0.010126887 0.031513028
0.010127882 0.046571586 0.06583412 0.09873925 0.07258034 -0.00027741425 0.023916326 0.039923705
0.046512324 0.08057856 0.11067323 0.008911732 0.033500638 0.06587853 0.061724395 0.08479363
0.06260612 0.0681572 0.09153181 0.029422918 0.070771486 0.047256026 0.08314444 0.056407884
0.08973247 0.069560304 0.08920978 0.056017887 0.10781277 0.06349586 0.08292926 0.08511166
0.0904077 0.08277854 0.079039015 -0.036080256 0.034759052 0.08929529 0.06171166 0.09105582
-0.019237092 -0.07355728 -0.03716344 -0.022982974 -0.0036521554 -0.07632612 -0.09064091 -0.061599493
-0.031708404 -0.11186444 -0.09215833 -0.023831692 -0.06873661 -0.07240923 -0.053187072 0.006785388
-0.06661788 -0.03596096 -0.05958674 -0.08381138 -0.072638534 -0.06008168 -0.079388216 -0.03642403
-0.03968702 -0.057405178 0.018940862 0.032108773 -0.03703568 -0.030848954 -0.037518583 -0.02493632
00000000: 2cd1 263c bd50 313c e4b4 57bd a88b 87bc
00000010: 2501 87bd f2dd 2dbd 7d26 6cbd 30c4 2ebc
00000020: 00fa 343d 61c5 3dbd 8f4a 0dbe 30d6 8ebd
00000030: 89e8 0ebe 7492 bbbc 9246 97bd b33f a9bc
00000040: 0c82 113b d386 9bbd 4181 13bd 3ff7 69bc
00000050: 7b0f 1ebe 42e9 a33d 63e6 fabc d606 9dbc
00000060: d408 77bd 693f eebc a055 ddbb d1ea 663e
00000070: d5f5 393d f139 e4bd 6385 93bd c4b4 823c
00000080: 6073 6c3d 3f88 fc3c e87a 933c 5202 6c3d
00000090: dfa6 f33b a433 2c3d 5434 4b3d b3f9 633d
000000a0: 1b69 553d bfc7 6c3d 662f 873d 5161 193d
000000b0: 6801 f73c e563 383d e1c7 593d a408 bd3c
000000c0: 6689 2e3d 1282 ed3c bf7a 853c 8205 763d
000000d0: 35ab 8d3d 2e69 9c3d bb0c a13c 9e82 303d
000000e0: ca9f 5f3d 80d9 f03c 3b87 153d 35e4 2abd
000000f0: 87a9 543d 8d6e 1b3c bfdc d53c a8aa 2e3d
00000100: 5eb6 34bd 907e 3fbd bc5e 70bd 62b2 1b3e
00000110: 2827 11bd c225 71bd 136b 9cba 8d93 7cbc
00000120: c937 5ebd 2ad3 21bd 21ae 99bc 7ebc 4c3d
00000130: a508 a9bc f3e1 d3bd ce59 62bd 20cd 1cbd
00000140: ae98 1f3c 6a9e 23bd e82e 44bd 7788 8f3d
00000150: ae39 973c 365a 6e3d 6061 0bbd 9227 2f3d
00000160: 9554 a3bb 7b0e 853c 8abb 893c 3dc2 543d
00000170: 74ad 273c 8463 d6bd b56f 8abd f0a2 73bd
00000180: 47cd d5bd ab4d f1bc 3e39 ec3c 5d5b ad3c
00000190: 0e19 313d caeb ad3b 80e4 fb3c 6455 85bd
000001a0: f283 293d ae81 03bd b995 13bd fcee 14be
000001b0: d292 963d 95f4 103e 4569 103d 20bb 4d3d
000001c0: d2cd 2b3d 9901 28bd 6442 273c 2957 98bd
000001d0: 1017 95bb cc6e c7bc 43cf fd3c 5ed7 4f3d
000001e0: f1cd 273d 1b8d da3d 26fc 4ebe 244d 4ebd
000001f0: 7032 c93c 597e a93c fc14 353d f1e5 e93c
00000200: 3b8a b4bc fa7e 0c3e 93af c63d 6c19 66bd
00000210: 5b6b de3d e8d4 fd3d 3052 b23d a707 e03d
00000220: 527b 4c3b 1c52 e23d 0876 f43d 8040 0dbc
00000230: ca5a f33d d851 b03d b11f cb3d b99f cb3d
00000240: 021a e13d 6a45 013e eb96 023e 3b57 0dbd
00000250: 6df9 e43d 1396 593c c391 ca3d 3d2b 623d
00000260: 93e5 ba3d 45bf 533d 034d 793d c168 e6bc
00000270: 9f5b 6abc 3fce f83d c5f3 fd3d dfcc d43d
00000280: 31f5 803d eac9 123d 745f a03c d5a9 803d
00000290: bf0c d9bb d7eb 263d 0826 233d 3c7b 1b3d
000002a0: c23c d73c 2379 1b39 ee63 d53c 7e36 b73d
000002b0: e1fc ccb9 9709 243d 07f9 ed3c 178c 053c
000002c0: d579 533d 4f5b 5e3c 4803 233d 7056 923d
000002d0: f1a8 fd3c 2789 d43d 3eeb 253c ce13 013d
000002e0: 6aef 253c d9c1 3e3d 0ad4 863d ce37 ca3d
000002f0: 00a5 943d e971 91b9 2cec c33c 0a87 233d
00000300: b583 3e3d 5f06 a53d a5a8 e23d 8302 123c
00000310: f737 093d 53eb 863d b8d2 7c3d 48a8 ad3d
00000320: a337 803d 0196 8b3d 0875 bb3d 5508 f13c
00000330: a4f0 903d 898f 413d a247 aa3d f40b 673d
00000340: a8c5 b73d a275 8e3d 9eb3 b63d 0373 653d
00000350: f1cc dc3d 1e0a 823d d1d6 a93d 064f ae3d
00000360: ac27 b93d cc87 a93d 35df a13d e4c8 13bd
00000370: 825f 0e3d 73e0 b63d 5ec5 7c3d 797b ba3d
00000380: 1b97 9dbc 33a5 96bd b138 18bd ca46 bcbc
00000390: 0059 6fbb de50 9cbd f1a1 b9bd c04f 7cbd
000003a0: ace0 01bd 2f19 e5bd 82bd bcbd ae3a c3bc
000003b0: c8c5 8cbd 4a4b 94bd b0da 59bd f657 de3b
000003c0: f46e 88bd cd4b 13bd 3a11 74bd 4da5 abbd
000003d0: 83c3 94bd 3518 76bd 4a96 a2bd 5d31 15bd
000003e0: db8e 22bd b121 6bbd de29 9b3c 7d84 033d
000003f0: bab2 17bd f2b6 fcbc 16ad 19bd 4147 ccbc

const_fold_opt__24 f4 [32, 32]
0.115397125 -0.12026934 -0.09839589 0.013970198 0.13987735 0.22516565 -0.13284917 0.12462608
0.2189231 -0.076986 -0.019427262 0.3695736 -0.1999393 0.061422378 -0.123453274 -0.30698574
0.46416256 -0.25708124 -0.33253157 -0.010937704 -0.03248433 -0.103509665 0.39453948 -0.26355514
0.38074 -0.30817097 -0.24948731 -0.27805382 0.38597566 -0.094828255 0.23173866 0.41886535
0.23684359 0.064147756 0.11366997 0.15286182 0.28198957 -0.081872165 0.22990063 -0.01926518
-0.210225 0.24812838 0.016875148 -0.0043567186 0.11167715 0.054074217 0.024536455 0.07967427
0.042790264 0.06224685 0.050107617 0.046493784 -0.013034804 0.08562281 -0.11213158 0.1125708
-0.16021398 0.14346685 0.05133853 0.14063323 -0.1313163 -0.014061888 -0.18158972 -0.15504146
0.13170572 0.16178808 0.13629459 0.24179012 0.19352266 -0.031193184 0.14366312 0.11568706
-0.07661935 0.2213885 -0.0014347511 -0.017376233 0.16628942 0.09551096 0.18821386 0.20503578
-0.15889394 0.12079525 0.15141198 0.23165888 0.006222935 0.12443945 -0.033003457 0.045033555
-0.01988651 0.093900576 0.1878735 0.18354602 0.024001332 0.08393488 -0.14003396 -0.041791603
-0.008945337 -0.100495346 -0.19835527 -0.0829901 -0.07012723 0.23159017 -0.2973827 0.0019021246
0.4715171 -0.2955771 -0.15569094 0.46448317 -0.31877714 -0.06368805 -0.349289 -0.3913824
0.5389062 -0.4054152 -0.40894663 -0.1763908 -0.04165949 -0.27454677 0.48439696 -0.3491677
0.52425295 -0.29659688 -0.3563941 -0.35335198 0.4920216 -0.17004828 0.42903128 0.38349855
0.046232387 0.006636792 0.07637376 -0.085578494 0.069325924 0.052887294 0.28832275 0.124845274
-0.22690296 0.075054444 0.023253134 -0.23159651 0.026039228 0.21394731 0.17637798 0.055482656
-0.07791629 0.16646026 0.14473236 0.20947987 0.020807067 0.18931836 -0.05639658 0.22446997
-0.12643465 0.11005226 0.10109189 0.19075143 -0.06570454 0.29108402 -0.1757563 -0.1251017
0.20355603 0.22079791 0.15383291 0.33925498 0.34701446 -0.13747516 0.019488946 -0.06825606
-0.19994003 0.315037 0.27259246 -0.3011928 0.3575576 0.031908356 0.23030801 0.35801926
-0.14581665 0.12750803 0.15670688 0.023876479 0.16838995 0.19938582 -0.257957 0.28111815
-0.026334522 0.3384899 0.2867529 0.25081775 -0.08483956 -0.08900739 -0.13686673 -0.11559518
0.28499997 0.13344897 0.058140274 0.17439935 0.24483736 -0.04878898 0.0973121 0.21994756
-0.18385187 0.20930141 0.051635366 -0.14115328 0.17638583 0.1287666 0.170072 0.12160506
-0.007176655 0.13576609 0.12903908 0.084029645 0.066722035 0.10552891 0.004744713 0.034861416
-0.11405408 0.14550033 0.17774896 0.11684246 -0.05070069 0.07808675 -0.092048 0.019299097
0.30150363 0.0032873268 0.15922858 0.16059113 0.26002 -0.118062906 0.10009412 0.05037178
0.017546825 0.2961521 -0.0132175265 -0.1494261 0.08122909 0.11223815 0.022839937 0.18383539
-0.07981997 0.11920265 0.149569 0.14571567 -0.036518894 0.023320088 -0.1660067 0.07045056
-0.09034686 0.078456804 0.18027714 0.24377955 -0.012954991 -0.03979497 -0.10254717 -0.15242729
00000000: 5455 ec3d c64f f6bd c983 c9bd 42e3 643c
00000010: 023c 0f3e d391 663e 9d09 08be f53b ff3d
00000020: 612d 603e d6aa 9dbd ec25 9fbc c038 bd3e
00000030: e3bc 4cbe 0896 7b3d 12d5 fcbd 3c2d 9dbe
00000040: b7a6 ed3e 27a0 83be 9441 aabe 0e34 33bc
00000050: 4a0e 05bd e0fc d3bd 1401 ca3e b3f0 86be
00000060: 5af0 c23e 96c8 9dbe 9a79 7fbe 125d 8ebe
00000070: 9a9e c53e 5135 c2bd e64c 6d3e 8575 d63e
00000080: 2087 723e e65f 833d cdcb e83d cf87 1c3e
00000090: f060 903e 98ac a7bd 126b 6b3e 03d2 9dbc
000000a0: 3945 57be 5e15 7e3e c03d 8a3c cec2 8ebb
000000b0: fdb6 e43d ed7c 5d3d ad00 c93c 432c a33d
000000c0: d844 2f3d 8ef6 7e3d a53d 4d3d 4470 3e3d
000000d0: ee8f 55bc 035b af3d 3ea5 e5bd 858b e63d
000000e0: 220f 24be f9e8 123e 5a48 523d 2802 103e
000000f0: c877 06be d563 66bc a8f2 39be 30c3 1ebe
00000100: dddd 063e c6ab 253e cf90 0b3e d497 773e
00000110: ce2a 463e d988 ffbc 6d1c 133e 56ed ec3d
00000120: 9bea 9cbd abb3 623e 420e bcba 9a58 8ebc
00000130: c647 2a3e 409b c33d 22bb 403e e6f4 513e
00000140: 18b5 22be 8063 f73d be0b 1b3e fc37 6d3e
00000150: c3e9 cb3b 1cda fe3d a22e 07bd 1b75 383d
00000160: 09e9 a2bc f24e c03d e961 403e 7df3 3b3e
00000170: 719e c43c 0de6 ab3d 1065 0fbe ac2d 2bbd
00000180: 768f 12bc 81d0 cdbd a51d 4bbe b7f6 a9bd
00000190: dd9e 8fbd f925 6d3e 8c42 98be b650 f93a
000001a0: b06a f13e e255 97be 726d 1fbe bdd0 ed3e
000001b0: c236 a3be e16e 82bd 02d6 b2be 4663 c8be
000001c0: c2f5 093f 9592 cfbe 7461 d1be ca9f 34be
000001d0: 24a3 2abd 6591 8cbe e102 f83e 1cc6 b2be
000001e0: 7135 063f 8cdb 97be 4a79 b6be 8dea b4be
000001f0: 41ea fb3e 2321 2ebe fda9 db3e ec59 c43e
00000200: 2c5e 3d3d 7279 d93b d969 9c3d c743 afbd
00000210: c0fa 8d3d 59a0 583d 0a9f 933e e1ae ff3d
00000220: 4059 68be 25b6 993d 5b7d be3c a327 6dbe
00000230: 3850 d53c 0115 5b3e 6e9c 343e c841 633d
00000240: 9392 9fbd 8f74 2a3e b834 143e e481 563e
00000250: 9573 aa3c acdc 413e 1a00 67bd 75db 653e
00000260: 1678 01be 1463 e13d 4409 cf3d 5854 433e
00000270: 1a90 86bd f708 953e 76f9 33be a91a 00be
00000280: fe70 503e d918 623e 6086 1d3e d4b2 ad3e
00000290: e1ab b13e 4ac6 0cbe 48a7 9f3c d5c9 8bbd
000002a0: 14bd 4cbe 884c a13e 3d91 8b3e f135 9abe
000002b0: ca11 b73e 56b2 023d ddd5 6b3e 4d4e b73e
000002c0: f650 15be 7791 023e c577 203e 9b98 c33c
000002d0: 6a6e 2c3e cc2b 4c3e f112 84be b8ee 8f3e
000002e0: 7fbb d7bc 8c4e ad3e 47d1 923e 2f6b 803e
000002f0: 5dc0 adbd 8249 b6bd cb26 0cbe 2abd ecbd
00000300: 84eb 913e d9a6 083e 7f24 6e3d be95 323e
00000310: a5b6 7a3e f4d6 47bd 914b c73d ef39 613e
00000320: aa43 3cbe 1c53 563e 9b7f 533d 7c8a 10be
00000330: 7d9e 343e 64db 033e 5b27 2e3e 130c f93d
00000340: 252a ebbb 4406 0b3e d222 043e bc17 ac3d
00000350: 90a5 883d 8b1f d83d 8a79 9b3b d8ca 0e3d
00000360: 2f95 e9bd 0afe 143e d303 363e 1a4b ef3d
00000370: 87ab 4fbd f2eb 9f3d a983 bcbd 2419 9e3c
00000380: af5e 9a3e 3170 573b d10c 233e 0072 243e
00000390: 5721 853e f7ca f1bd 25fe cc3d a452 4e3d
000003a0: 5cbe 8f3c 40a1 973e 538e 58bc 2803 19be
000003b0: 705b a63d 1ddd e53d d21a bb3c 583f 3c3e
000003c0: a778 a3bd 8520 f43d 9e28 193e 7d36 153e
000003d0: d694 15bd c509 bf3c a9fd 29be 6248 903d
000003e0: c607 b9bd f6ad a03d 929a 383e 59a1 793e
000003f0: 2c41 54bc 0d00 23bd 4004 d2bd e615 1cbe

const_fold_opt__23 f4 [32, 1]
0.4219845 0.18114412 0.35587856 0.24309216 0.32222828 0.02957903 0.27478874 0.2701539
-0.30295578 0.34774274 0.25804037 -0.43153843 0.2672899 0.39309636 0.2686433 0.37922212
-0.3551676 0.4259302 0.44396335 0.24846062 0.15362813 0.25928995 -0.5288635 0.34865603
-0.44292182 0.2656282 0.33987463 0.3250388 -0.28634688 0.1787786 -0.16187406 -0.45217597
00000000: 5a0e d83e d87d 393e b735 b63e 27ed 783e
00000010: 1bfb a43e b94f f23c 1cb1 8c3e 9d51 8a3e
00000020: 051d 9bbe 560b b23e de1d 843e 9bf2 dcbe
00000030: 39da 883e ed43 c93e 9d8b 893e 6729 c23e
00000040: 87d8 b5be 8613 da3e 2a4f e33e 766c 7e3e
00000050: b150 1d3e a7c1 843e 9963 07bf 0b83 b23e
00000060: a6c6 e2be 6b00 883e 0c04 ae3e 7c6b a63e
00000070: 0f9c 92be bd11 373e 50c2 25be 9c83 e7be
