en/Dumbledore/Dumbledore.onnx (onnx, 206979 bytes, 9 tensors)

const_fold_opt__23 f4 [32, 1]
000000 e8 ba 7d 3e e2 87 9b 3e 38 b5 af 3c a8 61 b8 be
       0.2477833 0.30377108 0.021448717 -0.36012006
000010 20 41 1c 3e 7f dc b0 be 63 78 25 3e d0 d9 23 3e
       0.15259218 -0.34543225 0.16159205 0.16001058
000020 74 8e b2 be af 29 6f 3c c0 67 a8 3d 77 fb bf be
       -0.34874308 0.0145973405 0.08222914 -0.3749654
000030 38 36 81 3e f8 29 5e 3e d8 34 6a 3e ce b9 04 3e
       0.25236678 0.21695697 0.22871721 0.12961504
000040 86 58 20 3e 74 17 67 3e 05 16 68 3e 86 68 b4 be
       0.15658769 0.2256754 0.2266465 -0.35235995
000050 28 7c a7 3e df a0 be be c7 7a f2 3d 4a 73 28 3e
       0.3271191 -0.3723211 0.11839824 0.1645023
000060 c3 77 b7 be 5b 8a 47 3e a9 40 b9 be 8a 49 68 3e
       -0.35833558 0.19486372 -0.36182144 0.22684303
000070 cd 48 22 3e 14 84 c6 be 4f 07 01 3e be 8c a9 3e
       0.15848084 -0.38772643 0.12600444 0.3311519

const_fold_opt__22 f4 [32, 32]
000000 67 04 8e 3d 2c b4 04 be 59 5f 67 3c d5 7c b6 3d
       0.069344334 -0.12959355 0.014121854 0.089105286
000010 f3 3b 1b 3e c1 21 fe 3d c6 14 d3 bd 9c fb f7 bd
       0.15159588 0.12408782 -0.103066966 -0.121085376
000020 eb 6f ea 3d 72 87 f8 bd 41 27 08 3d a2 24 c7 3c
       0.11447128 -0.12135209 0.03324056 0.02430946
000030 03 6a cb bd 98 3d da bd 79 8f 0d be e4 0c 10 be
       -0.099323295 -0.10656279 -0.13824262 -0.14067417
000040 a7 48 b4 3c 6e 20 1f 3d 11 d4 9a 3d 2c 24 94 3d
       0.0220073 0.038849287 0.0755998 0.07233462
000050 45 a2 8b bd 3d 66 24 bc eb f5 72 3d 61 93 94 3d
       -0.0681806 -0.010034141 0.059316557 0.07254673
000060 b0 bb f0 3d 2f 07 0d be 1b d7 1e 3e 46 d0 bf bd
       0.117545485 -0.13772272 0.15511744 -0.09365897
000070 29 e5 06 3e 4d ec 74 3d 92 12 f3 bd ca ce 17 3d
       0.13173355 0.059795666 -0.118687764 0.037062444
000080 96 3f 95 3d d1 4d 2f 3e ad 72 a4 bd 4d 73 0b bc
       0.07287519 0.17119528 -0.08029685 -0.008511377
000090 12 f1 eb 3d 57 a9 cd 3d 9a 5b 2c 3e cc 69 00 3e
       0.1152059 0.10042065 0.16831818 0.12540358
0000a0 fd a5 09 3e 16 89 a8 3d 96 b6 80 bd ad ae 1b bd
       0.13442226 0.08229272 -0.062848255 -0.03800838
0000b0 bf 2d ca 3d 6b 04 fe 3d d7 b4 21 3e 66 6b 63 bc
       0.098720066 0.124031864 0.15791641 -0.013880586
0000c0 f9 f8 12 bc b3 17 b0 3c 6a 20 05 be 5d cc 80 3c
       -0.0089704925 0.021495676 -0.13000646 0.015722448
0000d0 01 a5 da 3c a1 0f 88 3d 34 da fb 3d 2d 9e b1 3d
       0.026690008 0.06643606 0.12297478 0.08672748
0000e0 69 8c 04 be cc 58 47 bd 70 84 09 be f7 3f 97 3d
       -0.12944187 -0.048668668 -0.13429427 0.07385247
0000f0 19 8b c9 bc cd 19 27 be 44 94 5c bc 98 83 ed bc
       -0.02460246 -0.16318436 -0.013463084 -0.028993413
000100 6b b4 40 3e b7 66 00 3e a4 17 32 bc 28 91 4b be
       0.18818824 0.12539183 -0.010869894 -0.19879591
000110 68 31 91 bc b7 73 c9 bc c3 a2 10 3e 56 01 5b 3e
       -0.017723754 -0.02459131 0.14124589 0.21387228
000120 22 85 b5 3c 79 cf 90 bd 0c e2 3f 3d c2 50 b9 3a
       0.02215821 -0.07070822 0.046846434 0.0014138448
000130 39 05 49 3e d3 a0 39 bc 94 0a c2 3c 89 bc 2b bd
       0.19630899 -0.011329847 0.023686685 -0.041927848
000140 7e dd f0 bc 57 e3 ea 3d d7 1d 97 bd c2 aa cf bd
       -0.02940249 0.11469143 -0.073787384 -0.10139991
000150 97 18 05 3d 61 b0 fc bd 87 cc 24 3e 29 68 8d bd
       0.032494154 -0.12338329 0.16093646 -0.069046326
000160 8f ab 43 be 15 18 be 3d 78 68 8f bb 7e f5 8a ba
       -0.19108413 0.09281937 -0.0043764673 -0.0010601727
000170 aa 9f 2e 3e c4 49 13 be dd eb f4 3d 94 fd 7d 3d
       0.17053095 -0.14383608 0.1195905 0.06200941
000180 ca 02 88 bd 68 67 03 bd f7 91 ff bc fb 30 08 3d
       -0.06641157 -0.032081038 -0.031197531 0.033249836
000190 e2 53 96 3d 64 27 a3 bd 08 5d 8b bd 73 23 69 3d
       0.07340218 -0.079664975 -0.06804854 0.056918573
0001a0 9c f1 b3 bd e9 48 72 bc 12 fc fd bd 86 36 87 3d
       -0.08786318 -0.014787891 -0.12401594 0.066021964
0001b0 30 70 e9 3d 4c 6c 4d 3e 79 07 52 3e ac b3 28 3e
       0.11398351 0.20060843 0.20510663 0.1647479
0001c0 3b 44 0b be 63 b8 4e 3e 25 8e d0 3d df e0 2c bd
       -0.13600247 0.20187525 0.10183362 -0.04220664
0001d0 54 fe 92 3e 65 24 cd bd 0e 10 e6 bd 39 f7 67 3d
       0.28709662 -0.10016707 -0.11233531 0.056632254
0001e0 fe 73 ce bd 4c 95 10 3d 6e a8 3e bd e5 51 e9 bd
       -0.100807175 0.03529863 -0.046547346 -0.11392573
0001f0 6a c6 09 3e a8 c6 1c bd 61 44 8e bd 23 52 c6 3d
       0.13454595 -0.03827539 -0.06946636 0.09683635
000200 14 2f 1e 3e f6 31 62 3e 3a 06 96 bd 5d 20 96 3d
       0.15447646 0.22089371 -0.073254064 0.073303916
000210 5f 47 85 3d 53 3f 6e bd 8c 3f ef bc 4a 54 37 bd
       0.065077536 -0.05816586 -0.029205106 -0.04475812
000220 f5 0a c2 bd f9 a6 28 bd 51 b3 8c 3d 2a 1c 89 3d
       -0.09474746 -0.041174863 0.068701394 0.06694825
000230 bb 47 04 be 43 af 9c 3d 93 5e 42 bd 42 44 6e 3d
       -0.12917988 0.07650616 -0.047453474 0.058170564
000240 1f c1 7f 3d 3b 0f 1b be 18 11 0b 3e f0 88 e5 bd
       0.062440034 -0.15142529 0.1358074 -0.112077594
000250 2f 9d e3 3d 94 25 6e 3d 30 44 8d bd e0 1d f7 3d
       0.11113965 0.058141306 -0.06897771 0.12066245
000260 74 be e0 bb ca 7a 0a be fd 1a 0b 3b 19 49 1f bd
       -0.0068586413 -0.13523403 0.0021225803 -0.03888807
000270 94 9b d4 3d 16 eb a0 3c 1b fb d9 3d b7 61 f0 bd
       0.10381237 0.019643348 0.10643598 -0.117373876
000280 16 e8 a9 bd cf 9d 9d bd b9 80 fb bd e3 bb d3 3d
       -0.0829622 -0.07696115 -0.12280411 0.10338571
000290 af e1 36 39 fe 0a 7d bd d8 a0 f3 3d 6c 5f 14 bd
       0.00017440946 -0.06177806 0.11895913 -0.036223814
0002a0 22 61 c6 bd 48 e3 d9 3d 40 47 8a bd d2 d0 20 be
       -0.09686495 0.106390536 -0.06751871 -0.15704659
0002b0 b3 41 1e 3e 67 7f 08 3e d2 4c e6 bd 0d 4b d6 bd
       0.1545475 0.1332985 -0.11245121 -0.104635336
0002c0 c0 e7 d8 3c 46 ab 12 3e 6d 57 2d 3c c3 3f 1d be
       0.026477695 0.14323148 0.010579926 -0.15356354
0002d0 b8 ed 51 bd fa 28 a6 bc b2 3d 96 3d 6b f3 ce 3d
       -0.051252097 -0.020283211 0.07335986 0.10105022
0002e0 21 8c 23 be 14 6d df bc 33 b9 96 3d e4 26 c6 3a
       -0.15971424 -0.027273692 0.07359543 0.0015117791
0002f0 64 2a b8 bd 7b 66 a2 bd f7 40 0a 3e 95 14 26 bd
       -0.0899246 -0.07929703 0.13501345 -0.040546972
000300 f5 70 61 bd 7b 42 6e 3c e8 46 43 3d 31 23 b5 bd
       -0.055039365 0.014542217 0.047675043 -0.08844603
000310 24 56 27 be f3 d7 39 3d 04 75 f3 3d 11 fa d5 bd
       -0.16341454 0.04537196 0.11887553 -0.10448087
000320 72 8a 35 3e 9a e6 89 3d 00 0b 6e bd 28 35 d0 3d
       0.17728594 0.06733437 -0.05811596 0.10166389
000330 f3 87 25 be 9a ce 20 bc 0b 75 31 be af e5 ff 3d
       -0.16165142 -0.009814883 -0.17329805 0.124949805
000340 af f7 cc 3d 0d 33 0d bd bf e6 04 be 47 f9 97 3d
       0.100081794 -0.034472514 -0.12978648 0.07420593
000350 a9 9c 64 bc 0f 2d 3e 3d 22 b7 f2 bd 0d ed ee bd
       -0.013953366 0.04642969 -0.11851336 -0.116663076
000360 23 ee 2b 3d ef 2a f2 3d e2 26 ca bd 08 4b 06 bd
       0.04197515 0.11824595 -0.098706976 -0.0327864
000370 e4 9b a7 3c 7c 15 57 bc e2 14 6d bd 05 8c 1f 3e
       0.020460077 -0.013127681 -0.057881244 0.15580757
000380 fc a7 7a 3c f3 e2 41 bc 36 ad 5a 3d 7d 1a 3d be
       0.01529884 -0.011833894 0.053387843 -0.18467136
000390 65 b7 2f 3e 28 61 e0 3d 2b 7b dc 3d 4a e5 cc bb
       0.17159803 0.10956031 0.1076568 -0.0062529193
0003a0 55 73 37 be 44 cc 86 3c 04 43 c2 bd cf 93 06 be
       -0.1791509 0.016454823 -0.094854385 -0.13142322
0003b0 cd 82 4b 3e b1 ac 63 3e a3 13 c4 3d ed 25 99 3d
       0.19874115 0.22233845 0.09574058 0.07477937
0003c0 cd 27 c5 3d 54 dc bf 3c 1e d2 0e 3e 7c d1 55 3d
       0.09626732 0.02342049 0.13947341 0.052201733
0003d0 7a 68 94 3d c9 d1 08 be 73 d0 d9 3c 6d b9 21 3e
       0.0724649 -0.13361277 0.026588654 0.1579339
0003e0 33 95 c8 bd ce ea 43 3e 4e 0c 1a 3d 0a 13 88 3d
       -0.097940825 0.1913254 0.03760939 0.066442564
0003f0 de 9b 32 3e 01 86 4a 3d be 2c bb 3d 86 60 e4 3d
       0.17442271 0.049444202 0.09139393 0.11151223

const_fold_opt__21 f4 [1536, 32]
000000 23 7e 66 3b 42 d4 11 3c 35 6c 4c bb cc e3 7a 3b
       0.0035170398 0.008900704 -0.0031192426 0.003828275
000010 bd b9 09 3b 75 66 44 bb a6 52 c7 3b df f9 a5 3c
       0.002101525 -0.0029968296 0.0060828505 0.02026075
000020 15 ea 87 bc 1d ed df ba 76 6b 6d 3c b8 8f 0c 3c
       -0.016591111 -0.0017084215 0.014490953 0.008579187
000030 0a 7a 8d 3c d6 d9 3e 3c e3 4c f6 39 66 0d f5 3c
       0.017270107 0.011648616 0.0004697806 0.029913615
000040 cb db c9 bc 58 51 0e 3d 80 a7 12 3c a9 72 94 3b
       -0.024640938 0.034745544 0.008951068 0.00453027
000050 c3 a3 1b 3a 70 42 a1 3b c0 39 c8 3c 95 8a 20 39
       0.0005937183 0.00492125 0.0244416 0.00015310415
000060 96 22 82 bb 69 4c 39 bb e9 f1 f3 3c c8 f6 bc 3b
       -0.003971408 -0.0028274304 0.029778438 0.0057667233
000070 a7 04 cf 3b 60 6e ca b9 d5 18 26 bc 4e f1 49 3c
       0.0063176933 -0.00038610678 -0.010137756 0.012325598
000080 77 9b ed ba 37 f1 98 bb 62 fc 94 bc 23 bf 0c 3c
       -0.0018127997 -0.004667427 -0.018186752 0.008590492
000090 26 2d af 3c 4e 5b c0 3c 6f 99 db bb 81 aa 10 bb
       0.021383833 0.023481037 -0.0067016403 -0.0022074284
0000a0 27 d8 6b bb 74 d8 15 3c 72 21 da bb 0c 8f ad b9
       -0.003598699 0.009145845 -0.006656819 -0.0003310371
0000b0 18 82 35 3c 01 cf 83 3b 06 db d1 3c 2f 5c a8 3c
       0.01107838 0.0040224795 0.025617134 0.020551769
0000c0 91 84 1a bb 08 54 65 3b 3b 3f e2 3b 8a 11 f0 3c
       -0.002357755 0.0034992713 0.0069045103 0.029305238
0000d0 88 aa 70 3c d7 d7 12 bc c8 aa 98 3c 8a 1a 00 3c
       0.014689095 -0.008962593 0.018636122 0.007818827
0000e0 98 89 79 bc e9 8b bf 3c 90 0c 5a bc fc 7b 6e 3a
       -0.015230559 0.023382144 -0.013308659 0.00090974546
0000f0 a8 c4 61 bc 45 02 8f 3c 8a 99 fc bb 4e 4c 1c 3c
       -0.013779797 0.017457137 -0.007708733 0.009539677
000100 33 ba d3 3c 3b 41 b5 bb 19 f8 f8 bc 0b 6d f0 bc
       0.025845623 -0.0055314577 -0.03039174 -0.02934887
000110 c6 e5 d2 bc 3f e0 b3 3b e7 0e ad 3c 02 c3 de bb
       -0.02574433 0.0054893787 0.02112527 -0.006798149
000120 fd fc 74 bb 74 ba ce ba 14 cd b5 bc bb fc da 3c
       -0.0037382238 -0.001577212 -0.022192515 0.02673184
000130 30 6c 1b bc f4 3e da bb 88 d9 8d 3c e8 73 55 bb
       -0.009486243 -0.0066603366 0.017315641 -0.0032570306
000140 32 db 8a 3c 24 a6 38 bd 42 df c6 bb e1 37 1a 3b
       0.016950224 -0.04508032 -0.006069095 0.0023531842
000150 db 6c 00 bc e0 31 3f bc 27 a2 f2 bc a1 d2 11 bd
       -0.007838453 -0.011669606 -0.029618336 -0.035601262
000160 38 df 38 3c a4 a4 73 bb 0d d5 2a bd 27 86 54 3c
       0.011283688 -0.003717699 -0.041707087 0.012971438
000170 df 35 33 37 ec f5 26 bc 6d e6 1e 3d 86 18 0a bd
       1.0681774e-05 -0.010190468 0.03879397 -0.033714794
000180 cf cd 3a 3d 49 35 3c bd be 59 91 bc 65 50 a2 bd
       0.04560643 -0.045949254 -0.017742988 -0.0792549
000190 a4 70 be bc ff 23 02 bd bc 42 33 3d ae 08 79 bd
       -0.02324707 -0.03177261 0.043764815 -0.060799293
0001a0 7d 5c dc bc 0b 61 73 bd 2e 8c 18 bd 94 9c 4d 3d
       -0.02689957 -0.05941872 -0.03724306 0.050198153
0001b0 90 d9 c0 3c 31 99 8b bd 81 f6 fd bc 96 ed 41 bd
       0.023541242 -0.06816328 -0.031001331 -0.04734572
0001c0 18 a1 d1 3c 47 48 24 bc 45 0b 98 bd 13 6d 62 bd
       0.02558951 -0.010026998 -0.074240245 -0.055279803
0001d0 e4 ed 3e 3d 35 57 d3 bc 3b 29 e8 bc 72 34 1f bd
       0.04661359 -0.02579842 -0.028339973 -0.038868375
0001e0 7c 11 ef 3c 8f 00 6f bd 9f 6a 2b bd a0 64 26 3d
       0.029183142 -0.058350142 -0.04184973 0.040623307
0001f0 10 f0 a0 3c 6e 8a 7d bd 39 32 55 3d 61 6a 39 bd
       0.01964572 -0.061899595 0.05204985 -0.045267466
000200 d1 55 d6 bc dc 6a 1d bc 30 99 d2 3c 32 8f 75 3d
       -0.026163967 -0.009607997 0.025707811 0.059951015
000210 70 f1 23 bb d8 76 4d 3d ce 64 bb bc 93 e7 9c 3c
       -0.0025015734 0.050162166 -0.022875216 0.019153392
000220 4e e9 b1 3c 25 29 0c 3d 1e bd 13 3b 44 25 ca bc
       0.021717694 0.034218926 0.0022543143 -0.024675973
000230 7a 3c 08 bc 17 22 2f 3d 64 85 d8 3c d6 f1 10 3d
       -0.0083152 0.04275712 0.026430793 0.035386883
000240 5e f5 dd bc 2c 86 5f 3d 86 bc 37 3d f9 70 01 3d
       -0.02709454 0.054571316 0.044857524 0.03160188
000250 ef 69 99 bc ce 48 95 3c 1f 0c fe 3c 48 dd 7d 3c
       -0.01872727 0.018223193 0.03101164 0.015494652
000260 a4 76 15 bb 03 52 92 3c 7a c4 92 3b b4 c0 f3 bc
       -0.002280631 0.017861372 0.0044789882 -0.029754974
000270 92 ee f4 bc c4 77 9a 3c 01 73 84 bc 19 61 2b 3d
       -0.029898915 0.018855937 -0.01616812 0.041840646
000280 56 60 6b bc 36 b3 94 3c b3 84 0d 3c 06 68 37 bc
       -0.01436623 0.01815186 0.008637595 -0.011194235
000290 e6 a6 ac 38 32 34 9e 3c 4b fb ab 3a af b9 a5 3b
       8.2326864e-05 0.019311998 0.0013121156 0.0050575356
0002a0 99 c2 1d 3c 06 88 85 3c d4 6a e4 bb 6a 90 1c bc
       0.009628915 0.016300213 -0.0069707427 -0.009555915
0002b0 81 33 9c 3c 7a d4 8a 3c 86 a1 35 3b f4 ad c5 bb
       0.019067528 0.01694702 0.0027714684 -0.0060326997
0002c0 12 60 54 3b 66 3d 62 3b 63 cf b6 3c 88 bf 16 3c
       0.0032405895 0.003452146 0.022315687 0.009200938
0002d0 ad ba 5f 3c 4c 03 3f 3b 14 ed 6f 3a cd 96 35 bc
       0.013655347 0.0029146252 0.0009152454 -0.011083317
0002e0 21 60 c2 bb 08 b3 56 3b 7e 28 60 3c 5f 9c 0b 3c
       -0.0059318696 0.003276052 0.013681529 0.0085211685
0002f0 41 0a 07 bc 33 9c 01 bc 63 85 97 bc 5f 60 56 bc
       -0.008242191 -0.007910776 -0.018496221 -0.0130845
000300 c6 07 a3 bb a9 4c 1b 3a 5b 05 50 3c 18 fd 96 3c
       -0.004975292 0.0005924204 0.012696589 0.018431231
000310 65 59 ce 3a e8 cc 81 bb ad 28 64 3c 0a 30 07 bc
       0.0015743194 -0.0039611943 0.0139257135 -0.0082511995
000320 05 f6 c5 3b 64 c0 0b 3b b6 3a 4f 3c 89 a2 bd 3a
       0.0060412907 0.002132439 0.012648275 0.0014467995
000330 af 8b e5 3c e1 b7 01 bb 4e c4 3b 3c 79 8b f6 ba
       0.028020708 -0.0019793438 0.011460377 -0.0018809877
000340 26 3c 46 3c 26 a5 fc ba aa 54 d8 3c 4b a8 18 3c
       0.012099301 -0.0019275292 0.026407558 0.009317468
000350 f0 a0 ad 3c ec 17 0c bc 2d d1 91 bc 3b bc 4c 3c
       0.021194905 -0.008550625 -0.017799938 0.0124960495
000360 89 6f d8 3b 14 45 99 3c 67 ec f5 bb 5a 11 aa 3c
       0.006605093 0.018709697 -0.007504988 0.020760227
000370 1c 58 de 3c 1a 88 2b bc f2 4a 87 3c f8 d2 06 3c
       0.027141623 -0.010469461 0.016515229 0.00822901
000380 89 a4 d3 bc bf 52 7d 3c 20 e3 51 bc 00 20 ef bc
       -0.025835292 0.015461623 -0.0128104985 -0.029190063
000390 45 ba 8b 39 66 06 1d 3c df 76 ac bc b4 b9 bb bc
       0.00026650928 0.009584045 -0.021052776 -0.022915699
0003a0 42 56 e8 3c 58 65 13 3c fe 60 bb bc f6 51 98 bc
       0.028361443 0.00899633 -0.022873398 -0.01859377
0003b0 44 8e b8 bc 66 19 90 bc 47 58 c3 bc 80 74 be bb
       -0.022528775 -0.017590236 -0.023845805 -0.0058122277
0003c0 e7 52 08 bc 66 a4 1e bb ae 9c 83 bc e2 d2 9a bc
       -0.008320547 -0.0024206876 -0.016065922 -0.018899385
0003d0 35 c9 d4 bc 7b 26 a8 bc 81 2a 5d 3c 2e 85 ca bc
       -0.02597485 -0.020526161 0.013498903 -0.024721708
0003e0 89 d4 a5 bc a2 4c ff bb 1e 5c c9 bc ac ab 94 bc
       -0.020242946 -0.0077911178 -0.024580058 -0.018148266
0003f0 dd 21 31 bd cf 73 90 bc 0c 80 15 bd 5b 88 2e bd
       -0.043245185 -0.017633347 -0.03649907 -0.042610507

Const_7 f4 [32]
000000 33 e1 d4 3d 4d 0f 2b 3e f2 2f 73 bd 17 27 7e 3e
       0.10394516 0.16705056 -0.059371896 0.24819599
000010 49 2e dd 3d 7b 46 7a 3e bb 56 bd 3d 6c 9e 97 3d
       0.10799844 0.24440949 0.09245058 0.074032634
000020 13 ef 83 3e 12 5d a3 bc 80 46 4a 3d d4 09 6b 3e
       0.25768337 -0.01994184 0.04938364 0.22952968
000030 b3 e9 f6 3d b4 0b 7f 3d e3 bc cf 3d f8 67 80 3d
       0.12056293 0.06226702 0.10143449 0.062698305
000040 a3 ae b2 3d dd 6a 02 3e 69 ef a7 3d c4 67 7f 3e
       0.087247156 0.12736078 0.08199961 0.24941927
000050 f6 64 1d 3e 92 24 75 3e 62 16 c9 3d 0c 1a 30 3d
       0.15370545 0.23939732 0.09818722 0.04299359
000060 20 46 74 3e 58 de 73 3d a0 16 6f 3e c7 21 73 3d
       0.23854876 0.059538215 0.23348475 0.059358384
000070 73 05 9e 3d 0b c2 6f 3e 09 cb e5 3c fc c8 12 3e
       0.07715883 0.23413865 0.028050916 0.14334482

Const_6 f4 [32]
000000 55 80 9d 3f e7 88 98 3f e2 80 77 3f 50 18 a4 3f
       1.2304789 1.1916779 0.96681035 1.281992
000010 45 5b 8a 3f 58 64 a4 3f ac e4 98 3f 21 0c 99 3f
       1.0809103 1.2843122 1.1944785 1.1956826
000020 72 70 ab 3f 54 14 7d 3f c9 5f 84 3f 30 92 a0 3f
       1.339369 0.98859143 1.0341731 1.2544613
000030 25 87 98 3f df 80 8e 3f e7 84 9a 3f 5e 44 8f 3f
       1.1916243 1.1133078 1.2071809 1.1192739
000040 17 5c 8d 3f ce 94 a2 3f 85 be 8d 3f d1 2b a6 3f
       1.1043729 1.2701662 1.1073767 1.2982122
000050 d0 a2 99 3f b2 ac a3 3f 11 8e 98 3f f3 10 8f 3f
       1.2002811 1.2787077 1.1918355 1.1177047
000060 59 ec 9e 3f b0 de 91 3f 30 03 9e 3f c7 15 8f 3f
       1.2415878 1.1396084 1.2344723 1.1178521
000070 67 fe 8a 3f 33 e2 a2 3f 08 22 89 3f ef 84 96 3f
       1.0858887 1.272528 1.071351 1.1759318

Const_5 f4 [32]
000000 fc 70 00 3d ee 2f af 3d d9 85 4c 3d 06 86 53 38
       0.03135775 0.08554064 0.049932335 5.043114e-05
000010 f7 85 20 be ae d6 1c 3e 7d 2e 60 bd e6 a1 03 3e
       -0.15676104 0.15316269 -0.054731835 0.12854728
000020 0c 54 9e bd f8 d6 ce 3d 4d ce 0e 3e f9 e0 20 3e
       -0.077308744 0.10099596 0.13945885 0.1571082
000030 30 83 3f 3e 74 b0 ae 3d ef 99 f8 bd 7d 0c f2 bd
       0.18702388 0.085297495 -0.121387355 -0.11818788
000040 f9 0b 96 3c b9 37 23 3e 76 5f 1e 3e 2b 60 0b 3e
       0.018316256 0.15939225 0.15466103 0.13610904
000050 e1 cf bd bd 62 7a 3f 3e 53 6d 0a 3e 31 f1 09 be
       -0.092681654 0.18699029 0.13518266 -0.13470913
000060 84 ca 47 bc 94 12 38 3c 01 da 93 bb 83 a1 0d be
       -0.01219428 0.011234898 -0.004512072 -0.13831143
000070 5e 8d e2 bc 4d c5 28 bd 80 92 24 3e 1b d9 01 be
       -0.0276553 -0.041203786 0.1607151 -0.12680475

Const_3 f4 [32]
000000 ed 5d 06 3c 7c 35 7a bc 89 3a d3 3c d0 f9 43 3c
       0.008201105 -0.015271541 0.025784748 0.011961415
000010 87 0e 42 3d e7 f6 16 bd 3c 9f a0 3a 4d 1f c5 3c
       0.047377136 -0.03685656 0.0012254487 0.024062777
000020 65 06 5b bc 31 e7 e7 3c be 7d 37 bb 67 2d 8c 3c
       -0.013368224 0.028308483 -0.0027998532 0.017111493
000030 fd fa 11 3c 5c f4 ad bd de 96 ba bc b6 f0 c0 3c
       0.008909938 -0.084938735 -0.022777017 0.02355228
000040 40 2e 8b 3c 0c e4 86 bc 63 8a b1 3b d5 e6 0d 3b
       0.016989827 -0.016466163 0.0054181083 0.002165248
000050 75 90 c6 3c 75 cf cc bc a0 c9 eb bc 8c 94 99 bc
       0.024238804 -0.025001267 -0.028782666 -0.01874759
000060 34 1f db 3b e9 06 bf 3c b6 70 8b 3c 39 5a 8d 3c
       0.0066870693 0.023318725 0.017021518 0.017254936
000070 65 87 ad 3c 8d 3f 14 bd a4 5d 21 3c 33 19 49 3d
       0.021182725 -0.03619342 0.009848986 0.049096297

Const_2 f4 [32]
000000 e2 cd 7e 3f 68 1c 7f 3f dd df 80 3f 43 31 85 3f
       0.995329 0.9965272 1.0068318 1.0405658
000010 39 6f 83 3f d5 c8 73 3f 71 dc 78 3f f2 8e 82 3f
       1.0268317 0.9522832 0.97211367 1.0199873
000020 88 a9 7a 3f 14 8e 84 3f 65 14 7e 3f bb a8 71 3f
       0.97914934 1.0355859 0.9924987 0.9439809
000030 06 b6 7b 3f ea 2d 6e 3f 14 c7 7c 3f 30 3e 84 3f
       0.9832462 0.9303881 0.9874127 1.0331478
000040 bb 00 83 3f 09 db 7b 3f cb 85 79 3f 16 d0 82 3f
       1.0234598 0.98381096 0.97469777 1.0219753
000050 c5 bd 84 3f 9b 72 79 3f 99 d9 80 3f 3c a1 7e 3f
       1.0370413 0.974405 1.0066406 0.99464774
000060 8f 87 7e 3f 91 a4 87 3f 01 63 7f 3f 39 78 81 3f
       0.99425596 1.0597097 0.9976044 1.0114814
000070 6f e3 80 3f f5 30 76 3f 8e 02 81 3f da 46 86 3f
       1.0069407 0.9616845 1.0078905 1.0490372

Const_1 f4 [32]
000000 41 fe f1 3c 50 d0 b8 3b 3a 75 84 bc cc 74 b2 3a
       0.029540183 0.005640067 -0.01616918 0.001361513
000010 88 53 df bb f5 89 7c 3b 23 f1 0d 3d 4c c1 8d bc
       -0.0068153776 0.0038534377 0.034653794 -0.017304085
000020 6c 67 0a 3c fc 74 23 bc 46 1f a7 b8 04 bd 06 3b
       0.008447509 -0.009976622 -7.969006e-05 0.002055944
000030 5e 24 23 3c 36 8f 21 3c 00 42 57 39 32 9d dc bc
       0.009957401 0.009860804 0.00020528585 -0.026930425
000040 52 f6 9a 38 dc 8d 90 3a 01 ea 55 3c 4c 8a f6 3b
       7.389173e-05 0.0011028606 0.013056279 0.0075238105
000050 76 db 1e bc ee 7c 21 3c 01 68 dd bb 07 e5 59 bc
       -0.009695878 0.009856446 -0.006756783 -0.013299233
000060 a0 6f 41 3b b8 74 21 bc 77 13 a6 b7 da fd 7e bb
       0.0029515997 -0.009854488 -1.9797806e-05 -0.0038908632
000070 5b ba 5f bb 3f d7 88 bc 57 68 ff 3c a0 50 c9 bc
       -0.0034138176 -0.0167042 0.031177683 -0.024574578
