en/ok_paulus/ok_paulus.onnx (onnx, 208137 bytes, 9 tensors)

model/tf.math.add_1/Add/y f4 [32]
-0.038241863 -0.15149033 -0.111481115 0.057369467 0.089817494 -0.0020772384 0.17696427 0.17220369
0.12564218 -0.07899273 -0.058363177 0.03106953 -0.15019435 -0.11313757 0.031948768 0.18404053
-0.0063644242 0.046949558 -0.07919418 -0.096748695 -0.031159783 -0.102307335 -0.07923678 -0.03499256
-0.03708826 0.043282926 0.0052557727 -0.15310565 0.042033724 0.14336592 -0.06701286 -0.08082691
00000000: 80a3 1cbd 4820 1bbe 3650 e4bd 3ffc 6a3d
00000010: 3cf2 b73d 4722 08bb 1f36 353e 2a56 303e
00000020: 58a8 003e f1c6 a1bd 3a0e 6fbd 8785 fe3c
00000030: 8ccc 19be acb4 e7bd b6dc 023d 1f75 3c3e
00000040: a98c d0bb 2e4e 403d 8f30 a2bd 2e24 c6bd
00000050: cd42 ffbc 8286 d1bd e546 a2bd 5c54 0fbd
00000060: dce9 17bd 7049 313d 9e38 ac3b bac7 1cbe
00000070: 8e2b 2c3d 84ce 123e 0a3e 89bd 9488 a5bd

model/tf.math.add/Add/y f4 [32]
0.019227102 0.029402198 0.0197283 0.0021899934 0.0024855486 0.019777738 -0.0019130649 0.021999745
0.067639984 -0.0029419616 -0.01696435 0.08367513 0.06411568 0.007251155 0.0075052385 0.012797584
0.025068933 -0.0023895937 0.060005117 0.01041787 0.08877215 0.029695222 0.08864594 0.07045548
0.012763983 -0.011125458 0.045027133 -0.0009892461 0.068834834 0.025529766 0.0520453 0.015078053
00000000: 2882 9d3c e1dc f03c 3e9d a13c fe85 0f3b
00000010: 96e4 223b ec04 a23c cebf faba cf38 b43c
00000020: d586 8a3d edcd 40bb d2f8 8abc de5d ab3d
00000030: 154f 833d 199b ed3b 81ee f53b f5ac 513c
00000040: 5d5d cd3c bb9a 1cbb edc7 753d b7af 2a3c
00000050: 2cce b53d 6543 f33c 018c b53d f64a 903d
00000060: 0620 513c 8e47 36bc 5f6e 383d 97a9 81ba
00000070: 47f9 8c3d cd23 d13c 742d 553d f009 773c

model/layer_normalization_1/batchnorm/mul/ReadVariableOp/resource f4 [32]
1.3421375 1.35837 1.265843 1.3007659 1.3565947 1.2769986 1.3227038 1.0528747
1.3021495 1.301399 0.9928299 1.3233467 1.0511136 1.3978641 1.3758214 1.1613533
1.3600703 1.3676162 1.3256141 1.0923197 1.2726349 1.1944984 1.2694416 1.3737917
1.3667629 1.2480054 1.3604125 1.1681312 1.2408456 1.1993209 1.2578819 1.2826068
00000000: 29cb ab3f 11df ad3f 2507 a23f 7f7f a63f
00000010: e5a4 ad3f b174 a33f 5c4e a93f 99c4 863f
00000020: d6ac a63f 3e94 a63f 1a2a 7e3f 6d63 a93f
00000030: e48a 863f 36ed b23f ea1a b03f 3aa7 943f
00000040: c916 ae3f 0c0e af3f b9ad a93f 22d1 8b3f
00000050: b3e5 a23f 53e5 983f 107d a23f 68d8 af3f
00000060: 16f2 ae3f a4be 9f3f ff21 ae3f 5385 953f
00000070: 07d4 9e3f 5983 993f 4602 a13f 762c a43f

model/layer_normalization_1/batchnorm/ReadVariableOp/resource f4 [32]
0.24511282 -0.06213599 0.11308956 0.17121576 0.04650244 0.09373408 0.26732257 0.10098595
0.18229145 0.24234588 -0.15378423 0.0745394 0.29329696 0.058342427 0.116506085 0.22528668
0.21136676 0.12521394 0.013241184 0.1578106 0.1316799 -0.109239645 0.263158 0.08850626
0.24302699 0.055033814 0.27056658 0.08749982 0.22288057 0.24959438 0.11352678 0.15875253
00000000: dbfe 7a3e 4f82 7ebd 809b e73d 2f53 2f3e
00000010: 5879 3e3d a7f7 bf3d 81de 883e b9d1 ce3d
00000020: 9caa 3a3e 8529 783e 9d79 1dbe 1da8 983d
00000030: 052b 963e 78f8 6e3d be9a ee3d 8db1 663e
00000040: 8770 583e 1538 003e 8df1 583c 1a99 213e
00000050: 19d7 063e 09b9 dfbd a5bc 863e c542 b53d
00000060: 11dc 783e 236b 613d b487 8a3e 1b33 b33d
00000070: ce3a 643e ab95 7f3e ba80 e83d 0690 223e

model/layer_normalization/batchnorm/mul/ReadVariableOp/resource f4 [32]
0.93333817 1.0147032 1.0066557 1.0630752 0.99875313 0.9755721 1.1931509 1.0273491
1.0605911 0.9348314 1.0185266 1.0616542 1.0700613 1.1356013 0.96818167 1.0629758
0.9860141 1.0363623 1.0671256 1.0360448 1.3235943 0.9951944 1.0614109 1.3864934
1.0165629 0.9327425 1.1866277 1.042129 1.3626798 1.0026855 1.0432774 1.0525684
00000000: 40ef 6e3f cbe1 813f 18da 803f d912 883f
00000010: 49ae 7f3f 18bf 793f 2bb9 983f 2d80 833f
00000020: 73c1 873f 1c51 6f3f 145f 823f 49e4 873f
00000030: c5f7 883f 625b 913f c1da 773f 970f 883f
00000040: 6c6b 7c3f 85a7 843f 9297 883f 1e9d 843f
00000050: 8a6b a93f 0fc5 7e3f 50dc 873f 9e78 b13f
00000060: bc1e 823f 36c8 6e3f 6be3 973f 7c64 853f
00000070: 4b6c ae3f 0058 803f 1d8a 853f 90ba 863f

model/layer_normalization/batchnorm/ReadVariableOp/resource f4 [32]
-0.039822448 0.040720902 0.00049189554 0.0069865836 -0.009498311 0.013420548 0.039175563 -0.014767514
0.059273515 -0.029394832 0.11976298 0.071575634 0.068437956 0.0074315756 -0.010398734 -0.017180838
0.023980089 0.005579968 0.08938143 -0.023771288 0.0645669 0.08799769 0.062206376 0.056430694
-0.0016826228 -0.023595626 0.052669007 -0.020110566 -0.065899454 -0.012420461 0.04902818 -0.0109679615
00000000: dd1c 23bd f6ca 263d 8df2 003a b6ef e43b
00000010: ce9e 1bbc dce1 5b3c 8e76 203d 71f3 71bc
00000020: c9c8 723d 6ecd f0bc 4b46 f53d 3f96 923d
00000030: 3329 8c3d 9384 f33b 745f 2abc d4be 8cbc
00000040: e471 c43c 2ad8 b63b 9c0d b73d 01bc c2bc
00000050: a73b 843d 2238 b43d 1dcc 7e3d df23 673d
00000060: 748b dcba 9d4b c1bc 75bb 573d eabe a4bc
00000070: 4bf6 86bd 307f 4bbc c6d1 483d f7b2 33bc

const_fold_opt__25 f4 [32, 32]
-0.16955014 0.031241832 0.07434951 0.046262342 -0.04545248 0.016185366 -0.1255548 -0.04001596
-0.030498233 0.093514785 -0.11680837 0.06935053 0.0031329212 0.12928568 -0.0034608997 -0.09522209
0.004529244 0.14510871 0.034813512 -0.08023408 0.15508342 0.12722273 -0.08933481 0.0427572
-0.0507502 0.17553924 -0.13440406 0.0833418 -0.15735175 -0.13907517 0.005225386 0.1529664
-0.0886169 0.13816416 0.14239927 0.16496846 0.13072103 0.05015588 0.0347767 0.09031829
0.19401684 -0.18823293 -0.033322178 0.0877857 -0.051422533 0.0130218305 0.05386442 -0.0045341183
0.07857283 0.13283494 0.14006124 -0.03162773 0.16351368 0.12272474 -0.10507212 0.14019495
-0.1400884 0.15094157 -0.09761655 0.14637806 -0.038696736 0.012283127 0.24286383 0.14297119
0.016486485 0.014783453 0.12048223 0.22042623 0.13490023 0.23417139 -0.18904547 -0.06607842
0.17486055 -0.04338903 -0.0013416846 0.10342621 0.03511793 0.032417342 0.195935 -0.16011828
0.1263518 0.13593519 0.16478923 -0.075973034 0.21688354 0.19028367 -0.028460095 0.07472788
-0.03534074 -0.0025296581 -0.021596055 0.16266023 0.0567698 -0.054235082 0.21988066 0.15816945
-0.18935947 0.30577746 0.14822403 0.1374819 0.19329831 0.17742358 -0.10885335 0.08267038
0.25254583 0.0040973374 0.001763046 0.22987697 -0.025089338 0.1461913 0.14510134 -0.16504349
0.21734399 0.22573821 0.1584236 -0.18029566 0.3052633 0.11775722 -0.082181044 0.17517665
-0.0056754923 0.2519669 0.010413906 0.11637456 -0.19699974 -0.1371892 0.2739484 0.2248692
-0.20677519 0.27181414 -0.05230697 0.064437725 0.03506047 0.101919584 -0.02481843 0.08763116
0.10295982 -0.12317902 -0.022114435 0.22064094 0.048585333 0.11359207 0.033085592 -0.061022706
0.07357125 0.058731496 0.047618955 -0.2396081 0.06268798 0.07167174 -0.14401388 0.11914224
-0.10445394 0.13798358 0.025165701 0.22100669 -0.17005551 -0.10943499 0.18753497 0.08379336
-0.12625928 0.14063494 0.21674961 0.13491543 0.073340416 0.059195165 0.1465127 0.09662753
0.016699718 -0.023581138 0.023457207 -0.05005959 0.0822712 0.026007082 -0.09240889 -0.017646905
0.04949029 0.19123958 0.030989537 -0.20572542 0.1755851 -0.023729157 -0.049978632 0.06931435
0.087746345 -0.10597427 -0.070068926 0.016207162 -0.14236599 0.075770855 0.16405095 -0.00087182276
-0.31858343 0.06501429 0.081110425 0.29131266 0.25260642 0.26392138 -0.2395432 0.10441656
0.33395222 -0.115136825 -0.02842774 0.3854925 -0.08874143 0.2382943 0.28475022 -0.2031435
0.34685588 0.30701068 0.05217104 -0.2859537 0.3720563 0.010002642 -0.22992167 0.26499432
-0.13756621 0.1936873 -0.26260623 0.24486889 -0.2065613 -0.13945419 0.28080922 0.393701
-0.17674762 0.061258342 0.04980605 0.120946266 0.25839195 0.25612786 -0.15694942 0.011488176
0.17062522 -0.1641727 0.06050026 0.25999597 -0.032951415 0.0037355488 0.1613855 -0.10750113
0.22475909 0.091290705 0.12853587 -0.1314287 0.1735648 0.2044666 -0.11215294 0.18084586
-0.05771158 0.20942685 -0.1629218 0.13811237 -0.22167948 -0.040791325 0.16256003 0.18559897
00000000: 8d9e 2dbe dfee ff3c 8e44 983d 957d 3d3d
00000010: 612c 3abd 2c97 843c 7091 00be c6e7 23bd
00000020: 6ed7 f9bc ae84 bf3d 3a39 efbd a707 8e3d
00000030: b251 4d3b 7763 043e 43d0 62bb cd03 c3bd
00000040: 0d6a 943b 6197 143e 9d98 0e3d c451 a4bd
00000050: 30ce 1e3e ad46 023e 2bf5 b6bd 2c22 2f3d
00000060: 71df 4fbd 8fc0 333e 38a1 09be 1baf aa3d
00000070: d120 21be b969 0ebe b739 ab3b 39a3 1c3e
00000080: c77c b5bd e87a 0d3e 1dd1 113e 7eed 283e
00000090: bcdb 053e 4170 4d3d 0372 0e3d ccf8 b83d
000000a0: 5aac 463e 22c0 40be d67c 08bd fdc8 b33d
000000b0: 6fa0 52bd 8459 553c f0a0 5c3d f192 94bb
000000c0: cbea a03d e205 083e 376c 0f3e 148c 01bd
000000d0: 2170 273e 1c57 fb3d 0d30 d7bd 448f 0f3e
000000e0: 5573 0fbe 6d90 1a3e 30eb c7bd 21e4 153e
000000f0: 7880 1ebd 2b3f 493c 4cb1 783e 0a67 123e
00000100: aa0e 873c 4c36 723c 63bf f63d 6ab7 613e
00000110: 4923 0a3e a0ca 6f3e 2395 41be 1f54 87bd
00000120: a50e 333e b2b8 31bd 77db afba 1fd1 d33d
00000130: d2d7 0f3d 0cc8 043d 2fa3 483e 0cf6 23be
00000140: 5e62 013e 9832 0b3e 82be 283e c097 9bbd
00000150: b816 5e3e b9d9 423e 2525 e9bc ee0a 993d
00000160: 74c1 10bd 9fc8 25bb 36ea b0bc 6790 263e
00000170: 7387 683d 9b25 5ebd 6528 613e 2cf7 213e
00000180: 73e7 41be dd8e 9c3e 0ac8 173e 0ec8 0c3e
00000190: feef 453e 87ae 353e 81ee debd 174f a93d
000001a0: b04d 813e f542 863b 0216 e73a de64 6b3e
000001b0: 2888 cdbc 2cb3 153e 7295 143e 2901 29be
000001c0: 6c8f 5e3e eb27 673e cc39 223e 6d9f 38be
000001d0: 794b 9c3e b32a f13d 894e a8bd 8261 333e
000001e0: 7bf9 b9bb ce01 813e 169f 2a3c c955 ee3d
000001f0: 4dba 49be 537b 0cbe f742 8c3e 1d44 663e
00000200: e0bc 53be 392b 8b3e d53f 56bd edf7 833d
00000210: 919b 0f3d 37bb d03d 0550 cbbc f777 b33d
00000220: 99dc d23d 4845 fcbd 5529 b5bc b3ef 613e
00000230: 6a01 473d f6a2 e83d c284 073d f2f2 79bd
00000240: 86ac 963d 7090 703d 180c 433d d35b 75be
00000250: 8e62 803d a2c8 923d 6078 13be d900 f43d
00000260: f3eb d5bd 914b 0d3e 4d28 ce3c 944f 623e
00000270: 0823 2ebe 741f e0bd 2b09 403e da9b ab3d
00000280: 1d4a 01be 9b02 103e 9cf3 5d3e 4527 0a3e
00000290: 8033 963d a176 723d 6d07 163e a8e4 c53d
000002a0: d9cd 883c 3b2d c1bc 5429 c03c 490b 4dbd
000002b0: ce7d a83d ce0c d53c df40 bdbd 3e90 90bc
000002c0: 55b6 4a3d 4fd4 433e c5dd fd3c afa9 52be
000002d0: 95cc 333e a663 c2bc 65b6 4cbd aff4 8d3d
000002e0: 5bb4 b33d 0a09 d9bd 4c80 8fbd e2c4 843c
000002f0: 64c8 11be c02d 9b3d f9fc 273e 098b 64ba
00000300: 5e1d a3be 3626 853d 391d a63d ef26 953e
00000310: a155 813e b420 873e d04a 75be 59d8 d53d
00000320: c9fb aa3e dbcc ebbd 4be1 e8bc 465f c53e
00000330: 11be b5bd 6c03 743e c8ca 913e da04 50be
00000340: 1897 b13e 8130 9d3e 4db1 553d 8668 92be
00000350: 2a7e be3e 1fe2 233c 9670 6bbe 56ad 873e
00000360: 28de 0cbe f755 463e 5374 86be e9be 7a3e
00000370: ce84 53be 14cd 0ebe 3ac6 8f3e 2d93 c93e
00000380: 54fd 34be 07ea 7a3d 6e01 4c3d adb2 f73d
00000390: f34b 843e 3123 833e 59b7 20be e738 3c3c
000003a0: 61b8 2e3e e31c 28be 1fcf 773d 311e 853e
000003b0: 10f8 06bd 1cd0 743b 3e42 253e 8d29 dcbd
000003c0: 3f27 663e 9ff6 ba3d e89e 033e 3f95 06be
000003d0: f9ba 313e b15f 513e 71b0 e5bd a82f 393e
000003e0: fa62 6cbd fe73 563e f9d4 26be 546d 0d3e
000003f0: f2ff 62be ce14 27bd 2376 263e a80d 3e3e

const_fold_opt__23 f4 [32, 1]
-0.39657235 0.38612172 0.25862736 0.4252727 0.3190859 0.2808016 -0.4019681 0.18036325
0.40959173 -0.45878586 0.20032156 0.3918791 0.15482527 0.3307148 0.3682423 -0.27600312
0.32723874 0.32748464 0.39461952 -0.17555757 0.36902305 0.31640336 -0.29222825 0.35654256
-0.43483543 0.39066267 -0.4222334 0.24700068 -0.3730032 -0.321716 0.39836785 0.3951678
00000000: 880b cbbe bfb1 c53e ce6a 843e 58bd d93e
00000010: 3a5f a33e 3ac5 8f3e c3ce cdbe 25b1 383e
00000020: 02b6 d13e fbe5 eabe 1821 4d3e 61a4 c83e
00000030: 848a 1e3e 7353 a93e 418a bc3e 4850 8dbe
00000040: d68b a73e 11ac a73e 920b ca3e 5dc5 33be
00000050: 97f0 bc3e 9fff a13e f19e 95be bf8c b63e
00000060: c0a2 debe f004 c83e fa2e d8be bfed 7c3e
00000070: 47fa bebe f6b7 a4be dff6 cb3e 6f53 ca3e

const_fold_opt__22 f4 [1536, 32]
0.009422446 -0.04753566 -0.022026446 -0.071936965 -0.0447713 0.018234406 -0.0063492875 -0.07108947
0.0276274 -0.062035408 -0.04332823 0.03054184 0.00032950222 -0.081651025 -0.0788825 0.0064910925
-0.09453382 -0.1154572 -0.012237092 -0.13578343 -0.02839948 -0.09536467 0.0038197474 -0.012645553
-0.1511075 -0.08438543 0.08350816 -0.07765976 0.14432181 -0.042082474 -0.009188328 -0.061455313
0.0616253 0.037117824 0.021792667 0.029800236 0.06430768 0.023608651 0.023532908 0.083363414
0.03548443 0.0697109 0.052966803 0.012991501 0.04138243 0.06974681 0.08471951 0.052317653
0.0258621 0.045001786 0.045341235 0.039348837 0.031620454 0.073342904 0.035263266 0.009782403
0.036666498 0.052508347 0.0049777217 0.05766105 0.054275453 0.033991154 0.06357984 0.049893472
-0.01819258 -0.051944062 -0.03494931 0.060881376 0.0517458 0.008199968 -0.03455884 0.0019232926
0.049304962 0.015985217 -0.027087511 0.020576889 0.04033546 0.062276047 0.05112562 -0.044416342
0.052411605 0.01613304 0.03425704 0.040211692 0.047710225 0.0007106604 0.011411682 0.046838887
0.03316943 0.13083673 -0.022367235 0.038910683 0.032120436 0.043104734 -0.003737111 0.04129265
-0.066397704 -0.03676571 0.00027773876 -0.11417838 -0.09513672 -0.08189898 -0.007394088 -0.048907354
0.04216008 -0.095205195 -0.13616668 0.00356567 0.038892537 -0.08561335 -0.06984105 -0.011377798
-0.06498315 -0.094195195 0.018879686 -0.09092266 0.018406892 -0.11614862 0.018550223 0.075819544
-0.077907875 -0.06198981 -0.056114327 -0.079865836 -0.16856629 -0.065976605 -0.0029932312 -0.050852276
0.082594864 0.06820964 0.07065327 0.09940334 0.07953103 0.040903803 0.051968694 0.08080877
0.0032916877 0.122838035 0.059148215 -0.01330795 -0.00094438944 0.100075625 0.06225414 0.071568355
0.079402976 0.07621064 -0.025103219 0.06076986 -0.033250768 0.023471132 -0.004119427 -0.015413226
0.07425006 0.06150637 0.007948198 0.087869786 0.031314645 0.04846995 0.03733438 0.093685225
0.062542155 0.042252794 0.053493388 0.016234763 0.04843438 0.028975341 0.014334699 0.026839118
0.03715698 0.05361237 0.052422132 0.030903757 0.011921869 0.008090107 0.052994244 0.019865692
0.043578994 0.054084044 0.0234401 0.020734023 0.032515343 0.029614352 0.030059874 0.008432741
0.05030271 0.008820972 0.038016655 0.05131294 0.040895242 0.015446172 0.017647283 0.053844474
-0.012621627 0.014477749 0.030454298 0.0034744947 0.050034482 0.0047264406 0.028901769 0.04945737
0.050260767 0.040207434 -0.001544602 0.04884873 0.041584864 0.029336557 -0.018177647 -0.0020388449
-0.013827036 0.073907696 0.031975284 0.020937346 0.075170785 0.03856441 0.035777315 0.023699623
0.07497168 0.001326152 0.005809538 0.04864509 -0.030550579 0.009507698 0.01886055 0.0031603533
-0.006617984 -0.010007493 -0.06104138 0.05058302 -0.061025944 -0.008215073 -0.048796654 -8.4570216e-05
-0.06693958 -0.085580565 -0.021046454 -0.0621725 -0.016041106 0.0029759095 0.0048674396 -0.10880136
-0.004533704 -0.006719862 -0.03073204 -0.052128375 -0.08750296 -0.0034349563 -0.055786684 -0.07101657
-0.007862095 -0.029409293 -0.062210135 -0.0014077781 -0.047137585 -0.028582303 -0.023305288 -0.072307035
00000000: 9a60 1a3c c1b4 42bd ce70 b4bc b053 93bd
00000010: 1c62 37bd 5260 953c af0d d0bb 5b97 91bd
00000020: db52 e23c d718 7ebd f178 31bd e132 fa3c
00000030: 0ac1 ac39 a738 a7bd 268d a1bd 3bb3 d43b
00000040: f39a c1bd d374 ecbd 157e 48bc d00a 0bbe
00000050: 07a6 e8bc 8d4e c3bd ba54 7a3b 4b2f 4fbc
00000060: edbb 1abe 45d2 acbd 5406 ab3d 150c 9fbd
00000070: 19c9 133e ac5e 2cbd a48a 16bc 91b8 7bbd
00000080: d06a 7c3d dc08 183d 8986 b23c a01f f43c
00000090: bfb3 833d ee66 c13c 16c8 c03c 70ba aa3d
000000a0: 1f58 113d 97c4 8e3d b8f3 583d 4eda 543c
000000b0: 9f80 293d 6ad7 8e3d 6c81 ad3d 094b 563d
000000c0: c1dc d33c cb53 383d bbb7 393d 3f2c 213d
000000d0: 7384 013d ce34 963d 3770 103d 5f46 203c
000000e0: 9c2f 163d fe12 573d 281c a33b fe2d 6c3d
000000f0: f04f 5e3d 4f3a 0b3d 2636 823d 195d 4c3d
00000100: 9b08 95bc 4cc3 54bd 0227 0fbd c05e 793d
00000110: 67f3 533d 2959 063c 928d 0dbd fe16 fc3a
00000120: 00f4 493d 6ef3 823c a1e6 ddbc dd90 a83c
00000130: cc36 253d 2b15 7f3d 1969 513d e9ed 35bd
00000140: 8dad 563d 7029 843c 1c51 0c3d 04b5 243d
00000150: cc6b 433d 9d4b 3a3a 10f8 3a3c 22da 3f3d
00000160: abdc 073d 10fa 053e 7e3b b7bc cf60 1f3d
00000170: b890 033d 978e 303d 52ea 74bb 7b22 293d
00000180: 85fb 87bd a497 16bd 779d 9139 5bd6 e9bd
00000190: 0ad7 c2bd a7ba a7bd 1b4a f2bb 1453 48bd
000001a0: 0cb0 2c3d f1fa c2bd 476f 0bbe 04ae 693b
000001b0: c84d 1f3d 0d56 afbd d308 8fbd f269 3abc
000001c0: e315 85bd 69e9 c0bd 92a9 9a3c a935 babd
000001d0: 0dca 963c 54df edbd a3f6 973c 4747 9b3d
000001e0: 2a8e 9fbd 07e9 7dbd 23d8 65bd b390 a3bd
000001f0: a49c 2cbe be1e 87bd 162a 44bb 7a4a 50bd
00000200: 7f27 a93d 7fb1 8b3d a9b2 903d fa93 cb3d
00000210: 2ae1 a23d bf8a 273d 20dd 543d 127f a53d
00000220: 5bb9 573b 8292 fb3d 6645 723d 9709 5abc
00000230: e790 77ba 73f4 cc3d 32fe 7e3d 6e92 923d
00000240: 079e a23d 5314 9c3d 44a5 cdbc d1e9 783d
00000250: f531 08bd 8846 c03c 42fc 86bb c187 7cbc
00000260: 6a10 983d 1aee 7b3d 2939 023c 13f5 b33d
00000270: c943 003d 6d88 463d efeb 183d 0ade bf3d
00000280: 1a16 803d 4411 2d3d e21b 5b3d c4fe 843c
00000290: 2163 463d b25d ed3c 16dc 6a3c b6dd db3c
000002a0: eb31 183d a598 5b3d 97b8 563d e029 fd3c
000002b0: f153 433c 5e8c 043c 7e10 593d 60bd a23c
000002c0: e37f 323d 3b87 5d3d 7405 c03c 66da a93c
000002d0: cf2e 053d cc99 f23c 2040 f63c 7b29 0a3c
000002e0: 370a 4e3d d785 103c 5ab7 1b3d 842d 523d
000002f0: c581 273d f111 7d3c 0991 903c 068c 5c3d
00000300: f1ca 4ebc 1534 6d3c 4b7b f93c 59b4 633b
00000310: f5f0 4c3d 42e0 9a3b 67c3 ec3c d093 4a3d
00000320: 3cde 4d3d 8db0 243d 3e74 caba 9b15 483d
00000330: e454 2a3d 3853 f03c 4ae9 94bc 249e 05bb
00000340: cb8a 62bc eb5c 973d 84f8 023d cc84 ab3c
00000350: 24f3 993d b7f5 1d3d 3c8b 123d b625 c23c
00000360: c18a 993d 47d2 ad3a f05d be3b 1340 473d
00000370: 3545 fabc 2dc6 1b3c 7181 9a3c ee1d 4f3b
00000380: acdb d8bb 78f6 23bc 8706 7abd 2430 4f3d
00000390: 57f6 79bd 8398 06bc 00df 47bd 4a5b b1b8
000003a0: 9e17 89bd dd44 afbd 9d69 acbc 97a8 7ebd
000003b0: a368 83bc 7a07 433b 0b7f 9f3b 3fd3 debd
000003c0: 778f 94bb 4a32 dcbb c2c1 fbbc 9084 55bd
000003d0: c034 b3bd 011d 61bb 9480 64bd 2371 91bd
000003e0: 04d0 00bc c2eb f0bc 0ed0 7ebd 3285 b8ba
000003f0: 5713 41bd 6f25 eabc bbea bebc b615 94bd
