en/ok_neo/ok_neo.onnx (onnx, 205645 bytes, 9 tensors)

const_fold_opt__23 f4 [32, 1]
000000 0d c0 50 3d 4f 19 6f 3d d0 7b e6 3b 39 cb b6 be
       0.050964404 0.058373746 0.0070338026 -0.35701922
000010 20 cf 07 3d 3e 2c a1 be 27 49 aa be d7 ae e5 3c
       0.033156514 -0.31479067 -0.33258936 0.028037472
000020 7d 75 a1 be b4 de f6 3c 87 3e f0 bd 06 1d 72 bc
       -0.3153495 0.03013549 -0.11730676 -0.014777428
000030 c8 7e 14 3e bb 67 19 3e 21 84 a1 be 45 43 86 3d
       0.14501488 0.14980976 -0.3154612 0.065557994
000040 55 a5 a8 be 13 5b e0 bc be 01 a1 be d3 db 43 3e
       -0.32938638 -0.027387178 -0.31446642 0.19126825
000050 8e 75 be bd 91 87 2d 3d c8 6d d1 bc 2f 32 16 bd
       -0.092997655 0.042365614 -0.025565043 -0.036668953
000060 03 ba 97 bb d3 a8 75 3e 2d 0c b0 be d9 24 18 3e
       -0.0046303286 0.23990183 -0.3438429 0.14857806
000070 10 f8 90 be dd f2 ac be a6 cc b7 be 39 1a 05 3e
       -0.28314257 -0.3377904 -0.35898322 0.12998284

const_fold_opt__22 f4 [32, 32]
000000 86 22 00 3e d5 cf 66 bd 33 44 af bd 7d 26 be 3d
       0.1251317 -0.056350548 -0.0855793 0.09284685
000010 ec 1d 86 bb 48 55 1b 3e a1 2f 16 3e db ed d4 bd
       -0.0040929224 0.15169251 0.14666606 -0.1039693
000020 13 ac e1 bd bb 4b a4 3d 40 06 2d 3e 8f c8 ec bd
       -0.11019149 0.08022257 0.16896915 -0.11561691
000030 2b 8c ac bb ee d7 7e bd 68 a0 2b 3d ed 2c c6 3d
       -0.0052657328 -0.062217645 0.041901022 0.09676538
000040 e3 5b dc bd fa 5a 16 be 5a 68 21 be e7 c4 26 3e
       -0.107597135 -0.14683142 -0.15762463 0.1628605
000050 fd 91 93 bd bd 1b 19 3e df 77 06 be ec 4e 00 be
       -0.072055794 0.14951988 -0.13131665 -0.12530106
000060 7a a4 01 3e 0b f2 29 3e 11 77 69 bd ad 27 9b 3b
       0.12660399 0.16596238 -0.056998316 0.0047349543
000070 20 02 05 bd cf dc 29 3d b3 e2 4f 3d 70 fd 2e be
       -0.03247273 0.041470345 0.050753307 -0.17088866
000080 91 f9 03 bc b4 ce d3 3d b4 06 86 3d dc bd fc 3c
       -0.008055107 0.1034216 0.06544247 0.03085225
000090 2c a3 3c bd 99 db d6 3d ad 0a dd bd ad 96 02 3c
       -0.04605405 0.10491104 -0.10793052 0.007970494
0000a0 d8 a4 ba 3d cf 34 b9 bc 74 56 09 bd 40 9e 7d 3d
       0.09113473 -0.022608189 -0.033529714 0.061918497
0000b0 88 f0 87 3d 28 f4 f0 3b d8 bd 22 be a6 ab de bc
       0.066376746 0.0073533244 -0.15892732 -0.027181458
0000c0 36 b3 77 bd 30 64 8e 3b ad 07 c1 3d 67 4d 46 3e
       -0.060473643 0.0043454394 0.09425292 0.19365464
0000d0 b0 1c cc bc db 57 22 3e f2 b5 32 3c 0b e2 58 bd
       -0.024916023 0.15853827 0.010907637 -0.052949946
0000e0 af 16 08 bd c7 4b 42 3e 9b 54 0d be ed 92 61 bd
       -0.033224758 0.1897422 -0.13801806 -0.05507176
0000f0 e0 ad 4e bd a0 1a 88 3d 10 40 27 be ca 33 34 3e
       -0.05045879 0.06645703 -0.16333032 0.17597881
000100 cb 1e 46 bd da 8b 20 3d a4 c6 ec 3d 0b 2c 0c be
       -0.04836921 0.039195873 0.11561325 -0.13688676
000110 c3 45 89 3c b0 f2 b9 3c 9e 1f 47 3b 66 28 d5 bc
       0.016756898 0.02269873 0.0030383836 -0.02602024
000120 71 33 01 3d c0 d2 da 3c e1 48 c1 3d 93 46 14 3e
       0.0315432 0.026711822 0.09437729 0.14480047
000130 ef 97 20 3d ad 9a cf bc 77 1f dc 3c 34 71 08 be
       0.039207395 -0.02534231 0.026870472 -0.13324434
000140 ca 28 90 3c 94 54 ea bd 2d 57 b4 bd cf 59 05 be
       0.017597575 -0.11441913 -0.0880569 -0.1302254
000150 c2 ba d3 3d 40 2a f4 bd ec 71 1f 3e 2c 96 73 bd
       0.103383556 -0.11922121 0.15570801 -0.059469387
000160 84 55 0a be 60 2f 01 3c 8d b4 97 3d be fd 62 bc
       -0.13509184 0.00788483 0.07407484 -0.013854442
000170 67 f0 1a bd 1b 6c 97 3d 27 07 29 3e 8e 0a 82 3c
       -0.03782692 0.07393666 0.16506635 0.015874173
000180 79 dd 8c 3d 58 f7 ea 3d 28 e7 e7 bb 2f 74 79 3d
       0.0687818 0.11472958 -0.0070771165 0.060901817
000190 d2 b6 97 3d a3 1f bf bd 18 75 b2 3c 1f 3d 01 3e
       0.07407917 -0.09332206 0.02178435 0.12620972
0001a0 36 5f 43 bd 3f b8 04 3d 0b c2 06 be a0 ea 5c bd
       -0.047698222 0.032402273 -0.13159959 -0.053934693
0001b0 95 54 1c 3e 53 ff db 3d 6e 5a f0 bd 66 b7 b1 3b
       0.1526664 0.107420586 -0.11735998 0.005423474
0001c0 a6 3e 06 3d 34 35 1e bd 10 3a c1 bd 1f 11 aa bb
       0.03277459 -0.038624957 -0.09434903 -0.0051900293
0001d0 f3 29 f7 bd 22 33 e1 bd 71 cc 0c be 2b 9c 30 3e
       -0.12068548 -0.10996081 -0.13749863 0.17247073
0001e0 7a ec 9f bd 4c 1e fe 3d 68 46 76 bd 3a f4 7a 3e
       -0.07808776 0.124081224 -0.06012574 0.24507228
0001f0 d2 94 3e 3d e0 50 b5 3d 69 ab a5 3d 26 99 8d 3d
       0.046528645 0.08853316 0.080893345 0.06913976
000200 60 13 ca bd 1a 10 5d 3e 39 9d 91 bd e5 ab a4 3d
       -0.09866977 0.21588174 -0.07110066 0.08040599
000210 c4 dd 1a 3e a6 31 1b be f1 fc d4 bd 09 95 31 be
       0.1512366 -0.15155658 -0.10399807 -0.17342009
000220 dd 66 04 3e 3f aa 15 be cd c7 2b 3e 8c af 82 bb
       0.12929864 -0.14615725 0.16775437 -0.003988212
000230 85 68 2e 3e 79 ee 0d 3e f2 f9 1f be 94 08 ee bd
       0.17032059 0.13860501 -0.1562269 -0.1162273
000240 5e 5e de bd 3e 27 aa bc f4 ab ea bd d3 de 4d 3e
       -0.10857843 -0.020770665 -0.11458579 0.20104532
000250 08 16 b8 3c 14 c2 ec bd f3 2d d8 3d 53 26 b8 bd
       0.022471443 -0.11560455 0.10555639 -0.08991685
000260 8c 72 9a 3d 61 c6 cf bd 4e b2 9c bc b7 0e 31 bb
       0.07541379 -0.1014526 -0.019127991 -0.0027016827
000270 e1 10 fc bd 3e 4e 48 3d 11 be 8d 3d 49 33 e1 3d
       -0.12307907 0.048902743 0.06921018 0.1099611
000280 74 57 04 3e dc e3 85 3d ce 73 3b bc d9 4e c8 bb
       0.12923986 0.06537601 -0.011441184 -0.006112915
000290 60 32 24 3d 59 d1 fc 3d 51 ee ec bd f6 85 29 3e
       0.040087104 0.123446174 -0.11568893 0.16555008
0002a0 ce 68 25 be 4d 27 90 bc d8 ca 01 be e1 48 18 3e
       -0.16153261 -0.017596865 -0.12675035 0.14871551
0002b0 a4 3f d4 3d a9 8c 92 bc 19 d2 f7 3d dd a5 fd bd
       0.10363701 -0.017889338 0.1210062 -0.123851515
0002c0 6f 61 ac 3d 55 d2 21 3e cc 5e 1b be a6 7f d0 bc
       0.084170215 0.15802892 -0.15172881 -0.025451493
0002d0 b4 fa 96 3d e2 b0 80 3d 5c 88 35 bc 01 6f af bd
       0.073720366 0.06283738 -0.011079874 -0.08566094
0002e0 1b d4 de 3d 7c a8 33 bd b9 19 9e 3d df 58 48 bc
       0.108803 -0.04386185 0.0771975 -0.01222822
0002f0 61 df 22 bd 13 a5 51 bd 9d 56 c4 bd ac 1c 26 be
       -0.039763812 -0.051182818 -0.09586833 -0.16221875
000300 28 80 75 bc a0 e3 0d 3e 46 3f a3 3d ee 67 e9 3c
       -0.014984168 0.13856363 0.07971053 0.02849194
000310 f9 43 fc bd f1 e0 b9 3d 32 fc 62 3c 72 e5 ee bd
       -0.12317652 0.09076107 0.013854073 -0.11664857
000320 ee df 96 3d 17 3a 52 3d 38 fc b1 bd 55 63 83 3d
       0.0736693 0.05132493 -0.08690685 0.064154305
000330 8a 7a 96 bd 08 93 35 bd ea 6e 9f 3d c3 0c 47 be
       -0.07347591 -0.044329673 0.07784827 -0.19438462
000340 a2 4e 99 bd 6f c8 6b 3c 22 6b 2a 3c 2c eb cc 3d
       -0.07485701 0.014391049 0.010401519 0.10005793
000350 60 5e bf bd 7a 23 28 be b1 67 35 bc 0e f7 c3 bb
       -0.093441725 -0.16419783 -0.011072085 -0.005980379
000360 56 13 2a be a0 60 00 bb d4 4a 1d 3e e2 ae 59 3c
       -0.16608939 -0.0019588843 0.15360576 0.013286324
000370 46 54 13 3e d0 b6 10 3e fa 1c fb 3c ac 6f 25 bd
       0.14387617 0.14132237 0.030653466 -0.0403897
000380 38 da 6a bc a5 d4 ff bd 1b f0 1a 3e 9c 36 6c 3d
       -0.014334254 -0.124917306 0.15130655 0.057669267
000390 65 22 1f 3e 92 05 3f bc f8 f0 a1 3d e7 a2 2c be
       0.15540464 -0.011659043 0.07907289 -0.16859017
0003a0 64 bb 8a 3c 3a 5f 49 3d 8b 50 05 be 1c 5a 1c be
       0.016935058 0.04916308 -0.13019006 -0.15268749
0003b0 4a 33 59 bc ff d0 cf bd 4a 93 e8 bc 12 23 03 be
       -0.013256857 -0.10147285 -0.028390545 -0.12806347
0003c0 31 c3 91 bd 07 99 04 be 2a db 0b 3e f9 2b 62 bc
       -0.07117308 -0.12949 0.13657823 -0.013804429
0003d0 bc 8d d2 bd 42 fe 21 3a fa 6c a0 bd af 2e 30 3e
       -0.1028094 0.000617955 -0.07833286 0.17205308
0003e0 4f d3 f7 bd 88 d9 d3 bc 63 d3 d5 bd fe f1 c8 3d
       -0.12100851 -0.025860563 -0.104407094 0.09811781
0003f0 c2 c5 66 3d c7 ea 08 3e e5 e9 1b 3d 52 f7 fd bd
       0.05634094 0.1337081 0.038064856 -0.12400688

const_fold_opt__20 f4 [1536, 32]
000000 46 80 b8 3c 26 1b 21 3c 8f e7 1e bc 94 c6 de 3b
       0.022522103 0.009833133 -0.009698763 0.0067985747
000010 59 df af 3a 1c 99 d1 3b 16 cc 03 bd 6e dd cd 3c
       0.0013418003 0.006396426 -0.032177053 0.02513
000020 6a 27 aa 3a fc cf 01 bd 57 25 63 3c e8 5a 7b 3c
       0.0012981717 -0.03169249 0.013863883 0.015341498
000030 fa 5f 42 3c 67 d8 fd ba 78 eb bb bb 0a b7 0c bb
       0.011863703 -0.0019366861 -0.005734857 -0.0021471404
000040 6c e7 83 3c 6a 3a 8a bc a7 5c ac 3c eb ba d7 3c
       0.016101561 -0.016873557 0.021040274 0.026334247
000050 b2 b8 db bc 7b 64 d3 3c 11 ca 46 bc 05 70 d6 b9
       -0.026821468 0.025804749 -0.012133137 -0.00040900722
000060 20 8f 8f 3b 26 6c ab 3b 8b 36 57 3c 50 bd a9 bc
       0.0043810755 0.005231398 0.013135563 -0.020720154
000070 19 43 01 3d ef f5 c5 3c bb 83 73 3c 60 9c 18 bc
       0.03155813 0.024165122 0.01486295 -0.009314626
000080 79 cd 67 3c dc 08 0c 3b 10 3e 95 bb 95 66 bf 3c
       0.01414811 0.0021367585 -0.0045545176 0.023364345
000090 94 08 89 3c 55 fc 8d 3b fa e4 63 3c 9e 7b ce bc
       0.016727723 0.004333059 0.013909573 -0.02520543
0000a0 bf c5 9f 3c 7f 74 0e 3c 44 2e 8f 3b e5 33 9a 3c
       0.019503472 0.008694767 0.004369529 0.018823573
0000b0 63 ac 13 3c af 47 b2 bc 58 4b 66 bc 7d 75 42 bc
       0.009013268 -0.021762697 -0.014056049 -0.011868832
0000c0 f7 21 a1 3b 85 7e b2 3b c2 45 86 3c 2e 81 3c bc
       0.004917379 0.005447211 0.016390685 -0.011505408
0000d0 5f ad 9a b9 77 c7 a9 3c bd 01 45 ba 28 a6 db 3b
       -0.0002950234 0.020724995 -0.00075152126 0.006703157
0000e0 a9 e2 99 3b 5c cc b5 bc 95 6d a0 bc df 2d 87 3c
       0.0046962094 -0.022192173 -0.019583503 0.016501365
0000f0 cd af 7a 3c ac 82 e2 3b e6 60 80 39 ad 96 55 bc
       0.015300703 0.00691255 0.00024486257 -0.013036412
000100 c9 ea 9f 3b 60 88 d5 bc 26 68 c4 3c 28 25 55 bb
       0.0048802835 -0.026066005 0.023975443 -0.0032523368
000110 1e 38 b1 bc b1 9e 49 3c e9 f4 1f 3b c2 9b 80 3c
       -0.021633204 0.012305901 0.0024407452 0.015699271
000120 87 71 28 3c 87 ef 20 3c 45 06 8d 3c 9f 5a c4 3b
       0.010280973 0.009822733 0.017214904 0.005992248
000130 c3 6c 6c ba e8 ed 57 3c 61 e2 65 bc 07 54 1b bc
       -0.00090188923 0.01317928 -0.014031024 -0.009480483
000140 39 37 b0 bc 46 fc 02 3d 14 d3 0e bd 8f 50 46 bc
       -0.021510707 0.031978868 -0.03486927 -0.012104168
000150 98 3f 72 bc ba 7a 74 bc 1f 6d 79 3a e3 3f ff bc
       -0.01478567 -0.014921838 0.00095148565 -0.031158393
000160 1b e2 ce 3c 0c b0 1d bc 0f 46 b2 3c 7e 68 35 3c
       0.0252543 -0.009624492 0.021761922 0.011072276
000170 29 5f cb bc da b2 b2 bb b5 98 99 3c a5 1f 81 3c
       -0.02482565 -0.0054534497 0.018749574 0.01576216
000180 e4 9c 93 ba d4 1f 0a bd e9 12 bb bc 22 a2 45 3c
       -0.0011261967 -0.03372176 -0.022836166 0.012062581
000190 96 c7 16 3c f6 1a 4c 3c 1c ea 03 bc be 40 5c bb
       0.009202858 0.0124576 -0.0080514215 -0.0033607925
0001a0 bc 6c 14 bd 1e cb a3 bc ca 08 0d 3d 60 e9 5a 3b
       -0.03623651 -0.019994315 0.03443221 0.0033403262
0001b0 fa 40 56 3c a0 40 69 3c 2d d8 17 3d 66 78 11 ba
       0.013077015 0.014236599 0.037071396 -0.0005549252
0001c0 32 92 be 3c c8 27 02 bd 12 b9 e4 bb 73 cf 19 bd
       0.02326307 -0.03177622 -0.00698007 -0.037551355
0001d0 7f f2 c2 bc fc 6a 3f bc 94 0e ed bc 8e 5c c8 3c
       -0.023797272 -0.011683222 -0.028937615 0.024458196
0001e0 82 4f c4 3c c9 6f f6 3c 62 80 d1 3b 4c ad 94 bc
       0.023963694 0.0300826 0.0063934783 -0.01814904
0001f0 4e 78 4d 3c a8 c4 dd bc e2 17 2c 3d f4 26 96 bc
       0.01254089 -0.027071312 0.042014964 -0.018329121
000200 02 45 1b 3d d6 f7 0c 3d e0 3d 97 3c ed 28 01 3d
       0.037907608 0.034416042 0.018462121 0.03153317
000210 45 f3 5a 3d 52 13 94 3c 68 8d fa bc 77 36 a4 3c
       0.053454656 0.018075619 -0.030585006 0.020045502
000220 ea 1c 05 3c bf fd d3 bc 60 b5 84 bc e1 16 2e 3c
       0.008124569 -0.025877832 -0.016199768 0.010625572
000230 94 b1 17 3c 51 85 24 3d d4 1e c0 bb 17 ba 5f 3b
       0.0092586465 0.040166203 -0.00586305 0.0034138018
000240 50 5a b1 3c 73 4e ca 3b b1 56 01 3b 21 c4 f1 3c
       0.02164951 0.0061739027 0.001973551 0.029512467
000250 74 3a 22 bc 47 0b 56 3d 1b c1 6d bc 12 81 ac 3c
       -0.009901632 0.05225685 -0.014511372 0.02105764
000260 a6 e6 0a bc 10 a2 b1 3c b9 ad 2d 3d 69 10 fa bc
       -0.008477842 0.021683723 0.042402003 -0.030525403
000270 4b 8e 2c 3d a8 7b 31 3d 11 a9 2b 3d 9a 12 06 bc
       0.04212789 0.04333082 0.04190928 -0.008183146
000280 1f be 39 3c ae 30 fd bb 55 34 f1 3a 7a bf 99 bc
       0.011336832 -0.0077267503 0.0018402437 -0.018768061
000290 80 db 61 bb 70 9a 8b bc 8f 41 bd ba 64 84 cf 3a
       -0.0034463108 -0.017041415 -0.0014439094 0.0015832302
0002a0 4c 13 52 bc a2 fc ed 3a 98 80 0b bc 8c f9 6c 3c
       -0.012821984 0.0018156955 -0.008514546 0.0144637935
0002b0 d2 93 32 3c e3 37 d9 bc 61 28 a1 3c fd 8e 84 bc
       0.010899501 -0.026515907 0.019672574 -0.016181463
0002c0 49 1e b3 bc ec 05 ac bc 53 33 d0 3c 79 78 ae ba
       -0.021865027 -0.020998918 0.025415098 -0.001331105
0002d0 2c 2c 34 bc f6 b4 ac 3c 1b 77 cd 3b 1e ed 16 bb
       -0.0109968595 0.021082383 0.006270302 -0.0023029516
0002e0 d1 13 df 3b fb 78 2f 3c 73 93 db bb 80 8c db bb
       0.006807782 0.010709996 -0.006700927 -0.0067000985
0002f0 ca 18 bd bb 57 0e c5 3b 60 7b 29 3b 0a 25 b1 bb
       -0.0057707774 0.0060136723 0.002586089 -0.0054060267
000300 4c 82 a0 3c 1b 44 ce bc e2 d7 fb bb 42 da 72 3c
       0.01959338 -0.02517896 -0.0076856473 0.0148225445
000310 18 55 27 bb 7f 55 b0 bc 19 e5 9f 3c 02 fc 51 3a
       -0.0025532898 -0.021525143 0.019518422 0.00080102694
000320 23 bc 78 3b 1b e9 03 3b 81 1d 31 3c a6 a3 c2 bb
       0.0037953935 0.0020127955 0.010810257 -0.0059399186
000330 16 f9 6a bc e7 b3 ca bc b8 64 fb 3c 81 a7 98 3c
       -0.014341613 -0.024743987 0.030687675 0.01863456
000340 ce dc 49 bc 0a 61 8f bc 9b 7c 96 3c 66 3f 87 bc
       -0.01232071 -0.017502327 0.018369963 -0.016509723
000350 06 a0 7c bb d8 e2 a0 3c da b3 8f 3c 6c df 8f bc
       -0.003854753 0.019639418 0.017541815 -0.01756259
000360 35 15 3c 3c 4b a9 12 3b d0 54 ab 3c 63 cb 1d 3c
       0.0114796655 0.0022378739 0.020914465 0.009631011
000370 dd bc a2 3c 6c c6 76 bb 34 86 c8 bc e4 25 95 3c
       0.019865448 -0.003765489 -0.024478056 0.018206544
000380 6e e8 90 bc da 10 d3 bc c4 01 f4 3b b1 f6 77 bc
       -0.017688956 -0.025764871 0.0074464995 -0.015134499
000390 3a a9 a9 b9 b6 24 70 3c 8d 57 bb 3c 60 71 da bb
       -0.00032360276 0.01465719 0.022868896 -0.0066663474
0003a0 aa 8c d7 bc e9 f0 c3 bc bc 9c 92 3b 79 31 e7 3b
       -0.026312191 -0.023918586 0.0044742506 0.007055458
0003b0 1a 8b 97 bc 78 1a c4 bc d4 80 dd bb 6a ae 85 bc
       -0.018498946 -0.023938403 -0.0067597423 -0.016318519
0003c0 68 86 91 bb 18 46 0f bc 3d a5 31 3c 3f 9d 0c bd
       -0.0044410713 -0.008744739 0.0108426185 -0.03432965
0003d0 fa 8c d1 bc 26 e7 b1 ba 73 39 a3 bc bd 64 20 bc
       -0.025579918 -0.0013572916 -0.019924855 -0.009789643
0003e0 e0 af c5 ba f3 cd 8a b9 31 a2 cc bc 6b 28 45 bc
       -0.0015082322 -0.00026474855 -0.024979683 -0.012033562
0003f0 16 55 2c 3b ca ca c7 bc f3 75 ab bc c1 e7 c2 ba
       0.0026295832 -0.02438869 -0.020930266 -0.0014870093

Const_7 f4 [32]
000000 88 65 53 3c f7 72 aa 3b a0 4b d8 3a 8d 2e 5a 3e
       0.012902625 0.005201693 0.001650203 0.2130682
000010 03 18 e9 3c 21 8c 62 3e 6e 4f 7f 3e 96 f5 a3 3b
       0.028453832 0.22123767 0.24932644 0.0050036414
000020 93 a4 64 3e a4 05 19 3d 74 4f da 3d b7 58 1a bc
       0.22328405 0.037358895 0.10659686 -0.009420565
000030 a7 0d 17 3d 93 68 fc 3c 8e 0b 8f 3e 06 52 1d 3c
       0.036878254 0.030811584 0.27938503 0.009602075
000040 ec f3 73 3e 56 50 33 bd 47 b1 87 3e 0d aa 0e 3d
       0.23823518 -0.043777786 0.2650244 0.03483014
000050 d8 d3 3e bd 23 19 f2 39 37 14 c7 bc 91 97 b4 bd
       -0.04658875 0.00046176565 -0.024301631 -0.088179715
000060 58 f8 66 bc ac 62 d7 3d b1 d5 6c 3e c3 09 cb 3d
       -0.014097296 0.10516867 0.23128392 0.09913971
000070 42 49 76 3e ea 03 69 3e 57 fe 5e 3e 9e 44 8b 3c
       0.24051383 0.227554 0.2177671 0.017000493

Const_6 f4 [32]
000000 d4 86 80 3f 7a 1a 81 3f ca 76 7f 3f 9d ca 99 3f
       1.0041146 1.0086205 0.9979063 1.2014958
000010 28 29 86 3f 40 08 9a 3f 21 86 a4 3f 10 83 7f 3f
       1.048131 1.2033768 1.2853433 0.9980936
000020 91 2f 9b 3f e3 da 84 3f aa bc 86 3f 68 08 7e 3f
       1.2123891 1.0379299 1.0526326 0.99231577
000030 2f 71 87 3f d4 7f 8b 3f d2 35 ae 3f 07 31 80 3f
       1.0581416 1.0898385 1.3610175 1.0014962
000040 bd be 9f 3f e8 2d 78 3f 8b 18 a9 3f e3 ae 85 3f
       1.2480084 0.9694505 1.3210615 1.0443996
000050 2a 8c 72 3f 6d 80 81 3f f4 7f 78 3f 80 55 68 3f
       0.94745123 1.0117317 0.9707024 0.9075546
000060 c8 f2 7d 3f 44 55 8e 3f 3c 3a 9f 3f e9 7d 94 3f
       0.9919858 1.1119771 1.2439647 1.1600925
000070 99 e4 9e 3f 59 05 9e 3f dd 29 9b 3f b1 4f 84 3f
       1.2413512 1.2345382 1.2122151 1.033682

Const_5 f4 [32]
000000 9c 4e e3 bd 9e 3a d3 bd 85 48 e1 bd a1 21 2e 3e
       -0.11098978 -0.10313915 -0.1100016 0.17005016
000010 62 67 18 bc fd 2f bb bc 3d 32 e4 3d f9 5c 75 3c
       -0.009301992 -0.022850031 0.11142395 0.01497578
000020 d1 d3 6e bd e3 5f b4 3d 98 e7 ad bd e4 09 32 be
       -0.058307473 0.088073514 -0.084914386 -0.17386585
000030 98 9c 2a 3b 9d 24 79 bd 76 35 0b 3e 99 5f cd 3d
       0.0026033279 -0.060825933 0.13594612 0.100279994
000040 0e 0a b5 bd de 55 d1 bd 68 02 43 bd 5a 0a 8b bc
       -0.088398084 -0.10221456 -0.047609717 -0.01697271
000050 c8 72 5b 3d 79 1a ec 3d f4 e4 7f bd ff 14 fd bd
       0.05357626 0.11528487 -0.062474206 -0.1235752
000060 f5 4b e9 3b 52 97 8e 3d 23 c4 85 3c d8 2e c4 3d
       0.0071196505 0.06962456 0.016328877 0.09579247
000070 66 9d b5 3c e5 84 35 3e 38 e7 e7 bd 75 d9 83 3d
       0.02216978 0.17726476 -0.11323398 0.06437961

Const_3 f4 [32]
000000 b9 40 1c bc 39 1f c7 3b 33 ad c4 bb 38 eb 33 3c
       -0.009536915 0.00607672 -0.0060020923 0.0109813735
000010 e2 a1 42 bb 91 7b 33 bc 59 2f 6b 3c 5e fe 0a bc
       -0.002969854 -0.0109547535 0.01435455 -0.008483497
000020 63 38 a3 ba 2b e6 bd 3c cb 4e db 3c f9 df 0d bc
       -0.0012452718 0.023181042 0.02677097 -0.008659356
000030 e5 7c 4e bc c0 ed db bb 71 2f 34 bc 90 48 07 bc
       -0.012603019 -0.0067116916 -0.010997639 -0.008257046
000040 55 26 43 bc 07 c2 b4 3b 69 3f 6e ba 4f c8 d9 3b
       -0.011910995 0.005516294 -0.00090884283 0.006646193
000050 7f 4c 17 3c b2 f1 3a 3c 7e 6f 69 3b 6d c7 db bb
       0.009234547 0.011410164 0.0035619433 -0.006707123
000060 03 1a e6 3c 29 24 a4 3c 29 9f 09 bc 98 6c 4a 3c
       0.028088575 0.020036774 -0.008399763 0.012354992
000070 d7 d0 9e ba 57 29 2e bd 93 3d 00 bc f8 fa 3c 3c
       -0.0012116682 -0.042519893 -0.00782718 0.011534445

Const_2 f4 [32]
000000 a0 6b 7c 3f 1a e8 81 3f dd 0c 7a 3f da ec 78 3f
       0.9860172 1.0148957 0.9767588 0.97236407
000010 e9 3e 7a 3f ec 04 7f 3f 0d 33 81 3f 85 37 7d 3f
       0.97752243 0.99616885 1.0093704 0.9891284
000020 01 9d 7e 3f d9 9d 87 3f 5e d5 81 3f 07 1e 7e 3f
       0.9945832 1.0595046 1.014324 0.9926457
000030 69 ca 7e 3f 2a 05 7e 3f 8d 5d 7d 3f 2d 97 7f 3f
       0.99527603 0.9922663 0.9897087 0.9984005
000040 35 72 7c 3f 3a eb 7e 3f 4c b0 7c 3f c6 a7 80 3f
       0.98611766 0.9957768 0.9870651 1.00512
000050 fe d9 7d 3f 0d 49 82 3f 16 50 76 3f bf e3 7d 3f
       0.99160755 1.0178543 0.9621595 0.9917564
000060 b7 5e 7b 3f 2b f8 7b 3f fe 6b 7e 3f 50 ea 81 3f
       0.981914 0.9842555 0.99383533 1.0149632
000070 47 f3 7c 3f ea 7c 76 3f ea 83 7e 3f dd 8e 79 3f
       0.9880871 0.96284354 0.99420035 0.9748362

Const_1 f4 [32]
000000 5b 8b 3a 3c 22 5c 96 3c d1 2f 28 3c 27 17 fd bb
       0.011385764 0.01835448 0.010265307 -0.0077237072
000010 06 5f d0 bc de 39 a1 bc 53 b2 64 bc 7d 93 5b 3c
       -0.025435936 -0.019680914 -0.013958531 0.013401863
000020 fa 7b 58 3c 62 87 9a b9 70 f2 ce 3c de 41 19 bc
       0.013213152 -0.00029474037 0.025262088 -0.009354083
000030 f2 1e c1 3c 40 94 75 3b 8e c7 1c bc c7 81 be bc
       0.023574326 0.0037472397 -0.009569062 -0.023255242
000040 c4 27 a7 3c 79 85 c1 3a a8 db 74 3c 41 df 8a 3c
       0.020404704 0.0014764509 0.014944948 0.016952159
000050 78 71 55 3c e9 a9 08 bc 71 2f 0f bc 24 01 01 3c
       0.013027541 -0.008341291 -0.008739338 0.007873807
000060 95 c8 ce 3c 7f 60 1e b9 c1 31 16 3c aa f0 ef 3c
       0.02524213 -0.00015104002 0.009167136 0.029289562
000070 a2 eb 05 3b 8c 81 e1 bc 44 8e b5 bb 70 3f 1f bc
       0.0020434638 -0.027527593 -0.005540641 -0.0097197145
