en/hey_nabu/hey_nabu_v1.onnx (onnx, 208138 bytes, 9 tensors)

model/tf.math.add_1/Add/y f4 [32]
000000 74 82 97 3d 59 b3 80 bd e9 34 33 be d8 c7 29 bd
       0.07397929 -0.06284208 -0.17500652 -0.04145035
000010 1e b9 31 3e e5 ac 6a 3e 3b bf f2 bd 7e 7c 13 bd
       0.17355773 0.22917517 -0.118528806 -0.036007397
000020 47 72 04 3e a6 da b1 bd 6c b2 32 be 8a 18 28 bd
       0.12934218 -0.08684282 -0.17450875 -0.041039027
000030 9f 5e 3d 3e f8 16 3a be 02 7f 24 be 84 7a 47 3d
       0.18493126 -0.18172824 -0.16064075 0.048700824
000040 3e 38 38 3c 75 5b d8 bd 35 3c e3 ba 95 4b 03 3d
       0.011243878 -0.10564319 -0.0017336669 0.032054503
000050 f3 8d 5b 3e 89 ac 85 bd 67 46 fd bd 39 5f 28 bd
       0.21440868 -0.06527049 -0.12366944 -0.041106436
000060 4c 48 17 be 66 a1 74 3e 2c f4 23 bc 1b 43 5e bd
       -0.14773673 0.23889694 -0.010006946 -0.054263216
000070 51 03 12 be a9 0e d9 3c 7b 3c 2b be a0 fc 4c 3d
       -0.14259078 0.026496248 -0.1672229 0.05004561

model/tf.math.add/Add/y f4 [32]
000000 b8 11 95 bc a6 ae 84 bb 10 ce 3b 3d 26 dc dd 3b
       -0.018196926 -0.00404914 0.045850813 0.0067706285
000010 7a b0 4b bc 6f e9 86 ba 5e 0b 0c 3c 76 3b 2d 3c
       -0.012432212 -0.0010292957 0.008547632 0.010573259
000020 86 d8 0d bd 2a 07 0b bd d3 da 44 3d af c8 63 3c
       -0.03463032 -0.03394238 0.04806025 0.013902827
000030 db 80 bb bc 6f 9d 96 3d 4f ad 84 3d 29 b5 5b 3d
       -0.022888592 0.07354247 0.064783685 0.053639565
000040 0e ca 10 3d c1 52 64 3d a1 41 d3 bc 9e 5d 4c 3d
       0.035348944 0.055742983 -0.02578813 0.049893968
000050 f0 0d 38 3d 4a 93 11 bd f6 14 32 3d 19 8a 00 bd
       0.044935167 -0.035540856 0.04347702 -0.0313817
000060 a1 98 f3 bb 4c e4 24 3d 59 48 41 3c ba 93 8a 3d
       -0.0074339663 0.040256783 0.011797034 0.06766458
000070 64 95 52 3c 8a d8 f1 bc 82 ca 1f 3d 90 e6 a5 3d
       0.012853 -0.0295222 0.039011486 0.08100617

model/layer_normalization_1/batchnorm/mul/ReadVariableOp/resource f4 [32]
000000 35 4c a1 3f 0f 20 87 3f bb f2 8a 3f c8 0e a8 3f
       1.2601382 1.0556659 1.0855325 1.3129511
000010 54 52 a1 3f ab ad ac 3f 78 d8 a2 3f 72 89 a1 3f
       1.260325 1.3490499 1.2722311 1.262007
000020 80 07 ba 3f ef 73 ad 3f fa b3 b0 3f 5d d6 af 3f
       1.4533539 1.3551005 1.3804924 1.3737293
000030 97 d4 88 3f 0b ed ab 3f d8 3b a9 3f c8 d0 88 3f
       1.0689877 1.3431715 1.3221388 1.0688715
000040 15 df 93 3f 05 45 a3 3f 20 f9 a4 3f 90 3a a7 3f
       1.1552454 1.2755438 1.2888527 1.3064747
000050 9f 3a a0 3f b4 81 b8 3f cc 18 a9 3f 9f 24 b0 3f
       1.251789 1.4414582 1.3210692 1.3761176
000060 b3 62 b2 3f 8f ce a2 3f 79 d9 a8 3f 5f 7b 96 3f
       1.3936371 1.2719287 1.3191367 1.17564
000070 5b db 83 3f f5 a8 9e 3f 21 99 a0 3f c7 09 a4 3f
       1.0301317 1.2395312 1.2546731 1.2815484

model/layer_normalization_1/batchnorm/ReadVariableOp/resource f4 [32]
000000 b8 14 81 3e 4c 12 83 3d d8 a0 c7 3d 6f 53 15 3e
       0.2521112 0.06399974 0.097474754 0.14582609
000010 8c 2a 95 bd 2b 7b 7d 3e 6f 0b 06 3e dd d2 5d 3d
       -0.07283506 0.24754016 0.13090299 0.054156173
000020 28 9a 99 3e b6 55 fd 3d da 7f bd 3d c5 b7 8b 3e
       0.30000424 0.12369864 0.092529014 0.27288643
000030 e8 b2 4c 3e ba ea 2c 3e 21 ad 81 3d 1a 5c 2d be
       0.19990122 0.16886416 0.0633185 -0.16929665
000040 88 83 79 3e 5f 73 81 3d 70 9f 87 3d 91 f9 63 3e
       0.24366581 0.063208334 0.06622207 0.22263171
000050 03 06 85 3e d2 c1 7c 3d 87 10 0e bb a9 81 35 3e
       0.2598115 0.06170828 -0.0021677332 0.17725243
000060 e4 a8 45 3d 99 a0 84 3e 96 d4 f1 3d 58 b7 c6 3d
       0.04825677 0.25903776 0.11808126 0.09702939
000070 36 ae 72 bd 7a 8a df 3d d1 70 b0 3d 7b 7a a8 3d
       -0.05924817 0.10915084 0.08615268 0.08226486

model/layer_normalization/batchnorm/mul/ReadVariableOp/resource f4 [32]
000000 6a 22 70 3f 6d 7c 88 3f ce a9 9f 3f 23 3e 7e 3f
       0.9380251 1.0662972 1.2473695 0.99313563
000010 13 9f 83 3f ff 86 7a 3f 88 2b 8c 3f 9d db 80 3f
       1.0282921 0.9786224 1.0950785 1.0067021
000020 9a f5 88 3f 51 fc 80 3f c2 6c 93 3f c9 28 84 3f
       1.0699952 1.0077001 1.1517565 1.0324947
000030 f1 ee 86 3f f4 11 a0 3f 19 da a0 3f c0 b1 85 3f
       1.0541669 1.2505479 1.2566558 1.044487
000040 b7 44 70 3f a1 eb 97 3f 21 3d 7d 3f dc d4 92 3f
       0.9385485 1.1868783 0.989214 1.147121
000050 85 28 78 3f 73 39 94 3f 0e d7 5c 3f d0 b5 82 3f
       0.9693683 1.1580032 0.8626565 1.0211735
000060 11 1f 79 3f 7a b0 7a 3f 16 ca 88 3f 54 cd ac 3f
       0.9731303 0.9792553 1.0686672 1.3500161
000070 12 ae 75 3f 21 12 86 3f 04 a8 74 3f 0d 22 a2 3f
       0.95968735 1.0474283 0.9556887 1.2666641

model/layer_normalization/batchnorm/ReadVariableOp/resource f4 [32]
000000 51 c4 49 bd 55 a5 11 3c f1 0f 5d 3d 08 c6 2d bc
       -0.049259488 0.008889516 0.05397028 -0.010606296
000010 74 b4 30 3d b6 19 07 bd 43 e8 ba 3d 7f 00 52 3c
       0.043140844 -0.032983504 0.09126332 0.012817501
000020 63 46 f0 3b 60 c0 25 bd 90 36 5f 3d f7 86 90 bc
       0.0073326095 -0.040466666 0.054495394 -0.017642481
000030 1c e6 8d 3d 1c 30 53 3d b2 9f 77 3d 64 17 61 3d
       0.069286555 0.051559553 0.06045503 0.054953948
000040 08 02 03 3d 1f 5b 7b 3d 36 d5 51 bd cf 63 93 3d
       0.03198436 0.061366197 -0.051228724 0.07196771
000050 df 13 72 3d c5 f1 56 bc 48 c8 f5 bd eb 56 16 bd
       0.05910098 -0.013119166 -0.12001091 -0.036703985
000060 be de d3 bb bd a4 ca 3c f1 29 f2 bc d2 be 90 3d
       -0.006465762 0.024736756 -0.029561015 0.07067646
000070 76 df 21 3c be ca 91 3d 22 17 09 3d 10 f8 39 3d
       0.009879937 0.07118748 0.033469327 0.045402586

const_fold_opt__25 f4 [32, 32]
000000 be d8 e3 bd cd e9 ac 3b f3 9c d0 3c 75 28 eb bc
       -0.11125325 0.0052768947 0.025465464 -0.028705815
000010 35 63 1e 3e 85 e4 21 3e 6a 02 ad 3d 89 a8 a7 3d
       0.15467532 0.1580983 0.08447726 0.081864424
000020 6d a4 bb 3d c7 6c 14 bd a4 5a 2a 3e cf 59 66 3d
       0.09162221 -0.03623655 0.16636139 0.056237992
000030 b2 4e 3e bd c6 52 d2 3c 58 e7 80 3e 48 02 9d 3c
       -0.04646177 0.025674235 0.251765 0.019166127
000040 ba 67 ea bd 71 e9 3c 3d 26 38 d5 3d 59 1d fb 3d
       -0.114455655 0.046121065 0.104111 0.12261457
000050 8a 28 62 3d ff 04 dc bd e6 ea 92 3e d2 80 65 bd
       0.055214442 -0.107431404 0.28694838 -0.056031056
000060 28 7f 87 3e 7f 99 2b be 95 7f a8 3d bc 40 78 3d
       0.264642 -0.16757773 0.08227459 0.06060861
000070 65 76 4e 3c 9e 5b 6f bd 13 e3 f5 3d b9 de e8 bd
       0.01260147 -0.058436982 0.120062016 -0.11370606
000080 34 0d 56 3d c8 a1 3a 3d d8 5e 4c 3b e1 e0 44 3e
       0.052258685 0.045564443 0.003118446 0.1922641
000090 ac 51 26 3e bc 0e 58 be 63 c3 8c 3e a7 86 89 3e
       0.16242093 -0.2109937 0.27492818 0.26860544
0000a0 b6 00 d4 3c 92 45 00 3e 35 bf 34 3e 94 00 06 be
       0.025879245 0.12526539 0.17651065 -0.13086158
0000b0 aa 8c eb bd 6f 23 80 3e 7e f8 98 3e b1 74 37 3c
       -0.11501439 0.25027034 0.29877084 0.011197255
0000c0 b5 9a 27 bd b2 8e d4 3d 14 63 7a 3e dd 4e 3c be
       -0.040919024 0.103787795 0.24451858 -0.18389459
0000d0 59 ee 61 bd b9 07 14 3e fb 7f 96 3e b2 05 4e 3e
       -0.055158947 0.14456071 0.29394516 0.2011936
0000e0 75 40 85 3e 3b 9c 17 be 7a 31 58 3e 07 92 a0 3e
       0.2602574 -0.14805691 0.21112624 0.3136141
0000f0 7b 0e fb 3c ee d5 04 3e 4c c8 9c 3e 13 59 1c 3e
       0.030646553 0.12972233 0.30621564 0.15268354
000100 cc 65 99 3e 15 51 19 3d 8e 5a 81 3d f6 ac 57 be
       0.29960477 0.03743084 0.063161 -0.21062073
000110 0a ca 99 3d c4 6d be 3e b5 01 7c be ab bc 4c bd
       0.07509239 0.3719312 -0.24610026 -0.049984615
000120 0f 93 c8 3e 0a 46 89 be cb ea 0d 3c ca 29 8f 3e
       0.39174697 -0.26811248 0.008661936 0.2796157
000130 7f 24 dd 3e fe 46 45 be 75 18 cc 3d fc 58 af 3d
       0.43191907 -0.19265363 0.09965602 0.08561894
000140 56 4f 96 3e 9d 8f 2f be c5 ef dd bd e4 b1 83 3e
       0.29357404 -0.17144628 -0.10836748 0.25721657
000150 86 8a 6c 3e 05 83 46 be e3 35 b4 3d 16 84 28 be
       0.23099717 -0.19385917 0.087993406 -0.16456637
000160 b3 40 96 3d 01 cf ac 3e 57 3c 4a bd c8 7a cd bd
       0.07336559 0.3375168 -0.04937395 -0.10033184
000170 11 dc 8d 3e 50 ac 93 be 19 f4 bc bd 8c 47 49 be
       0.2770696 -0.28842402 -0.092262454 -0.19656199
000180 2a 60 fc bd 49 72 f8 3d 17 90 04 bd a2 a1 69 3e
       -0.12323029 0.12131173 -0.032363977 0.22815564
000190 9f 81 b3 3c cb f3 b0 bd 00 99 f8 3d 88 c3 8f 3d
       0.021912394 -0.0864025 0.121385574 0.070197165
0001a0 ba 15 4d bc ed 79 20 3e b3 c2 44 3e cc 16 f9 bd
       -0.012517387 0.15671511 0.19214897 -0.12162551
0001b0 fb d4 dc bc 46 f7 28 3e 53 21 9a 3e c8 74 22 bc
       -0.026957026 0.16500577 0.3010355 -0.009915538
0001c0 a1 e1 2c bd 05 42 fa 3d c3 9d 36 3e a3 10 05 be
       -0.042207364 0.122196235 0.17833619 -0.12994628
0001d0 b5 42 5f 3d 64 b1 ba 3c 69 08 45 3e a0 e7 75 3e
       0.054506976 0.022789665 0.1924149 0.24014139
0001e0 8a 3e 5b 3e 70 eb 0e 3d bd d5 22 3d c9 4d 43 3e
       0.21410576 0.0348925 0.039754618 0.19072641
0001f0 82 2e 93 bd f2 11 41 3e 88 b9 8b 3e 91 04 20 3e
       -0.07186605 0.18854502 0.27289987 0.15626742
000200 b7 d7 b7 bd 71 e9 c1 3d be b6 17 bc 00 61 02 3d
       -0.08976691 0.094683535 -0.009259878 0.031830788
000210 3b b8 90 3d d2 e1 92 bd 51 0a 52 3e 35 23 a5 3d
       0.07066389 -0.07171978 0.20511748 0.08063356
000220 8b cd 81 bd b4 e8 5b 3d e8 1e 17 3e b3 49 86 be
       -0.06338032 0.05368872 0.14757884 -0.26228103
000230 5e bd 77 be 2e 6e f2 3d e6 49 33 3e 90 09 88 bd
       -0.24193332 0.11837421 0.17508659 -0.06642449
000240 cf 7d 6c bd 8a 7f cd 3c b2 e2 90 3e e3 e0 8e bd
       -0.057737168 0.02508523 0.28297955 -0.069764875
000250 f5 f1 38 bd 2d 13 c5 3c 78 0e b7 3e 45 ef 83 3c
       -0.045152623 0.024056995 0.35753226 0.016105304
000260 cc af 56 3e 99 6c 16 be 80 d9 1a 3e 37 57 2a 3e
       0.20965499 -0.14689864 0.15122032 0.16634832
000270 1e 09 9c bd 54 23 1f 3e 7a 91 67 3e 5f 12 97 3d
       -0.076189265 0.1554082 0.22614089 0.07376551
000280 89 5a 9d bc 16 4e 7f 3d ae 38 b0 bd c2 29 21 3d
       -0.01920821 0.062330328 -0.08604561 0.039346464
000290 af 16 54 3c ba 61 98 bd 18 1d 1d 3e a6 49 a3 3d
       0.012944861 -0.07440515 0.1534313 0.07973032
0002a0 09 4b 90 3d 6e 4b fd 3d d2 a1 b9 3d c4 e8 ba 3b
       0.07045562 0.12367903 0.09064068 0.0057040174
0002b0 2f 4c 37 be 4b 4d 05 3e 45 ec 8c 3c eb 7a 8b bd
       -0.17900155 0.13017766 0.017202506 -0.06810554
0002c0 74 4b 14 3d e3 61 ec 3d a7 a2 64 bd d3 8e 05 be
       0.03620477 0.11542108 -0.05581918 -0.13042764
0002d0 c8 1e 12 be c8 30 25 3e e7 7d 1a 3e 7d d2 41 3e
       -0.14269555 0.1613189 0.1508709 0.18927951
0002e0 64 4e 6a bc 5a 5d c0 bd 53 a0 36 3d 1a 25 39 3e
       -0.014300916 -0.093928054 0.04458649 0.1808056
0002f0 8a c9 f1 bd 51 e1 13 3e 64 a6 98 3d ed 77 e8 3c
       -0.11806019 0.1444142 0.074536115 0.028377498
000300 c1 a0 e2 bd 61 91 40 bd e0 ca 45 bd f2 57 30 3c
       -0.110658176 -0.047013644 -0.04828918 0.010763155
000310 59 02 9f 3d 3e 6d 4e be 4d 53 dd 3d 1f f1 b3 3d
       0.0776412 -0.2015886 0.10806904 0.087862246
000320 fd 54 d6 bd 84 1b 00 3e 6b 9b 87 3e d2 95 5a bd
       -0.10465429 0.12510496 0.26485762 -0.053365536
000330 09 a7 ee bd b9 f7 46 3e 80 6e 89 3e 2c 4b 05 be
       -0.11652953 0.19430436 0.26842117 -0.13016957
000340 40 0c a7 bd 03 41 00 3e 08 c9 2f 3e c0 5c 26 bc
       -0.081566334 0.125248 0.17166531 -0.010153949
000350 0c 30 30 be 8c c1 1a 3e 3d cf a0 3e 7f d9 af 3d
       -0.17205828 0.15112895 0.3140811 0.08586406
000360 ac b6 19 3e 5b 98 46 be 26 e6 60 3e 5b ba ed 3d
       0.1501109 -0.19394056 0.21962795 0.1160781
000370 ab 8a 0d be 09 22 f9 3d f5 90 9a 3e 83 61 75 3e
       -0.13822429 0.12164695 0.30188718 0.23962979
000380 e9 2b f2 bd 33 1b 5d 3d 21 0d c2 bc 34 c0 b6 3c
       -0.118247814 0.053981017 -0.023687901 0.022308446
000390 00 b4 23 3e 7a e1 50 be 11 30 60 3e c2 7f e2 3d
       0.15986633 -0.20398512 0.21893336 0.11059524
0003a0 2a c5 da 3d 28 ba fc 3c 33 d6 72 3d b3 bb 19 be
       0.10682137 0.030850485 0.059286308 -0.15013008
0003b0 7e cb 97 3d c6 02 66 3d 82 79 76 3e 08 d6 cb 3d
       0.0741186 0.05615499 0.24069789 0.099529326
0003c0 2a 29 11 be 3c 51 f3 3c 37 41 44 3e 7a a1 b7 bd
       -0.14175859 0.029701822 0.19165502 -0.08966346
0003d0 28 0f 00 bd b4 02 d7 3c 67 33 9b 3e ef 3d 46 3e
       -0.031264454 0.026246406 0.30312654 0.19359563
0003e0 e4 04 6f 3e d5 66 97 3d e7 65 38 3e a9 0b 8a 3d
       0.2334171 0.073926605 0.18007623 0.06740505
0003f0 0c 00 21 bc e8 07 9b 3d b8 20 04 3e f2 48 2d 3e
       -0.009826671 0.07569867 0.12903106 0.16922358

const_fold_opt__23 f4 [32, 1]
000000 26 c9 c3 be 41 23 1a 3e cf b7 08 3e b5 52 ba 3e
       -0.38239402 0.15052511 0.13351367 0.36391225
000010 7d ce 7d 3e 49 15 ef be 9d 3a ad 3e ad 42 84 3e
       0.247858 -0.46695927 0.3383378 0.2583212
000020 bc 26 eb be fd 50 d3 3e 16 38 c1 3e 4c 3c c9 be
       -0.4592799 0.41272727 0.37738103 -0.39303815
000030 20 74 58 be 97 a4 e4 3e 3c a7 e6 3e 12 f3 80 be
       -0.21138048 0.44656822 0.45049465 -0.25185448
000040 f8 22 76 be 1a cd 9d 3e 38 df d0 3e e1 73 ce be
       -0.24036777 0.30820543 0.40795302 -0.40322784
000050 46 fc c2 be f0 3d cb 3e ea 5f c5 3e 6b 5b d9 3e
       -0.38083094 0.39695692 0.3854974 0.4245256
000060 e3 37 ac 3e 1e 88 e2 be a9 51 a9 3e 39 c4 a3 3e
       0.33636388 -0.44244474 0.33070114 0.31985644
000070 69 ad 1d 3e c4 df 91 3e eb c8 bd 3e 01 0a 9e 3e
       0.15398182 0.28491032 0.3706735 0.30867007

const_fold_opt__22 f4 [1536, 32]
000000 5e bc a5 bc e5 cf 09 bd 3a 4e 0f 3e fb 1e f7 bc
       -0.020231422 -0.03364553 0.13994685 -0.03016614
000010 de c3 77 bd 86 b3 81 bc 9e ee ab 3c b2 ff 3b bc
       -0.060489528 -0.015832674 0.020987805 -0.011474537
000020 88 8f b7 3c ae 21 4d bc 2a 87 01 3d 5f 94 97 bc
       0.022407308 -0.012520237 0.031623043 -0.018503366
000030 07 7b 96 bd b7 1c 98 3c 27 75 77 3d e8 39 01 bc
       -0.07347684 0.01856838 0.06041446 -0.007887341
000040 a3 0a 98 bd d1 57 3d 3b bc 32 fc bc 60 18 13 b9
       -0.07423904 0.0028891454 -0.03078591 -0.00014028093
000050 3c 05 69 bd 3a fa 9a bb 1e cd 33 bb 65 0e 60 bd
       -0.056889758 -0.0047295364 -0.0027435492 -0.054701228
000060 26 84 8e bc 68 f1 98 bd 4e b7 e5 bd 82 93 32 bd
       -0.017396998 -0.074679196 -0.11216603 -0.043597706
000070 1e 2c e2 bc e7 53 68 bc 1e 1e 4d 3d 5c 4c 5e bd
       -0.027608927 -0.01418016 0.05007755 -0.05427204
000080 59 c6 b1 bc 0e 73 b8 3c 65 73 30 3d 40 0d 16 bb
       -0.021701025 0.0225158 0.0430788 -0.0022896081
000090 81 6d 97 3c c5 10 b8 3c 11 0d aa 3b 6a eb 4a bc
       0.018484833 0.022468934 0.005189546 -0.012385229
0000a0 30 78 d9 bb 71 56 2e 3d 4e 0e 25 3d fa dd 96 bc
       -0.006636642 0.042562906 0.040296845 -0.018416394
0000b0 27 14 f8 3a 31 98 07 3d 9a 25 37 3d cd 4d f5 3c
       0.0018926904 0.033104125 0.044713594 0.029944325
0000c0 6b 6c 3b 3d 77 f9 21 3d 4a da 1c 3d fd c8 6e 3b
       0.045757692 0.03954455 0.038294114 0.0036435716
0000d0 0f b9 88 3c 9d 56 36 3c e5 f2 ac ba 15 ee 47 3c
       0.016689805 0.011129049 -0.0013194947 0.012202759
0000e0 b5 44 c7 bb 60 96 25 3d 50 46 47 bc 13 11 ec bc
       -0.0060811886 0.040426612 -0.01216276 -0.028816735
0000f0 ce af e8 3c d6 90 08 3d fc 95 c0 3c 3c 7e 77 3d
       0.028404143 0.03334125 0.023509018 0.06042312
000100 18 16 64 3c 73 e9 d6 3c 14 ba ca 3a f6 cf 26 bc
       0.013921283 0.026234364 0.0015466833 -0.010181418
000110 51 ea 62 bd 26 9b 95 3c 60 95 2d bd 6f c3 73 bc
       -0.055399243 0.018262457 -0.042378783 -0.014878138
000120 02 db 49 bd 46 be 98 3c a3 3e 55 3d af 97 0a 3d
       -0.049281128 0.018645417 0.05206169 0.033836063
000130 a2 9c df bc c6 05 b8 3d f0 28 9a bc 75 37 b1 3d
       -0.027296368 0.08985476 -0.018818349 0.08653156
000140 72 46 17 3d 30 f0 82 3c db 50 e6 3c a0 6d 84 3d
       0.036932416 0.015983671 0.028114727 0.06466222
000150 4e a3 2a 3d 5a ed da 3c 13 b9 18 bd bd dd 15 bd
       0.041659646 0.026724506 -0.037285876 -0.03658842
000160 9e 8a b5 bb bb 1b 8a 3d 77 d7 27 bc 24 77 14 3d
       -0.005540206 0.067435704 -0.010244242 0.036246434
000170 9c f2 92 ba 35 f6 91 bc c4 ca cd 3b 5c 59 5c bd
       -0.0011211219 -0.017817596 0.006280275 -0.053796157
000180 81 de 33 bd cf 60 79 bc 9d 2f 95 3d 03 d7 60 bd
       -0.043913368 -0.015220835 0.07284472 -0.05489255
000190 bf c7 0c be af 86 80 bd f0 58 f3 bd 6c 9c 8d bd
       -0.13748072 -0.06275689 -0.11882198 -0.06914601
0001a0 94 f4 09 be 41 00 50 bd 39 58 55 3c d5 67 c9 bd
       -0.13472205 -0.050781492 0.013021522 -0.098342575
0001b0 98 f6 84 bd 2c b1 4d bd 75 03 11 bd e6 d9 53 3d
       -0.064923465 -0.050217792 -0.035403688 0.051721476
0001c0 25 1c be 3d 89 78 05 3c 58 a5 52 bc f9 08 02 3d
       0.09282712 0.008146414 -0.012856804 0.03174684
0001d0 f9 df 6c 3d 74 51 b4 bd c7 46 bb bd d2 79 2e bd
       0.057830784 -0.088045985 -0.09144359 -0.042596646
0001e0 7e ae af bd 18 7c 2d 3d a8 57 9b bd 60 9f a9 3d
       -0.085782036 0.042354673 -0.075850785 0.082823515
0001f0 33 83 44 bc 12 b5 c2 bd 3b 5a ed 3c 98 c5 02 bc
       -0.011994171 -0.09507193 0.02897369 -0.00798168
000200 4a be 6c 3d 09 50 76 3c cb 77 1c 3d 24 2c 67 3d
       0.05779866 0.01503373 0.03820018 0.05643858
000210 10 6e b8 3c 16 e8 37 3c 0a 66 63 3d 10 b9 88 3d
       0.02251342 0.011224767 0.055517234 0.06675923
000220 c8 3e 7c 3d ae a2 d8 3b a9 7b b7 3d 9f 92 05 3d
       0.06158331 0.00661119 0.08959133 0.032610532
000230 41 92 3d 3d 43 56 ac 3c 8f c0 79 3d 2a 60 80 3d
       0.046282057 0.021037227 0.060974654 0.06268342
000240 2d 42 9d 3b 45 23 ce 3b 11 f1 cd 3c 5f b2 4b 3c
       0.0047991485 0.0062908255 0.025139363 0.012432664
000250 7a 64 f6 3c e3 62 f6 3c 37 39 87 3d 27 9b 3b 3c
       0.030077208 0.03007645 0.0660271 0.011450565
000260 9c be f1 3c c5 55 82 3d 38 c9 27 3c 4b d0 8f bd
       0.029509835 0.063640155 0.010240845 -0.070221506
000270 67 2a 16 3c 2c a7 21 3d 02 17 51 3d b1 eb 9c 3c
       0.009165383 0.03946607 0.051047333 0.019155355
000280 fe 45 15 3d 71 69 0e 3d f0 83 33 3d 31 ad 94 3b
       0.036443703 0.034768526 0.043826997 0.0045372476
000290 ee 39 c1 3c a6 8a a8 3c 14 78 98 3c 01 0b a8 3c
       0.023587193 0.020573925 0.018611945 0.02051306
0002a0 a2 9f d1 3b fe 50 94 3c 4a e6 04 3d 68 6e a6 3c
       0.0063972035 0.018105026 0.032446183 0.020316318
0002b0 ac 55 a7 3b b6 20 11 3d 14 87 91 3c 0a 10 48 3d
       0.0051066484 0.035431586 0.017764606 0.04884342
0002c0 75 60 93 3d 89 ac dc 3c b1 a2 1a 3c 25 3d 71 3d
       0.07196132 0.02693774 0.009438203 0.058896203
0002d0 d1 11 05 3d 11 47 01 3c f5 3f ce 3c e7 2f e5 3c
       0.032487694 0.007890479 0.025176981 0.027976943
0002e0 d6 81 9b 3a b4 fa 71 3d be 8f 82 3b c8 71 94 3c
       0.0011864256 0.05907698 0.0039844206 0.018120661
0002f0 cc 84 ab 3c d3 80 2c ba c3 73 16 3d 82 d1 2b 3d
       0.020937346 -0.00065804756 0.036731493 0.04194785
000300 46 e1 e4 3b df a3 59 3a 23 aa b3 3b 77 76 f7 3b
       0.0069848625 0.0008302312 0.0054829284 0.007551964
000310 68 3e 77 3d 1d 55 6e bc 45 49 fc 3b ec fa 40 3d
       0.06036225 -0.01454666 0.007699164 0.047114298
000320 e5 db 40 3d 95 f5 ea bb 06 5c 88 ba e2 a4 41 3d
       0.047084708 -0.007170389 -0.0010403402 0.047276385
000330 31 96 c6 bb 5b fe 54 3c 99 3d d4 3a 95 3b a6 3b
       -0.0060603847 0.013000096 0.0016192674 0.0050730207
000340 d1 ee 43 3c 76 cd 9e 3c 0c 23 9e 3c 42 6c 21 3c
       0.011958794 0.01938508 0.019303821 0.009852471
000350 be 53 3f 3c 06 2b dd 3c 62 1f 87 bc 03 60 bd 3b
       0.011677681 0.026998054 -0.016494457 0.0057792678
000360 a3 cd 50 3c 08 7d 67 bc 5c f6 b9 3b 1b b2 24 3c
       0.01274434 -0.014128931 0.0056751203 0.010052229
000370 92 1a 83 bb 3c 93 ab 3c 5c 88 1e bb 74 df 91 3d
       -0.00400097 0.02094423 -0.0024190163 0.071226984
000380 47 51 70 bd 9a 3f e7 bb f0 09 6f bd 10 61 9d 3b
       -0.058671262 -0.0070571424 -0.058359087 0.0048028305
000390 58 5d e4 bc 53 bb c8 3c 3a a9 e4 bc 64 aa 5a bb
       -0.027876541 0.024503386 -0.027912725 -0.003336572
0003a0 6e 29 ad bc 10 da 29 bd 0c 6b 01 bd 8e 6a 35 bd
       -0.02113792 -0.041467726 -0.03159623 -0.04429107
0003b0 b8 24 5d bc 3c a7 fa bc d7 d9 4a 3b 8d f0 81 bd
       -0.013497524 -0.030597322 0.0030952597 -0.063447095
0003c0 2d 21 59 3d 50 52 c7 3c 51 54 3c 3b 56 d1 96 3c
       0.053010155 0.024331242 0.002873678 0.018410366
0003d0 41 ff b1 3c 02 d5 3d bd 03 83 4b bd 04 f1 99 3c
       0.02172816 -0.04634572 -0.04968549 0.018791683
0003e0 91 62 a5 3c a5 c4 6a bc 68 01 31 bd 4c f4 97 bc
       0.020188602 -0.01432911 -0.04321423 -0.018549107
0003f0 aa 47 9c 3d 24 dd df ba 86 7e d7 3a 97 66 4c bc
       0.07630856 -0.0017079455 0.0016440905 -0.012475631
