en/hey_nabu/hey_nabu_v2.onnx (onnx, 208138 bytes, 9 tensors)

model/tf.math.add_1/Add/y f4 [32]
0	0x3d49491a	0.04914198
1	0xbe0cefba	-0.13763323
2	0xbe1be3bb	-0.15223591
3	0x3d1c0fb5	0.038100917
4	0xbdad1204	-0.08450702
5	0x3e65878f	0.22414993
6	0xbe0fabdb	-0.14030401
7	0x3e4769aa	0.19473901
8	0x3c433abb	0.011915858
9	0xbe051447	-0.12996016
10	0x3e0670ac	0.13128918
11	0xbd6fba29	-0.058527146
12	0xbda343d6	-0.07971923
13	0x3dc2556e	0.09488951
14	0xbd8bc85c	-0.06825325
15	0xbe3dc463	-0.18531947
16	0x3da5c532	0.08094253
17	0x3dbff6f1	0.09373272
18	0xbe435f0e	-0.19079229
19	0xbdffb552	-0.12485756
20	0x3e1d6617	0.15370975
21	0xbdea2cb2	-0.11434306
22	0xbd2b0661	-0.04175413
23	0xbe34a779	-0.17642011
24	0x3da18454	0.07886568
25	0xba0db79f	-0.0005406085
26	0x3dd0f884	0.102036506
27	0x3d34c6cd	0.044134904
28	0xbe17eabb	-0.14835636
29	0x3e4c32ea	0.19941297
30	0x3dcaa97a	0.09895606
31	0x3caadc3d	0.02085697

model/tf.math.add/Add/y f4 [32]
0	0x3c0a1166	0.008427
1	0x3caebf8e	0.021331575
2	0x3bb0acfa	0.005391714
3	0x3c88f2d3	0.01671735
4	0x3dbba783	0.0916281
5	0x3d177907	0.036980655
6	0x3d7d8984	0.061898723
7	0x3d18ece1	0.03733528
8	0xbbb4d35c	-0.00551836
9	0x3d927452	0.071510926
10	0x3cb47613	0.022028958
11	0x3cd209f4	0.025639512
12	0x3de9eff7	0.11422723
13	0x3d8b34c7	0.06797176
14	0x3d78a048	0.06069973
15	0x3d291e7f	0.04128885
16	0x3d966cae	0.07344948
17	0x3cf41bb4	0.029798366
18	0x3d2368e6	0.03989496
19	0x3c50d4d6	0.012746057
20	0x3d8f87b9	0.07008309
21	0x3c2625e5	0.010140871
22	0x3ba1458f	0.004921622
23	0xbc2d691a	-0.01058414
24	0x3cf1723c	0.029473417
25	0x39cba1b2	0.0003883965
26	0x3cfd8520	0.030947268
27	0x3da2c25c	0.07947227
28	0xbbfa36b4	-0.0076359157
29	0x3d747fe4	0.05969228
30	0x3d57fe6e	0.052732877
31	0x3d780b8e	0.060557894

model/layer_normalization_1/batchnorm/mul/ReadVariableOp/resource f4 [32]
0	0x3fb4efba	1.4135659
1	0x3f8c41e4	1.0957608
2	0x3fa42386	1.2823341
3	0x3f9f4efc	1.2445979
4	0x3fa7e961	1.3118097
5	0x3f94b76a	1.1618474
6	0x3f9b9130	1.2153683
7	0x3fa4e2db	1.2881731
8	0x3facce42	1.3500445
9	0x3f9a4bf9	1.2054435
10	0x3fb1e85a	1.3899033
11	0x3fa36b40	1.2767105
12	0x3f9a88ff	1.2073058
13	0x3fad493f	1.3537978
14	0x3f99b0d9	1.2007095
15	0x3fa6593a	1.299598
16	0x3fa2c7f7	1.2717274
17	0x3f83d866	1.0300415
18	0x3fa5b9dc	1.2947345
19	0x3fb98887	1.449479
20	0x3f9b8790	1.2150745
21	0x3f410858	0.75403357
22	0x3f986f7f	1.1909026
23	0x3fb59c27	1.4188279
24	0x3f9a3490	1.2047291
25	0x3f89b5ca	1.0758603
26	0x3fa0d1ab	1.2563986
27	0x3fb454c5	1.408837
28	0x3fb406be	1.4064558
29	0x3fc00451	1.5001317
30	0x3fabbd42	1.3417132
31	0x3f7cbb1c	0.98723006

model/layer_normalization_1/batchnorm/ReadVariableOp/resource f4 [32]
0	0x3e7dc73e	0.24783036
1	0x3ddc84ce	0.10767518
2	0x3e1b3fa1	0.15160991
3	0x3e7eb09f	0.24872063
4	0xbc0ea560	-0.008706421
5	0x3e6332f6	0.22187409
6	0xbd26fe4b	-0.040769856
7	0x3e832d67	0.25620577
8	0x3dad0a61	0.08449245
9	0x3d892e30	0.06698263
10	0x3e8ec41a	0.2788399
11	0x3ddcd6b8	0.10783142
12	0x3d4ed7d5	0.050498802
13	0x3dca1211	0.09866727
14	0x3c92d718	0.01792483
15	0x3dfbe1d2	0.12298931
16	0x3dc69b39	0.09697575
17	0x3e26926d	0.16266795
18	0xbd8e9e3a	-0.06963773
19	0x3d7d551f	0.061848756
20	0xbc73c6b8	-0.014878921
21	0xbeda3f15	-0.42626253
22	0x3dba3844	0.09092763
23	0xbd68876b	-0.05676977
24	0x3df1933d	0.117956616
25	0x3e4e109b	0.20123522
26	0xbe13d15c	-0.14435333
27	0x3d46ac2a	0.048504032
28	0x3d418e91	0.047255103
29	0x3e9721c4	0.2951795
30	0x3dfcbe0a	0.123409346
31	0x3e113630	0.14180827

model/layer_normalization/batchnorm/mul/ReadVariableOp/resource f4 [32]
0	0x3f855304	1.0415959
1	0x3f8d6fe6	1.1049774
2	0x3f845107	1.0337228
3	0x3f9448ba	1.1584694
4	0x3f9ab190	1.2085438
5	0x3f8db81a	1.1071808
6	0x3f9431a6	1.1577652
7	0x3f888668	1.0666018
8	0x3f92e259	1.1475326
9	0x3f8576e7	1.0426911
10	0x3f8d87d2	1.1057074
11	0x3f8a8629	1.0822192
12	0x3f8f4d43	1.1195453
13	0x3fa4f4f9	1.288726
14	0x3f92af96	1.1459835
15	0x3f7d6179	0.98976856
16	0x3f661fa5	0.89892036
17	0x3f84eccc	1.0384765
18	0x3f90ab31	1.1302243
19	0x3f86aad4	1.0520883
20	0x3f876aeb	1.0579504
21	0x3f893e7f	1.0722197
22	0x3f913fad	1.1347557
23	0x3f8f2690	1.1183643
24	0x3f87adab	1.0599874
25	0x3f8bf0a6	1.0932815
26	0x3f932d56	1.149821
27	0x3f8ca4f3	1.0987839
28	0x3f8a04c0	1.07827
29	0x3f861f56	1.0478313
30	0x3f95bb9c	1.1697879
31	0x3f96154b	1.1725248

model/layer_normalization/batchnorm/ReadVariableOp/resource f4 [32]
0	0x3cfd018d	0.030884529
1	0xbc6dce9b	-0.014514591
2	0xbbe1dd88	-0.0068928637
3	0xbc50cf71	-0.01274477
4	0xbc94a781	-0.018146278
5	0x3e07cdfe	0.13262174
6	0x3dc2faa4	0.09520462
7	0x3cd0412e	0.025421705
8	0x3d23f65e	0.040029876
9	0x3cd43c1d	0.02590757
10	0x3d082984	0.033242717
11	0x3e2eff12	0.17089489
12	0x3df23b59	0.11827726
13	0x3db4f94e	0.088366136
14	0x3dd32d76	0.10311405
15	0x3d1d77c6	0.038444303
16	0x3c76923d	0.015049514
17	0x3ccddf8d	0.025131011
18	0x3d35b3fe	0.044361107
19	0x3ca2c97f	0.019871471
20	0xbddedae5	-0.108815946
21	0x3c9b8971	0.018986436
22	0xbce10a7a	-0.027470816
23	0xbca06f87	-0.01958443
24	0x3d83d8e4	0.06437853
25	0x3cd22839	0.025653945
26	0x3c428dae	0.011874599
27	0x3ddbb9ee	0.10728823
28	0x3c6d1914	0.014471311
29	0x3ca93d26	0.02065904
30	0x3d09d1ea	0.033647455
31	0xbc541620	-0.012944728

const_fold_opt__25 f4 [32, 32]
0	0xbe562e02	-0.20915988
1	0xbda4d9da	-0.080493644
2	0x3e16f896	0.14743266
3	0xbe840832	-0.25787503
4	0x3e13a983	0.14420132
5	0xbe2d49c9	-0.16922678
6	0x3c1a9c78	0.009436719
7	0xbbbd458d	-0.0057761134
8	0x3e1ee4b1	0.15516926
9	0xbc99804f	-0.01873794
10	0xbe82d996	-0.2555663
11	0x3e1a5722	0.15072301
12	0x3d86e46e	0.06586538
13	0xbd08a5cf	-0.033361252
14	0x3d55d68f	0.052206572
15	0x3e18d9f3	0.14926891
16	0x3e54ba77	0.20774256
17	0xbe1ba4d7	-0.151996
18	0xbe0ce838	-0.1376046
19	0x3d3cf937	0.046136107
20	0x3e174835	0.14773639
21	0xbdf5c9eb	-0.120014034
22	0x3dc1ea80	0.094685555
23	0x3e894a29	0.26814392
24	0x3e122763	0.14272837
25	0xbe6ba299	-0.23011245
26	0x3e0b2c66	0.13591155
27	0x3e862bad	0.26205197
28	0x3e9a6b79	0.3016012
29	0xbe4eb0fa	-0.20184699
30	0x3e087bee	0.13328525
31	0xbe5c8132	-0.21533659
32	0xbe4433ef	-0.19160436
33	0x3e0b1552	0.13582352
34	0x3eaa7163	0.33289632
35	0xbde8e223	-0.11371257
36	0x3e2f1a6c	0.17099923
37	0xbd1a9b5a	-0.03774581
38	0xbc06b2ec	-0.008221369
39	0xbe38a0c6	-0.1803008
40	0x3e982e8a	0.29723006
41	0x3e9071c9	0.2821181
42	0xbda7180e	-0.08158885
43	0x3ea79276	0.32728928
44	0x3e08c600	0.13356781
45	0x3e8dd9b0	0.27705145
46	0x3ea8ed30	0.3299346
47	0x3ea5032f	0.3222899
48	0x3e9dd883	0.30829248
49	0xbe6a5eda	-0.22887745
50	0x3e08535a	0.13313046
51	0x3e056f4e	0.1303074
52	0x3e75d623	0.24007468
53	0xbd37f30b	-0.04490952
54	0x3e2a0a06	0.16605386
55	0x3e277927	0.1635481
56	0x3eaf9bdb	0.34298596
57	0xbeb0d032	-0.3453384
58	0x3e8b6c2d	0.2723097
59	0x3e550a66	0.20804748
60	0x3e940e3d	0.28917113
61	0xbd992174	-0.07477084
62	0x3e81400d	0.2524418
63	0xbe552914	-0.20816451
64	0xbe3c9e4b	-0.18419759
65	0xbbbaec22	-0.0057044188
66	0x3e417233	0.1889122
67	0xbdaf77c4	-0.08567765
68	0x3e4d193f	0.20029162
69	0xbe89af87	-0.2689173
70	0xbcd2ca87	-0.025731338
71	0xbba40beb	-0.0050063035
72	0x3df556ac	0.11979422
73	0x3d746814	0.05966957
74	0xbdc55a90	-0.09636414
75	0x3e50d888	0.203951
76	0x3e3bd140	0.18341541
77	0x3d44d44c	0.048054025
78	0x3e4c04bd	0.19923683
79	0x3dd4b602	0.10386278
80	0x3dfcbda4	0.123408586
81	0xbe467eb0	-0.19384265
82	0x3dae55ac	0.08512434
83	0x3e4a6539	0.19765176
84	0x3daba44e	0.08380948
85	0xbd97397f	-0.073840134
86	0x3d7cee42	0.061750658
87	0x3e0826c3	0.13296036
88	0x3e20b910	0.15695596
89	0xbe97a32d	-0.2961668
90	0x3d59ee57	0.053205814
91	0x3e386fed	0.18011446
92	0x3e05938d	0.13044567
93	0xbd680bb5	-0.05665179
94	0x3ceb2d36	0.028708082
95	0xbe48c8e5	-0.19607885
96	0xbe0d70b7	-0.13812529
97	0xbaef0e0b	-0.0018238438
98	0x3ea1c797	0.31597587
99	0xbea5f372	-0.32412297
100	0x3e48bcf4	0.1960333
101	0xbe3d2c73	-0.18473987
102	0x3e1d7df8	0.15380085
103	0xbe6cb044	-0.23114115
104	0x3e250852	0.16116455
105	0x3e99b093	0.30017528
106	0xbe85025d	-0.25978366
107	0x3db4a495	0.08820454
108	0x3e3a4558	0.18190515
109	0x3eb42b64	0.35189354
110	0x3e864b7b	0.26229462
111	0x3e5c60a4	0.2152124
112	0x3e38827e	0.18018529
113	0xbe55965b	-0.20858137
114	0x3e34b866	0.17648467
115	0x3eb0f0b3	0.3455864
116	0xbd4e479f	-0.050361272
117	0xbe3b91b2	-0.18317297
118	0x3ed796bb	0.42107186
119	0x3ddb7ff0	0.107177615
120	0x3ec83eba	0.39110357
121	0xbe503fc3	-0.20336823
122	0x3e27b001	0.16375734
123	0x3eb98d7d	0.3624076
124	0x3e8187ff	0.2529907
125	0xbe9ea21a	-0.3098305
126	0x3ea0f3ca	0.31435996
127	0xbe91a054	-0.28442633
128	0x3e96b723	0.29436597
129	0x3d8131dd	0.06308339
130	0xbcd1926d	-0.025582517
131	0x3e8b2e88	0.27183938
132	0xbe23df17	-0.16003071
133	0x3e7af104	0.24506003
134	0xbddffce8	-0.1093691
135	0x3eaa009e	0.33203596
136	0x3d1d2c72	0.038372464
137	0xbe165ca4	-0.14683777
138	0x3e92f600	0.28703308
139	0xbdbf19ff	-0.0933113
140	0xbdc77123	-0.09738376
141	0xbd6466e2	-0.05576218
142	0xbea964cd	-0.33084717
143	0xbebcb35a	-0.36855584
144	0xbe86ab01	-0.2630234
145	0x3ea1112e	0.3145842
146	0xbc6c6f0a	-0.014430771
147	0xbd7210e4	-0.05909814
148	0x3e39b8f3	0.18136959
149	0x3cc05fa6	0.023483109
150	0xbe3f808e	-0.18701383
151	0x3e102fed	0.14080782
152	0xbe0e1211	-0.1387408
153	0x3e690f25	0.22759683
154	0x3ddb22df	0.107000105
155	0x3d6d3cd0	0.057919323
156	0xbb2208e7	-0.0024724544
157	0x3eb73527	0.3578274
158	0xbe8c8339	-0.27443865
159	0x3e72d536	0.23714146
160	0xbe833888	-0.25629067
161	0xbc85571f	-0.016276894
162	0x3ebee5f3	0.37284812
163	0xbe50cd9e	-0.20390937
164	0x3df4cdcd	0.11953316
165	0xbde55a22	-0.11198832
166	0x3e47cf9b	0.19512789
167	0xbe83dcd5	-0.2575442
168	0x3e217986	0.15769014
169	0x3e6d3e22	0.23168233
170	0xbe4903a3	-0.19630294
171	0x3e4f30a5	0.202334
172	0x3e5da4c9	0.21644892
173	0x3e5093fa	0.20368949
174	0x3e956f8f	0.29186675
175	0x3ea7491e	0.3267297
176	0x3e353c07	0.1769868
177	0xbe89629e	-0.2683305
178	0xbe238a5d	-0.1597075
179	0x3e02c86a	0.12771764
180	0x3e489f0a	0.19591919
181	0xbd2ba5a5	-0.041906018
182	0x3e961d45	0.29319206
183	0x3e88e381	0.26736072
184	0x3e8159c4	0.25263798
185	0xbe859aa0	-0.26094532
186	0x3e228513	0.15871076
187	0x3dc54abe	0.096333966
188	0x3e2768a4	0.16348511
189	0xbe87598d	-0.2643551
190	0x3e6d9ec6	0.23205099
191	0xbe853ad0	-0.26021433
192	0x3e775f35	0.24157412
193	0x3e067ff8	0.13134754
194	0xbbd8b6c1	-0.006613583
195	0x3e9c2f59	0.30504873
196	0x3c5403e3	0.01294038
197	0x3e89ba42	0.26899916
198	0xbd83828a	-0.06421383
199	0x3e8db941	0.276804
200	0xbcf08f99	-0.029365348
201	0xbd92d4a5	-0.07169465
202	0x3e3b73e2	0.18305925
203	0xbd51f5b0	-0.051259696
204	0xbd61e90c	-0.05515389
205	0xbc46716e	-0.012112005
206	0xbdddcb59	-0.10829801
207	0xbe327b6d	-0.17429896
208	0xbe6cb61d	-0.23116346
209	0xbcd4cd94	-0.025976934
210	0xbe0da5e5	-0.13832815
211	0xbdd58d03	-0.104272865
212	0x3e36c741	0.17849447
213	0x3d055adb	0.03255735
214	0xbe395c57	-0.18101631
215	0xbdbff28c	-0.09372434
216	0xbe16be02	-0.1472092
217	0x3deffef2	0.11718549
218	0xbd1b4f3e	-0.037917368
219	0xbd5adcca	-0.053433217
220	0xbdabb447	-0.083839945
221	0x3e74dcc7	0.23912345
222	0xbe2badb8	-0.16765487
223	0x3e9fdc0a	0.31222564
224	0xbe0f6c4d	-0.14006157
225	0x3ce8291a	0.028339911
226	0x3eafd954	0.34345496
227	0xbe4e8c7f	-0.20170783
228	0x3de2e4be	0.11078785
229	0xbe42e0eb	-0.19031112
230	0x3e83bf05	0.25731674
231	0xbe4ee27e	-0.20203587
232	0x3e1862e2	0.14881471
233	0x3e1169ca	0.14200512
234	0xbe54e443	-0.207902
235	0x3e91a0de	0.28443044
236	0x3e7cb3de	0.24677989
237	0x3e008a7a	0.12552825
238	0x3e56c0b0	0.20971942
239	0x3e9dff11	0.30858663
240	0x3e47cf53	0.19512682
241	0xbe981a8d	-0.29707757
242	0x3e563d14	0.20921737
243	0x3db5c762	0.0887592
244	0x3e1ed336	0.15510258
245	0x3b8b249d	0.004246308
246	0x3e9af99d	0.30268565
247	0x3daf4350	0.08557761
248	0x3d831058	0.06399602
249	0xbe8e12b7	-0.27748653
250	0x3e41ee71	0.18938614
251	0x3e8677fa	0.2626341
252	0x3e3b5f90	0.18298173
253	0xbe73405a	-0.23755017
254	0x3e41594e	0.18881723
255	0xbea2a7c2	-0.31768614

const_fold_opt__23 f4 [32, 1]
0	0xbf10769e	-0.56430995
1	0x3e3909f2	0.180702
2	0x3e85b843	0.26117143
3	0xbeaa986c	-0.33319414
4	0x3e8ea1b4	0.27857745
5	0xbeb112a9	-0.3458455
6	0x3ea28dd2	0.31748825
7	0xbeb953f3	-0.3619686
8	0x3eeb83fb	0.4599913
9	0x3e8b831e	0.27248472
10	0xbefe762e	-0.4969954
11	0x3ea01ef7	0.31273624
12	0x3e3db1ef	0.18524908
13	0x3e9a4945	0.30134025
14	0x3e7630d4	0.24042064
15	0x3e901d2f	0.28147265
16	0x3eb4fbb9	0.353483
17	0xbe3fc46e	-0.18727276
18	0x3e890bed	0.2676691
19	0x3ef68087	0.48144934
20	0x3e330497	0.1748222
21	0xbe3f8a10	-0.1870501
22	0x3ea68099	0.32519987
23	0x3ef9f6a6	0.4882099
24	0x3eb49ade	0.35274404
25	0xbe70315c	-0.23456329
26	0x3e9ecec3	0.31017122
27	0x3edac053	0.42724857
28	0x3ec10fa5	0.37707248
29	0xbf009b12	-0.5023662
30	0x3e99a4a0	0.3000841
31	0xbe309c32	-0.17247084

const_fold_opt__22 f4 [1536, 32]
0	0xbc1fd87c	-0.009756204
1	0xbdca5588	-0.09879595
2	0xbd87653f	-0.06611108
3	0xbcaaba69	-0.02084084
4	0x3d84e21f	0.06488442
5	0xbd1fefe9	-0.039047156
6	0xbcae29c8	-0.021260157
7	0xbd91da54	-0.07121721
8	0xbdd2c3db	-0.10291263
9	0x3d132fe2	0.035934336
10	0xbd3ad4b7	-0.045613017
11	0x3a0ee517	0.0005451007
12	0xbcdcae92	-0.02693871
13	0xbd271b9d	-0.04079782
14	0xbd00e900	-0.031472206
15	0xbd2c0a59	-0.042002056
16	0x3cebe515	0.028795758
17	0xbd7a5915	-0.06112011
18	0x3cd7e81d	0.026355797
19	0xbdee9224	-0.11648968
20	0xbc8e69ef	-0.017384497
21	0xbd01863c	-0.031622157
22	0xbd91ed7f	-0.07125377
23	0xbd7315ce	-0.059346966
24	0xbdae7f62	-0.0852039
25	0xbd267261	-0.040636424
26	0xbc6bad78	-0.01438462
27	0x3bda8dc7	0.006669733
28	0xbd994132	-0.07483138
29	0x3ce93b93	0.02847079
30	0x3d1986d2	0.03748209
31	0x3d1bd0cb	0.038040917
32	0x3c2eadde	0.01066157
33	0x3d5094d0	0.05092317
34	0x3d5d70d6	0.054062687
35	0x3d0997e0	0.033592105
36	0x3d873711	0.066023
37	0x3d858200	0.06518936
38	0x3d5798a1	0.052635793
39	0x3d6e5545	0.058186788
40	0x3d82ee31	0.06393088
41	0x3d94bef0	0.07262981
42	0x3c88aca2	0.01668388
43	0x3cb86fd4	0.022514261
44	0x3d819409	0.063270636
45	0x3d9078b8	0.07054275
46	0x3d81091b	0.06300565
47	0x3d4bcd93	0.049756598
48	0x3d15d3e5	0.03657903
49	0x3d1378ad	0.036003757
50	0x3cdc8844	0.026920445
51	0x3d2298ee	0.039696626
52	0x3cd41d82	0.025892977
53	0x3ca98046	0.020691048
54	0x3d53b643	0.05168749
55	0x3d7c6b4e	0.06162577
56	0x3d09ee29	0.033674393
57	0x3d9dbb4b	0.07701739
58	0x3d191a3e	0.037378542
59	0x3d87cd6f	0.0663098
60	0x3c9d3336	0.019189458
61	0x3d3675a1	0.044545773
62	0x3d8d2c71	0.06893242
63	0x3d812bcf	0.06307184
64	0x3c13c4fa	0.009019131
65	0xbba5e29c	-0.0050624143
66	0x3c80d569	0.015726762
67	0x3d0b32b4	0.0339839
68	0xbce2b30f	-0.027673272
69	0xb9ef2b36	-0.00045617827
70	0x3d092cc8	0.033489972
71	0xbccaf74e	-0.024776127
72	0x3d6fce25	0.058546204
73	0x3c3e6de6	0.0116228815
74	0xbb85e537	-0.0040861624
75	0x3ba0b640	0.0049045384
76	0x3d3ed4f2	0.0465898
77	0x3d06a859	0.032875393
78	0x3ccf48c6	0.025303256
79	0x3cf1296e	0.0294387
80	0x3c90fed3	0.017699635
81	0x3d3c2167	0.045930292
82	0x3cc5d1bb	0.024147859
83	0x3cf01666	0.029307555
84	0x3d275e4a	0.040861405
85	0x3c91d132	0.017799947
86	0xbcb6274f	-0.02223554
87	0x3d24f32d	0.040270973
88	0x3d205afc	0.03914927
89	0xbbe5adef	-0.00700926
90	0x3d8753ab	0.06607755
91	0x3d1767d7	0.036964264
92	0x3bf84994	0.0075771306
93	0x3d6f49ce	0.058419995
94	0x3d77be73	0.06048436
95	0x3ca562f4	0.020188786
96	0xbcb7796e	-0.02239677
97	0xbdcf7a4e	-0.1013075
98	0xbd861034	-0.06546059
99	0xbdb284b8	-0.0871672
100	0xbd05c796	-0.032661043
101	0xbd316930	-0.043313205
102	0x3cd76f7d	0.026298279
103	0xbd33c6c7	-0.04389074
104	0xbd803ce3	-0.06261613
105	0x3d626aa1	0.05527747
106	0xbdb0177a	-0.08598228
107	0x3c9dfaba	0.019284595
108	0x3da0c148	0.078493655
109	0x3b5b29ac	0.0033441586
110	0x3d27b468	0.040943533
111	0x3c064aa6	0.0081965085
112	0x3cd6b165	0.026207635
113	0xbd239558	-0.039937347
114	0x3d45a74b	0.048255246
115	0xbd25ee78	-0.040510625
116	0x3d7f3435	0.062305648
117	0xbdb73f61	-0.089476354
118	0xbd8e7e72	-0.06957711
119	0xbd842b77	-0.06453603
120	0xbdc48606	-0.095958754
121	0xbdc29ada	-0.09502192
122	0xbb787ff6	-0.0037918068
123	0x3c8cd99c	0.017193608
124	0xbdc24b19	-0.0948698
125	0x3c21ba8e	0.009871138
126	0x3d1f388e	0.038872294
127	0x3d0e5ef0	0.03475851
128	0x3d8e4e35	0.069485106
129	0x3db35422	0.087562814
130	0x3d5dc585	0.054143447
131	0x3bdb7d73	0.0066983043
132	0x3c983465	0.018579671
133	0x3d92a4c0	0.0716033
134	0x3a6b2d78	0.0008971314
135	0x3d7ab0df	0.061203834
136	0x3d77f47c	0.060535893
137	0x3d40cde9	0.04707137
138	0x3db87542	0.0900674
139	0x3cb4cc15	0.02206997
140	0x3d41dfd3	0.047332596
141	0xbab3c560	-0.0013715439
142	0x3d22f7f9	0.039787266
143	0x3d5bde7e	0.053678982
144	0x3d25c1a2	0.040467866
145	0x3d3500fe	0.0441904
146	0x3dae48d2	0.08509983
147	0x3d5a4e7d	0.05329751
148	0x3d9c2b4b	0.07625445
149	0x3d076ef1	0.033064786
150	0x3d4d2c57	0.050091114
151	0x3d2f3d6c	0.042783186
152	0x3d8b855e	0.06812547
153	0x3d9aa563	0.07551076
154	0x3d3ef179	0.046617005
155	0x3d62b7ab	0.05535094
156	0x3d659351	0.056048695
157	0x3d8bbc38	0.06823009
158	0x3dd0d0d4	0.10196081
159	0x3dd47c7b	0.10375305
160	0x3d164b6b	0.036693018
161	0x3d910650	0.07081282
162	0x3ced5bca	0.028974432
163	0x3c61fa51	0.01379259
164	0x3d8c4fbc	0.068511456
165	0x3d05385e	0.03252446
166	0x3d1fd8d3	0.03902514
167	0x3d13e504	0.03610708
168	0x3c2891b8	0.010288648
169	0x3d7258a1	0.059166554
170	0x3cff5e5a	0.03117292
171	0x3d5edbc5	0.054408807
172	0x3d78022d	0.06054895
173	0x3d7f0735	0.062262733
174	0x3d0ca5c0	0.03433776
175	0x3d6449bc	0.05573438
176	0x3d77bd3a	0.060483195
177	0x3cf2f085	0.029655704
178	0x3d11533f	0.03547978
179	0x3d803fdb	0.062621795
180	0x3d80d644	0.06290868
181	0x3cec5c45	0.028852591
182	0x3d0ec01e	0.034851186
183	0x3c40a8c2	0.011758985
184	0x3cbb809a	0.02288847
185	0x3d1d71b1	0.038438503
186	0x3d5c64f2	0.053807206
187	0x3d551474	0.05202146
188	0x3d04325d	0.032274593
189	0x3d9197d3	0.07109036
190	0x3d877597	0.06614225
191	0x3d2591ab	0.040422123
192	0x3d95272e	0.072828636
193	0x3c802cc7	0.015646352
194	0x3d52b353	0.05144055
195	0x3d5ecd25	0.05439486
196	0x3d07d9de	0.03316676
197	0x3d9e49bb	0.07728907
198	0x3d401c4a	0.04690198
199	0x3d52ee44	0.05149676
200	0x3d0bcd0c	0.034131095
201	0x3c41c6de	0.011827199
202	0x3d480d0b	0.048840564
203	0x3d3d2bb0	0.04618424
204	0x3c9df82b	0.019283375
205	0x3d617641	0.055044416
206	0x3d41a330	0.04727477
207	0x3d5d029d	0.05395757
208	0x3d29becc	0.041441724
209	0x3d10f7d9	0.035392616
210	0xbc84616b	-0.016159734
211	0x3d61c1c5	0.055116434
212	0x3b1f5377	0.0024311224
213	0x3d4cd4ce	0.050007634
214	0x3c784c43	0.015154901
215	0x3d1964da	0.037449695
216	0x3d3225e4	0.043493167
217	0x3dbfd5a9	0.09366924
218	0x3c9abae3	0.018887943
219	0x3d105ce0	0.035244823
220	0x3d0c22e2	0.034212954
221	0x3d0220d1	0.031769577
222	0x3c66c814	0.014085788
223	0x3d54aaa8	0.051920563
224	0xbbff899a	-0.007798386
225	0xbd08c9f1	-0.03339571
226	0xbcad0f8f	-0.021125583
227	0xbda1380d	-0.07872019
228	0xbc8f64e6	-0.017504167
229	0xbd241451	-0.040058438
230	0xbc9b8d88	-0.018988386
231	0xbd2fdf15	-0.042937357
232	0xbd9f7bef	-0.0778731
233	0xbd369ee9	-0.044585142
234	0xbd1f1b99	-0.03884468
235	0x3c3cb4cd	0.011517716
236	0xbd2f27ea	-0.042762674
237	0xbcff6a4a	-0.031178612
238	0xbd6f809f	-0.058472272
239	0xbd1a3d6c	-0.037656233
240	0xbd33cfb2	-0.043899246
241	0xbd6ecabd	-0.058298815
242	0xbd31798a	-0.0433288
243	0xbd1b87ae	-0.03797119
244	0xbc23a44e	-0.009987904
245	0xbd57cde2	-0.05268658
246	0x3b2df8a1	0.00265459
247	0xbdbf4dc4	-0.093410045
248	0xbd4d82b0	-0.05017346
249	0xbdd55b7f	-0.10417842
250	0xbd5430a4	-0.0518042
251	0xbd57b845	-0.052665967
252	0xbda15b0a	-0.078786924
253	0xbc941b70	-0.01807949
254	0xbd6eda38	-0.05831358
255	0xbcd742c2	-0.02627695
