en/r2d2/r2d2.onnx (onnx, 208127 bytes, 9 tensors)

model/tf.math.add_1/Add/y f4 [32]
000000 31 b5 f6 bd 78 93 16 3e 87 2c 14 3e 3f 02 9e 3c
       -0.12046278 0.14704692 0.14470111 0.01928818
000010 28 67 9a 3d 7c 8a 41 3e 52 e1 e8 3d f6 ac 1f bc
       0.07539207 0.18900484 0.113711014 -0.009745827
000020 ad 07 c7 3d 84 55 1e be 13 d0 e4 3c d2 ed de bd
       0.09718261 -0.15462309 0.027931249 -0.108852044
000030 9d 31 15 be 68 2e 68 3c d2 e1 c6 3c 76 ab 0d 3e
       -0.14569707 0.01417122 0.024277601 0.13834938
000040 a3 76 ea 3d 1c 6b 53 3d 9f ac 71 3e 39 e1 12 3e
       0.114484094 0.05161582 0.23601006 0.14343728
000050 33 2b 2f be e9 2e da 3c 5b 37 41 3e d2 c5 69 3d
       -0.17106323 0.026633697 0.18868773 0.05707342
000060 e6 69 a0 bd 69 71 95 bd 10 68 be 3b 2a b2 ca bb
       -0.078326985 -0.07297022 0.005810745 -0.0061857896
000070 1a 35 e3 3d f0 1e 15 3e 2a bc 13 be 7b 4c 42 3e
       0.11094113 0.14562583 -0.14427248 0.18974487

model/tf.math.add/Add/y f4 [32]
000000 32 de bb bc 7b f1 ca bb 65 4f 12 3c c7 93 39 3c
       -0.0229331 -0.0061933375 0.008930062 0.011326737
000010 39 8b 93 3d 9f ce d1 3d 81 59 35 bb 7a 32 05 3d
       0.07204289 0.10244488 -0.0027671757 0.03251884
000020 bc 68 46 bb e5 0d 17 3c 90 7b 23 3d b5 1f 86 3d
       -0.003027483 0.009219621 0.03991276 0.065490164
000030 0d 34 9d 3d b2 4e 17 3d d7 ae 9c bc c6 f0 a8 3d
       0.076759435 0.036940284 -0.019126339 0.08249049
000040 03 f3 a6 3d 46 23 f2 3b 0f d2 8f 3d 93 61 7a 3d
       0.081518196 0.007389459 0.07022487 0.06112821
000050 4b 2f 79 3d bb 10 15 3d 40 4b d0 3d 1d 66 48 3d
       0.060836118 0.03639291 0.10170603 0.048925508
000060 fa 64 18 3d 3a 4f ab 3d 44 70 17 bc e4 48 26 bc
       0.037205674 0.08364721 -0.009243075 -0.010149214
000070 e0 da bb bb c2 c9 97 bc cd 95 87 3c a9 42 e0 bb
       -0.005732879 -0.018528823 0.016550923 -0.006843884

model/layer_normalization_1/batchnorm/mul/ReadVariableOp/resource f4 [32]
000000 2b 83 87 3f 61 0f a5 3f 7c 97 9d 3f 94 00 a5 3f
       1.0586904 1.2895318 1.2311854 1.2890801
000010 7d b9 a4 3f 70 27 b3 3f 44 84 a1 3f ed 59 9d 3f
       1.2869107 1.399641 1.2618489 1.2293068
000020 b8 f9 c2 3f ca 4b af 3f 42 4d b5 3f 1c dd a8 3f
       1.5232458 1.3695004 1.4164202 1.3192477
000030 00 86 ad 3f c0 3a 6a 3f ab aa bd 3f de d1 9f 3f
       1.3556519 0.91495895 1.4817709 1.2485921
000040 3d 53 90 3f 92 af 96 3f 48 e9 ab 3f 6b 51 af 3f
       1.1275402 1.177233 1.3430567 1.3696722
000050 34 75 b1 3f 00 3f a3 3f 92 6e ae 3f 67 2b a8 3f
       1.3863893 1.2753601 1.3627493 1.3138245
000060 6d b9 b3 3f d3 e6 63 3f 3d 77 a0 3f 81 8f a3 3f
       1.4040962 0.89024085 1.2536389 1.2778169
000070 dc 1f 98 3f 82 d4 9c 3f 1a 21 a5 3f e7 3a b7 3f
       1.1884723 1.2252352 1.2900727 1.431485

model/layer_normalization_1/batchnorm/ReadVariableOp/resource f4 [32]
000000 9c b8 24 3d 15 ae 90 3e 87 69 95 3a 36 85 dd 3d
       0.04021512 0.28257814 0.0011399247 0.108164236
000010 53 bb 07 3e c3 b4 a0 3e f4 4d 12 3e 0f 04 94 3c
       0.13255052 0.3138791 0.1428755 0.018068342
000020 53 5c ae 3e 20 94 00 3e 35 7b 0a 3e 90 4d 88 3d
       0.34054813 0.12556505 0.13523562 0.06655419
000030 e8 45 06 3d 46 9c c4 bd a5 e2 88 3d 1e f4 05 3d
       0.03278151 -0.09600119 0.06683854 0.03270351
000040 32 f5 17 3e db 2b 0d 3e 20 a2 9d 3e 78 31 c9 3d
       0.14839628 0.13786261 0.30787754 0.098238885
000050 81 b7 88 3c 3a 49 30 3d 55 ad 99 3e dd 46 14 3d
       0.016689064 0.043038584 0.30015054 0.036200393
000060 6f e8 b2 3d f3 3e e7 bd ff aa b8 bc 60 e8 14 3e
       0.087357394 -0.112913035 -0.022542475 0.14541769
000070 10 75 31 3e fa d0 22 3e 2b 17 30 3d 73 2d 9c 3e
       0.17329812 0.1590003 0.042990845 0.30503425

model/layer_normalization/batchnorm/mul/ReadVariableOp/resource f4 [32]
000000 a3 c2 a2 3f 17 9e 8f 3f bd dc 6c 3f 2a c2 84 3f
       1.2715648 1.122012 0.9252432 1.0371754
000010 b4 02 8a 3f e8 c0 8f 3f c5 94 8f 3f 2f eb 85 3f
       1.0782075 1.1230745 1.1217276 1.0462397
000020 00 25 90 3f e9 73 89 3f e4 b5 81 3f 6b 4f 8a 3f
       1.1261292 1.0738498 1.0133634 1.0805486
000030 c7 92 8d 3f 55 28 81 3f bb dd 8f 3f 10 a2 91 3f
       1.1060418 1.0090433 1.1239542 1.1377583
000040 05 a9 93 3f 59 17 83 3f 49 16 9d 3f 79 e8 a0 3f
       1.1535956 1.02415 1.2272426 1.2570945
000050 09 2f 88 3f 2d 75 81 3f c9 9c 89 3f eb 0a 77 3f
       1.0639354 1.0113884 1.0750972 0.96501034
000060 3d 65 72 3f 58 8d a1 3f fa cf 73 3f 76 45 84 3f
       0.9468573 1.262126 0.9523922 1.0333698
000070 ea c2 85 3f 28 0e 82 3f 8f 95 90 3f 84 8e 8d 3f
       1.0450108 1.016057 1.1295642 1.1059117

model/layer_normalization/batchnorm/ReadVariableOp/resource f4 [32]
000000 bc 9c 4a bc 50 c8 ee 3b e9 e7 cc bd 1b 8f a7 3c
       -0.01236647 0.0072870627 -0.10005171 0.02045398
000010 56 aa 03 be 60 16 93 3d 5e c0 9c 3c 67 3d 92 3c
       -0.12857947 0.07182002 0.019134697 0.017851545
000020 4b bb b5 bc 26 e0 cd ba bf ac bd bb 7d f0 a8 3d
       -0.022184035 -0.001570706 -0.005788415 0.082489945
000030 dd 1d b1 3d ef 15 a0 bc 75 64 61 bc 1f ee ae 3d
       0.08648274 -0.019541709 -0.013756861 0.08541512
000040 f1 ff 78 3d 66 da 7b ba e4 8a 52 bd 99 19 b2 3d
       0.06079096 -0.0009607434 -0.051401988 0.086962886
000050 62 33 97 3d 55 33 ae bb 77 f6 b9 3d 39 36 3a b9
       0.07382847 -0.005316178 0.090802126 -0.00017758542
000060 58 11 7d 3d 75 de d6 3d 74 93 4d 3d 06 d3 fe 3d
       0.06178412 0.10491649 0.05018945 0.12442593
000070 89 cc 7b 3c 84 79 93 bc 09 2e 9a 3d 60 99 dc 3c
       0.015368589 -0.01800228 0.07528312 0.026928604

const_fold_opt__25 f4 [1536, 32]
000000 be ab 4b bd 47 fc 84 bd 90 d8 91 3c 51 d4 16 bd
       -0.049724333 -0.064934306 0.01780346 -0.036823574
000010 99 6a 26 3d ab 16 3b b9 28 88 0e bd 5a 2d f2 3b
       0.040629003 -0.00017842154 -0.034797817 0.0073906602
000020 7c 79 c9 bc b5 04 23 bc db d5 ba bc be ae a6 3c
       -0.024594061 -0.009949853 -0.022807052 0.020346995
000030 86 72 08 bc b0 ac 96 bd ab e0 82 bd 66 1e cc 3c
       -0.008328086 -0.07357156 -0.06390508 0.024916839
000040 50 94 ea 3d 36 77 9c bd 06 e5 99 3d 2a a5 be 3c
       0.114540696 -0.07639925 0.07514386 0.023272116
000050 80 72 3f bc 64 4c 47 bc 27 ed af bb 38 c4 a6 bb
       -0.011685014 -0.012164209 -0.005368847 -0.005089309
000060 fd f1 13 bd 09 4c 52 bd 5f 48 94 bd 12 3a 96 3b
       -0.03611945 -0.051342044 -0.07240366 0.0045845592
000070 b5 4f 4d bd c1 0c 10 bd 76 e2 7e bd 31 6a 4c bc
       -0.050124843 -0.035168413 -0.06222769 -0.01247649
000080 ee 08 19 3d 22 22 5d 3d 5f ba 71 3d cc cf 50 3d
       0.03736203 0.05398763 0.059015628 0.05097942
000090 1c eb 65 3a 38 5e b0 3c 7b 4a 80 3d eb 0d 08 3d
       0.0008770691 0.021529302 0.06264206 0.0332164
0000a0 a7 22 d5 3d a9 7e 28 3d d9 31 63 3d a0 20 ce 3c
       0.10407 0.041136418 0.05546746 0.025162041
0000b0 bc 63 c3 3c 36 cf 35 3d 2f 80 09 3d e4 c9 47 3d
       0.023851268 0.044387065 0.03356951 0.048776522
0000c0 44 d2 c1 3c f4 8d 70 3d 8a 41 2b bc b7 bb 06 3d
       0.023659833 0.058729127 -0.010452637 0.032893863
0000d0 99 3f 35 3c e9 af 45 3d b8 cf fe 3c 3e a8 00 3d
       0.011062526 0.048263464 0.031104907 0.03141045
0000e0 49 14 0b 3d 1e a4 f2 3c 90 12 8e 3d 14 7b 32 3d
       0.033954892 0.029619273 0.06937134 0.043574408
0000f0 f7 15 27 3d ea b9 88 3d df 02 7b 3d 9f 57 21 3d
       0.04079243 0.06676085 0.061282035 0.039390203
000100 b6 8a 16 3d 9f ca a5 3d 4f 70 86 3d 6a 89 30 3c
       0.03675338 0.080952875 0.0656439 0.01077495
000110 bc 8f 2b bc 11 57 0c bd b8 cd 01 3d c9 91 2c 3d
       -0.010471281 -0.03426272 0.03169033 0.04213122
000120 9a 55 96 3d fd 1c f1 3c 2e e6 4e 3d a7 b8 c1 3c
       0.07340546 0.029432768 0.050512485 0.02364762
000130 c4 8a f1 bb 13 6b e5 3c 26 7f 31 3c 14 ea 8a bb
       -0.0073712785 0.028005159 0.010833537 -0.00423933
000140 dd b4 2a 3d 2b b4 5d 3c 80 e4 1c bd ad a9 a4 3c
       0.04167639 0.013531725 -0.038303852 0.020100439
000150 01 b5 21 3d ab d4 11 3d 58 47 6e 3b 47 7c 0c bc
       0.03947926 0.035603207 0.0036358442 -0.008574552
000160 1e 65 7e 3d 5e fe 4d bd 1e f6 10 3e 85 84 17 3d
       0.06210815 -0.05029141 0.14156386 0.036991615
000170 46 b8 2d 3d 5a 7a 39 3d 86 e1 b0 3c 2b 82 07 3c
       0.042412065 0.0452827 0.021591913 0.008270781
000180 88 b6 b0 3b 63 bc b7 bd d5 89 74 bd 17 1a bf bc
       0.005392853 -0.08971479 -0.05970176 -0.02332787
000190 8d 78 0a be 85 c6 e4 3c 94 d8 1b bd a9 4a 25 bd
       -0.13522549 0.027926693 -0.038048342 -0.040354405
0001a0 d9 fa 9c bd ae 80 06 3c 6d 2c 87 bd d0 32 87 bd
       -0.07665033 0.008209391 -0.066002704 -0.066014886
0001b0 7c ab c2 3d a8 1c 46 bd d5 7d 1f bd c1 99 44 3c
       0.09505364 -0.048367172 -0.038938362 0.011999548
0001c0 d6 75 86 bd 8c 00 32 bc 35 72 ee bd 9d 91 ca 3c
       -0.06565444 -0.010864388 -0.11642877 0.024727637
0001d0 90 aa 14 3c 3c f1 4e bd 93 fa 4e bd c4 02 0e 3d
       0.009073868 -0.050523028 -0.050531935 0.034670606
0001e0 e5 e6 d2 3c 7a a5 aa bc 7c d4 31 3b b3 1a 67 bd
       0.025744865 -0.020830858 0.0027134707 -0.056421947
0001f0 fb ee 80 bd 40 c3 38 bd ac f4 99 3b 96 14 ce bc
       -0.06295582 -0.04510808 0.0046983566 -0.0251563
000200 c4 8a 90 3d f5 68 48 3d ab a8 2b 3d e9 35 a0 3d
       0.070577174 0.04892822 0.0419089 0.078227825
000210 8b c0 86 3d b1 ce ea 3c 2b 20 3c 3d a4 51 6b 3d
       0.065796934 0.028663011 0.045929115 0.057450905
000220 01 f3 87 3d da 44 1f 3d d8 1d 1a 3d aa d9 36 3d
       0.06638146 0.03888402 0.037626117 0.044641174
000230 a0 b3 ac bc 5c 5f 0a 3d 77 89 23 3d c9 cf 10 3d
       -0.021081746 0.033782348 0.03992602 0.03535441
000240 77 d0 86 3d 48 be 89 3d 03 47 1f 3d 8f c6 13 3d
       0.0658273 0.067257464 0.03888608 0.036078032
000250 9e 4c 2a 3d 5a d8 72 3d 44 20 0c 3d 42 90 89 3c
       0.041576974 0.05928836 0.03421046 0.01679242
000260 28 ac 6f 3d 1f fa d7 3c cf 7b 1a bc 1d f7 2e 3d
       0.05851379 0.026364384 -0.009428932 0.042716134
000270 a2 10 34 3c 1d ba 39 3d 79 4a 29 3d 1a ca 95 3d
       0.010990294 0.045343507 0.04133079 0.073139384
000280 1d 5b 04 bc 29 fc cf 3c af 54 e3 3c f0 ff f1 3c
       -0.008078364 0.025388794 0.027750341 0.029540986
000290 7e 87 6b 3d 1f 58 68 3d 74 05 12 3d 7b 26 16 3c
       0.057502262 0.056724664 0.03564973 0.009164448
0002a0 2b 83 5d 3d 90 40 e5 3c 65 e1 2a 3d 16 f1 49 3d
       0.05408017 0.027984887 0.04171886 0.049302183
0002b0 65 b6 81 3d d4 e1 7e 3c 02 d0 2a bc 4e 63 79 3d
       0.06333617 0.015556771 -0.0104255695 0.06088572
0002c0 56 81 83 3d e3 a2 b2 bb 1a 12 7e 3d 42 7e 45 3d
       0.06421153 -0.0054515465 0.06202898 0.048216112
0002d0 bd 5f 73 3d fe 39 a7 3c 2e f7 99 3d df 9e dd 3c
       0.059417475 0.020413395 0.07517849 0.027053295
0002e0 90 d2 14 3d c2 bd 73 3d 4f 6b 2a 3d 12 a1 85 3c
       0.03633362 0.05950714 0.041606244 0.016312156
0002f0 87 55 5c 3c c7 73 75 ba cc 01 00 3d 65 0d c7 3c
       0.013448126 -0.00093632605 0.031251714 0.02429838
000300 0a 63 b2 bb 8e 4c f0 bb 12 ec 24 38 71 26 e2 3c
       -0.0054439353 -0.007333345 3.9320505e-05 0.02760622
000310 e6 c7 06 3d 40 00 33 3d cf 88 0c 3d b1 37 43 3d
       0.03290548 0.04370141 0.03431016 0.047660533
000320 e1 22 cd 3c 41 96 82 3d 99 21 ff 3b d5 e3 07 3d
       0.025041046 0.06376315 0.0077859876 0.033176262
000330 6f 3d 1c 3d 11 de 8b 3b 8a 59 09 3c 39 a6 6c 3d
       0.038144525 0.0042684157 0.008383164 0.05777571
000340 e6 44 a5 bc 11 30 4d 3d 26 a4 e5 3c 79 db 9e 3d
       -0.020174455 0.050094668 0.028032374 0.07756705
000350 1b 48 02 bc 10 0a 2f 3a 53 cb b7 3c 7b 95 83 3d
       -0.007951762 0.00066772196 0.02243582 0.064249955
000360 64 5e d4 3c c1 65 74 3d 28 bc db 3c d8 c3 49 3c
       0.025923915 0.059667353 0.026823118 0.012314759
000370 43 84 64 3c 6e 36 03 3d 9f 54 3a 3d 6e 30 1a 3d
       0.013947549 0.03203433 0.045490857 0.037643842
000380 10 94 d3 bd ad 13 9c bc ad e6 4e bd 9d 43 d7 bd
       -0.10330975 -0.01905235 -0.05051296 -0.10510943
000390 73 e4 3b bd 30 b5 06 bd 3e a4 fb bc 70 e9 35 bd
       -0.045872163 -0.032887638 -0.030717965 -0.044412076
0003a0 d6 85 11 bc 27 cb 0a bd 01 ed 1d bd 9d d2 34 bd
       -0.008882007 -0.033885147 -0.038556103 -0.04414617
0003b0 59 f2 93 3c 3d e9 10 bd 0a 5d 59 bd ac 6a 5c bd
       0.018059896 -0.035378683 -0.053067245 -0.053812668
0003c0 e2 39 41 3c 8e 18 aa bd 00 5f 0f 3d 86 f8 34 bd
       0.0117935855 -0.08305465 0.03500271 -0.044182323
0003d0 e5 cc a0 bc d2 1c 65 bd 3b 17 ce bc 8c a6 3d bd
       -0.019628951 -0.05593569 -0.025157562 -0.04630141
0003e0 e8 2c 84 bd b5 58 8f ba 40 51 4b bc 6a 55 86 bd
       -0.06453878 -0.0010936471 -0.012409508 -0.0655926
0003f0 40 27 9a bc 31 cf 0f bc 76 cd 7a bd 36 68 24 bd
       -0.018817544 -0.008777426 -0.0612311 -0.040138446

const_fold_opt__24 f4 [32, 32]
000000 a3 23 5b be 0d 82 c1 be a6 c7 52 3d 9f 84 88 3e
       -0.21400313 -0.37794533 0.05145993 0.26663682
000010 79 97 d6 3e de c8 92 be 08 26 bc 3e 6b d8 00 3d
       0.4191244 -0.28668875 0.36747766 0.031456392
000020 3d a5 c2 be e9 2c c1 3e 81 2e ee 3e a2 99 0e 3e
       -0.38016692 0.37729576 0.46519855 0.13925794
000030 34 06 03 3f ae e4 65 be f0 66 28 3e 4b 19 20 3e
       0.5118134 -0.22450516 0.16445518 0.15634649
000040 ee 79 11 bd f0 25 da 3e 46 53 6c be 50 cb a5 3e
       -0.03551667 0.4260707 -0.23078641 0.32381678
000050 77 02 e9 3e 59 d9 99 3e f1 5c 98 be ad a0 9c 3e
       0.45509693 0.30048636 -0.2975841 0.30591336
000060 25 bc db 3e 3a ca a0 be d6 ff 5a 3d 2a 49 e5 3e
       0.4291698 -0.31404287 0.05346664 0.44782382
000070 bf 17 27 3e 60 6c 42 3e 26 ff 3c 3d 04 40 c3 be
       0.16317652 0.18986654 0.046141766 -0.38134778
000080 b9 a7 10 be 10 dc 0e be f6 5a 29 3d 7c d9 97 3e
       -0.14126481 -0.13951135 0.041346513 0.29658115
000090 98 6c c4 3d 73 15 c2 bd 50 2a a3 3e b2 e3 9e 3d
       0.09591025 -0.09476747 0.3186822 0.07758273
0000a0 0a 4c 3e be aa 3a 46 3e 36 f6 86 3e d0 d0 f5 3d
       -0.18583694 0.19358316 0.2635972 0.120027184
0000b0 7b 78 85 3e 6f d7 cd bd d1 67 9a 3e 6a 35 0f 3e
       0.26068482 -0.10050856 0.3015733 0.1398522
0000c0 b6 f2 fe 3d b7 38 a7 3d 14 0f 1d bc 03 12 95 3e
       0.12448637 0.081651144 -0.009586114 0.29115304
0000d0 ed 4f 8d 3e 0b f5 c7 3e 2b aa f3 bd 0b 2d 23 3d
       0.2760004 0.3905414 -0.11897691 0.03983788
0000e0 86 36 4f 3e dc ef 9a bd a1 c4 90 3e ef 6b 3b 3e
       0.20235643 -0.07565281 0.28275016 0.18302892
0000f0 12 32 31 3e 59 7d 9c 3e 49 77 a1 3e f6 bf 88 bd
       0.17304257 0.30564383 0.3153632 -0.06677239
000100 39 82 c2 3d 8e 7d 28 bc b7 74 8d 3b 66 2a 03 3e
       0.09497494 -0.010283841 0.004316892 0.12809142
000110 7e ff 80 3d 2f 70 c5 3b 6d 8e e1 3d fd 4a 03 3d
       0.06298731 0.006025336 0.11013494 0.032053936
000120 f5 ba 7f bc d7 51 50 3e 1f c7 b1 3d 3b f4 46 3e
       -0.015608539 0.2034372 0.086805575 0.19429104
000130 16 b2 ce bc 0b f2 65 bc c9 c6 45 3e e1 ae cb 3d
       -0.025231402 -0.014034758 0.19314112 0.09945465
000140 28 72 64 3d e3 18 3c 3e 63 a1 6b 3c 85 6c 9d 3d
       0.05577293 0.18368869 0.014381739 0.07686714
000150 fd 67 8d bd 57 f8 6c 3e a9 eb 85 bd 8b 58 3c 3e
       -0.069046 0.23141609 -0.06539089 0.18393151
000160 7c b5 1b 3c 81 46 6d 3d 13 4f 4e 3e 89 25 4c 3e
       0.009503718 0.057928566 0.20147352 0.19936194
000170 94 05 c1 bd 50 bd fe 3d 6b fe 3a 3e 56 64 c9 3d
       -0.09424892 0.12438452 0.18261115 0.09833591
000180 37 ca 5a bd 6f de ac 3c 7f 33 89 3d 75 f0 80 3e
       -0.053415503 0.021102158 0.06699275 0.25183454
000190 db 0f 14 3e a0 45 d3 3c 09 67 0a 3e a2 51 be 3d
       0.14459173 0.025790036 0.13515867 0.09292914
0001a0 6d d6 21 be c3 c9 bc 3d b0 ea ac 3d 41 6a 66 3e
       -0.15804453 0.092181705 0.084432006 0.2250147
0001b0 60 fc 7d 3e 90 ef c8 bd 00 08 20 3e 33 5d 73 3e
       0.24803305 -0.09811318 0.15628052 0.23766021
0001c0 1a 64 f1 3c a1 c9 4b 3e c1 bf 5e be ab e0 6b 3e
       0.029466677 0.19901134 -0.21752836 0.23034923
0001d0 a9 e2 07 3e af f3 54 3e 61 e3 26 be 68 ae 1b 3e
       0.13270058 0.20796083 -0.16297676 0.1520325
0001e0 2f 08 14 3e 04 0d 7d bd 43 b4 0d 3e e6 42 e9 3d
       0.14456247 -0.06177999 0.13838296 0.11389713
0001f0 6f 63 e1 bc 14 b8 b4 3d d5 09 06 3e 45 a0 23 be
       -0.027513234 0.088241726 0.13089688 -0.15979107
000200 b6 a4 4c bd dd c6 9d ba ab 79 01 3e df ec 10 bd
       -0.049961768 -0.0012037415 0.12644069 -0.035382148
000210 e6 55 15 be 70 03 91 3d 52 ec c6 bd 46 41 49 bd
       -0.14583549 0.07080734 -0.09713043 -0.049134515
000220 92 a9 ad 3e 52 a5 a3 bd ea 16 e8 3d 79 03 41 bd
       0.33918434 -0.07990517 0.113324955 -0.047122452
000230 c7 39 0a 3e c7 98 48 3d 8f 84 5c 3e 43 c9 c9 bc
       0.13498603 0.048973825 0.21534942 -0.024632102
000240 bd 5b 94 3d 24 a7 5d bd ff 6e 9f 3e a8 9e 54 3e
       0.0724406 -0.054114476 0.3113937 0.20763648
000250 a9 73 8c 3e 59 3b b5 3c 21 8e 04 3e 49 71 ab bd
       0.27431992 0.022123026 0.12944843 -0.08371217
000260 e4 fc 62 bd 63 2f 90 bd f2 11 7b 3e 6b 8d 12 bd
       -0.055416957 -0.07040288 0.24518564 -0.035779398
000270 0e 0c 8a 3c f3 0a 12 be 53 aa cc 3d 5c 70 da 3d
       0.016851451 -0.1426199 0.09993424 0.10665962
000280 03 07 44 3e ed bb 17 3e eb 93 89 3d 80 86 8b bd
       0.191433 0.14817782 0.06717666 -0.06812763
000290 e2 a5 5c bd ed dc 87 3e a4 0b 29 be 18 70 a3 bd
       -0.053869136 0.2653574 -0.16508347 -0.079803646
0002a0 ca a4 a7 3e f1 b8 df bd 1f e1 13 bc bc 88 5f bd
       0.32742912 -0.10923947 -0.009025841 -0.05457376
0002b0 cf de ea bc ef 6f 54 3e ff 0a 6c 3d 82 de 88 3d
       -0.028670697 0.20745824 0.057627674 0.06683065
0002c0 af b4 22 3e 41 79 2d bd 05 08 23 3e 3b 81 80 3d
       0.15889238 -0.042351965 0.15921028 0.06274649
0002d0 61 e0 aa 3d f6 24 b6 3c 8c dd 50 3e 69 f5 0a be
       0.08343578 0.022234421 0.20397013 -0.13570179
0002e0 97 77 c1 bd 7d b9 24 3e e7 06 ef 3d ec 1b d5 bd
       -0.09446638 0.16086383 0.116712384 -0.10405716
0002f0 8f a7 0c 3e eb e0 1b bd d6 28 9e 3d 61 25 8a 3e
       0.13735794 -0.038056295 0.077226326 0.26981643
000300 0d 1b 0a 3e 97 7b 7e be 8b 48 93 3e b6 f9 64 3e
       0.13486882 -0.24851833 0.28766283 0.22360882
000310 9f a9 97 3e d6 f7 ba bd 76 78 8a 3e d9 c6 54 3e
       0.29621598 -0.09129302 0.2704503 0.2077898
000320 49 19 6c be 89 0f 00 3e 8b 20 76 3e ff 8a e3 3b
       -0.2305652 0.12505926 0.24035852 0.00694406
000330 77 b4 9a 3e 18 12 a4 bd 9a 71 a4 3e 8c bb af 3d
       0.3021581 -0.080112636 0.3211792 0.085806936
000340 f9 6a 37 3e 03 34 c9 3e 49 1e 72 be ed fd b2 3e
       0.179119 0.39297494 -0.23644365 0.34959355
000350 5b d7 a4 3e d1 15 30 3e d0 19 e1 bc b6 1a 96 3e
       0.32195553 0.17195822 -0.027478129 0.29317254
000360 21 eb 7a 3e b9 df 82 be 5d 77 7b 3e 16 f1 6e 3e
       0.24503757 -0.25561312 0.24557252 0.23334154
000370 20 10 9f bd ee d2 ca 3e 10 13 9f 3e 13 82 6e bd
       -0.077667475 0.39614052 0.3106923 -0.058229517
000380 4c bc 77 3d f9 a8 36 be 53 4e 34 3e 58 78 11 3e
       0.06048231 -0.17837895 0.17608003 0.14206064
000390 86 2d 67 3e 3a 05 64 bb 32 08 91 3e cb c7 56 3e
       0.2257596 -0.0034793154 0.28326565 0.20974652
0003a0 df 6b 2d bd 12 fd f0 3d cb 98 68 3e 62 5d ea 3d
       -0.042339202 0.11767019 0.22714536 0.114435926
0003b0 6e 52 48 3e 75 d0 33 be 01 e0 28 3e 6e 39 0c 3e
       0.19562694 -0.17559989 0.164917 0.13693783
0003c0 a2 66 9f 3d 6e ac d7 3d ec 79 1e be e8 9c 36 3e
       0.077832475 0.10530935 -0.15476197 0.17833292
0003d0 2e a7 59 3e f8 57 fa 3d af 6f c6 bd 90 31 03 3e
       0.2125518 0.1222381 -0.09689271 0.12811875
0003e0 73 41 e9 3d e5 64 3d bd 65 7a a0 3d 86 ab ca 3d
       0.113894366 -0.0462388 0.07835845 0.09895997
0003f0 bb a7 0b bc 28 9b 93 3e 7b a9 8d 3e 73 be b8 bd
       -0.008523877 0.28829312 0.27668366 -0.090207

const_fold_opt__23 f4 [32, 1]
000000 d7 65 0e 3e c0 29 ca be 9d 8b 66 3e 05 9f b0 3e
       0.13906036 -0.39484978 0.22514196 0.34496322
000010 8e 0f ab 3e 9e 02 f1 be d8 7c b8 3e 3b ec 5e 3e
       0.33410305 -0.4707231 0.36032748 0.21769802
000020 c4 e6 19 bf 4b f1 ba 3e 7b 6d d4 3e bc 53 9d 3e
       -0.60117745 0.36512217 0.41489777 0.30727947
000030 3d 74 fc 3e f5 10 02 3e df a4 fc 3e 7c 18 97 3e
       0.49307433 0.12701781 0.49344537 0.29510868
000040 e8 ab 3a 3e 35 00 a1 3e 2a 5f da be 71 28 01 3f
       0.1822964 0.3144547 -0.4265073 0.50452334
000050 5e 41 f4 3e 72 56 da 3e ff f5 df be 2b 7b a9 3e
       0.4770612 0.42644078 -0.43742368 0.33101782
000060 73 b9 bf 3e e5 5a 8c 3d 9a 77 c1 3e 0b 7f b7 3e
       0.37446174 0.06853274 0.3778656 0.35839114
000070 2c 10 53 3e 50 ed c6 3e 15 91 b8 3e e3 06 eb be
       0.20611638 0.3885293 0.3604819 -0.45903692
