en/santana/Santana.onnx (onnx, 205647 bytes, 9 tensors)

const_fold_opt__23 f4 [32, 1]
0	0xbd44cc14	-0.048046187
1	0xbeb00c3a	-0.34384328
2	0x3d875f93	0.06610026
3	0x3dbc0257	0.09180134
4	0xbd170cc0	-0.036877394
5	0x3e6ddb13	0.23228101
6	0xbe50a9e4	-0.20377308
7	0x3e48e584	0.19618803
8	0x3e1afc73	0.15135364
9	0xbc24d761	-0.010061116
10	0xbea93d08	-0.33054376
11	0xbea1f852	-0.31634766
12	0x3e254c3e	0.16142365
13	0xbdc8f3dd	-0.09812138
14	0xbea9677d	-0.33086768
15	0x3d5d60f5	0.054047544
16	0xbeace815	-0.33770815
17	0xbd6f1a83	-0.058374893
18	0xbea091b2	-0.31361157
19	0xbea88dae	-0.32920593
20	0x3de458dc	0.11149761
21	0xbeb17446	-0.34659022
22	0x3e3ad55e	0.18245456
23	0xbd4da8b8	-0.05020973
24	0x3d8f61e3	0.07001092
25	0xbeb285d8	-0.3486774
26	0x3d9fdc1a	0.07805653
27	0xbde4ef14	-0.11178413
28	0x3ca131cd	0.019677067
29	0x3e583e54	0.21117526
30	0xbea60d2d	-0.32431927
31	0x3e287f85	0.16454895

const_fold_opt__22 f4 [32, 32]
0	0x3e26bd4d	0.1628315
1	0xbdeb413c	-0.11487052
2	0xbdca20fa	-0.09869571
3	0x3d675333	0.05647583
4	0x3debae41	0.11507846
5	0x3d393e5b	0.045225482
6	0xbe16dfbe	-0.14733788
7	0x3dc2abb2	0.095054045
8	0xbdbceff7	-0.09225457
9	0x3db6c19a	0.08923645
10	0xbc8ba066	-0.017044257
11	0xbde21f46	-0.11041121
12	0x3d151dae	0.036405258
13	0x3d2489ae	0.040170364
14	0xbde7153e	-0.112833485
15	0x3da23311	0.079198964
16	0xbb0c8f25	-0.0021447625
17	0x3d3bbcdb	0.045834403
18	0x3e17233d	0.14759536
19	0x3dbfa4a6	0.09357576
20	0xbdf5abad	-0.11995635
21	0xbccedd43	-0.02525199
22	0xbc99bc55	-0.018766562
23	0xbe0b6d90	-0.13616014
24	0xbd845a03	-0.06462481
25	0xbe120b34	-0.14262086
26	0x3ddaaf55	0.10677973
27	0x3c044ddc	0.008075204
28	0xbcfe1870	-0.031017512
29	0x3d26a606	0.040685676
30	0xbd8b2847	-0.06794792
31	0x3e35fac8	0.17771447
32	0xbcb24939	-0.02176343
33	0x3dba4cc0	0.0909667
34	0xbe5be8b4	-0.21475488
35	0xbe140900	-0.14456558
36	0xbdd6ec12	-0.104942456
37	0xbe0212aa	-0.12702432
38	0xbc5858d1	-0.013204769
39	0xbe150311	-0.14551951
40	0x3c5332ba	0.012890512
41	0xbd6dfe88	-0.058104068
42	0xbc90472a	-0.017612059
43	0xbba027f1	-0.004887574
44	0xbd1d210f	-0.038361605
45	0xbe25eb1b	-0.16202967
46	0x3df9b944	0.1219354
47	0xbe2695e3	-0.16268115
48	0x3dcda139	0.100405164
49	0x3dc2eb70	0.095175624
50	0x3e4a63a5	0.19764574
51	0xbdcf5496	-0.10123555
52	0xbe007698	-0.1254524
53	0x3d70a328	0.058749348
54	0x3d2ac678	0.04169318
55	0xbc7614a6	-0.015019571
56	0xbd303c7c	-0.043026432
57	0xbca13541	-0.019678714
58	0xbd48a3ca	-0.048984326
59	0xbd6f8a91	-0.058481757
60	0xbe2467a9	-0.16055168
61	0xbe3e54db	-0.18587057
62	0x3c6cc642	0.014451565
63	0xbd83c0a2	-0.06433226
64	0xbd266018	-0.040618986
65	0x3dbc4aed	0.091939785
66	0xbe095f83	-0.13415341
67	0x3c9c86ac	0.019107185
68	0x3d7e0d8e	0.062024646
69	0xb943aaa8	-0.00018660224
70	0x3e2d9693	0.16951971
71	0x3d5de29a	0.054171182
72	0x3e2ab5f8	0.16670978
73	0x3c5b7a1a	0.0133958105
74	0xbd9ae4a3	-0.0756314
75	0x3dd876c5	0.105695285
76	0x3d0577cd	0.032584954
77	0x3d764ca0	0.06013167
78	0x3d1311c9	0.035905633
79	0x3ddb093c	0.10695121
80	0x3e2efefe	0.1708946
81	0xbd12bf73	-0.03582711
82	0x3c8f6b9f	0.017507372
83	0xbd9a589c	-0.07536432
84	0xbe0153ac	-0.12629575
85	0xbc0e856e	-0.008698804
86	0xbd91da39	-0.07121701
87	0xbd1c7a08	-0.038202316
88	0x3d934e31	0.07192648
89	0x3d31d64d	0.043417264
90	0xbd46a0de	-0.04849326
91	0xbdffd199	-0.124911495
92	0xbe238d71	-0.15971924
93	0xbdb5fdfc	-0.08886334
94	0x3dd01b35	0.10161439
95	0xbd813d1f	-0.06310486
96	0xbdac52e6	-0.08414249
97	0x3e1252b7	0.14289366
98	0x3df65f8b	0.12029942
99	0x3e0ec7bf	0.13943385
100	0x3d792e36	0.060835086
101	0xbd4a88db	-0.04944692
102	0x3e3b9de0	0.18321943
103	0xbd869dd7	-0.06573074
104	0x3dac7e05	0.08422474
105	0xbc9942e2	-0.01870865
106	0x3d2d3fea	0.04229728
107	0x3d054f70	0.03254646
108	0x3d439636	0.047750674
109	0xbe248d8b	-0.1606962
110	0xbc8bec98	-0.01708059
111	0xbcb7964c	-0.022410534
112	0xbd1927f5	-0.03739162
113	0x3d2198bd	0.039452303
114	0x3ded5498	0.115884006
115	0xbdb102f1	-0.08643139
116	0x3d6cfeb2	0.057860084
117	0xbdba61d0	-0.091006875
118	0x3ddc3b6c	0.10753521
119	0xbe088698	-0.13332593
120	0x3d98c358	0.07459134
121	0xbd84a302	-0.06476404
122	0x3e30aa32	0.17252424
123	0x3dbe6968	0.092974484
124	0x3d163772	0.03667397
125	0x3e432043	0.19055276
126	0x3d6d6265	0.057955164
127	0x3d3e0416	0.046390615
128	0x3e159551	0.14607741
129	0x3db10717	0.086439304
130	0xbdcc0236	-0.09961359
131	0x3d28ba2a	0.041193165
132	0x3bd847a0	0.0066003352
133	0x3d2675c0	0.04063964
134	0xbdb2f735	-0.08738557
135	0xbd087453	-0.03331406
136	0xbde9b714	-0.114118725
137	0xbcb56be5	-0.022146175
138	0xbe191326	-0.14948711
139	0xbe0c617b	-0.13709061
140	0x3e5f270c	0.21792239
141	0x3d01c75c	0.031684265
142	0xbe2d7be3	-0.1694179
143	0x3c77c13f	0.015121757
144	0xbd831df9	-0.06402201
145	0x3e106ccf	0.14104007
146	0x3dfa0ee8	0.122098744
147	0x3d85298b	0.06502064
148	0x3d493b1e	0.049128644
149	0xbdc62121	-0.096742876
150	0x3d7de6d2	0.061987706
151	0xbd8a7d12	-0.067621365
152	0x3d9fd9de	0.07805227
153	0x3e1ad02d	0.15118475
154	0xbe0df28f	-0.1386206
155	0x3da22aca	0.079183176
156	0xbd7b67e4	-0.061378375
157	0x3d019a8f	0.03164154
158	0xbd866b7e	-0.06563471
159	0x3df12c27	0.117759995
160	0x3de5ece3	0.11226823
161	0x3e298255	0.16553624
162	0x3d90e207	0.07074361
163	0x3d922dfa	0.071376756
164	0xbd922cbe	-0.0713744
165	0x3d8096bf	0.062787525
166	0x3e30a1f7	0.17249285
167	0xbdd2420d	-0.102665044
168	0x3df05b90	0.11736214
169	0xbd84624e	-0.06464063
170	0x3e209b37	0.1568421
171	0x3d53eac9	0.05173758
172	0xbd39f67e	-0.04540109
173	0xbe162bed	-0.14665194
174	0xbd75e0cc	-0.060028836
175	0xbdf73606	-0.12070851
176	0xbcfe69f6	-0.031056385
177	0x3db1a6b8	0.08674377
178	0x3e2afe8c	0.16698664
179	0x3e02fa2c	0.12790745
180	0xbdcd9951	-0.100390084
181	0x3e057aab	0.13035075
182	0xbcb71986	-0.022351038
183	0x3a11a65e	0.00055561017
184	0x3ded3a24	0.11583355
185	0xbd4e30ce	-0.050339513
186	0xbdf7d6dd	-0.12101529
187	0x3c057a5e	0.00814685
188	0xbe1ba8a4	-0.1520105
189	0xbce17eb0	-0.02752623
190	0x3cc496a1	0.023997607
191	0xbe3d442c	-0.18483037
192	0xbda93ebc	-0.08263919
193	0x3ce09273	0.027413582
194	0xbd89e7b0	-0.06733644
195	0x3d116bcf	0.035503205
196	0xbd1c1e2a	-0.038114704
197	0x3e13d1cb	0.14435498
198	0x3d207d6e	0.03918212
199	0x3e372d63	0.17888407
200	0xbcd8d2c5	-0.02646769
201	0xbc806b10	-0.015676051
202	0xbda16d41	-0.07882167
203	0xbd143ef7	-0.03619286
204	0x3d9057cc	0.07047996
205	0xbcd325fd	-0.02577495
206	0xbb87a6b1	-0.004139744
207	0x3c7ecbd6	0.015551528
208	0xbe036a60	-0.12833548
209	0xbd02aec5	-0.031904954
210	0xbe0e99a5	-0.13925798
211	0xbe03d18a	-0.12872902
212	0x3d6fa70f	0.05850893
213	0xbcfd4559	-0.030916857
214	0x3d780611	0.06055266
215	0x3da58d87	0.08083635
216	0x3e2dba1a	0.16965523
217	0x3d94be50	0.07262862
218	0x3d8b38be	0.06797932
219	0x3df21e7a	0.11822219
220	0x3e305879	0.1722125
221	0x3e1ab4f2	0.15108088
222	0x3dcafd8c	0.099116415
223	0x3e2836ec	0.16427201
224	0xbd990e83	-0.07473471
225	0x3dd424a4	0.10358551
226	0xbe1342cf	-0.14380954
227	0xbdad6e2b	-0.084682785
228	0xbd84d9ca	-0.064868525
229	0xbd88cdc3	-0.06679871
230	0x3cd185ab	0.025576433
231	0xbdb4d9c0	-0.08830595
232	0xbe34bdbd	-0.17650504
233	0x3d985460	0.07437968
234	0x3cd5bffd	0.026092524
235	0x3e38c96b	0.18045585
236	0x3e014687	0.1262456
237	0x3c09ee32	0.008418607
238	0x3de94292	0.113896504
239	0x3de5669a	0.1120121
240	0x3dedeb03	0.116170906
241	0x3caebe56	0.021330994
242	0xbda83a26	-0.08214216
243	0x3e0cbd6f	0.13744138
244	0xbe12fec3	-0.14354996
245	0xbc932d37	-0.017965896
246	0x3d8ea980	0.06965923
247	0xbe381611	-0.17977168
248	0x3d814cd4	0.06313482
249	0x3c743c62	0.0149069745
250	0xbda83932	-0.08214034
251	0x3b945248	0.0045264103
252	0xbd081ca7	-0.03323045
253	0x3dbe2796	0.09284894
254	0x3d2251ac	0.03962867
255	0xbdd83a9a	-0.10558052

const_fold_opt__20 f4 [1536, 32]
0	0xbcc7678a	-0.024341363
1	0xbb065a25	-0.0020500508
2	0x3adff344	0.0017086049
3	0xbc0c4a75	-0.008562674
4	0xbcb7ea3b	-0.022450557
5	0xbc12df03	-0.008964303
6	0x3ad5db82	0.0016316029
7	0x3bc0b8bc	0.005881397
8	0x3beb5673	0.0071819364
9	0xbcc6fb3b	-0.024289718
10	0xbb7e6868	-0.0038819555
11	0xbc577647	-0.013150758
12	0x3c053a62	0.008131595
13	0x3a833477	0.0010010143
14	0x3c1f8fe0	0.009738892
15	0xbc36e0f9	-0.011162036
16	0x3c9c4d3f	0.019079803
17	0xba356303	-0.0006919356
18	0x3a910852	0.0011065102
19	0xbc895589	-0.01676442
20	0x3c0f484f	0.008745267
21	0x3c9075ed	0.017634356
22	0x3c4e18b0	0.012579128
23	0x3c5a3360	0.013317913
24	0x3ba7bcc4	0.005118938
25	0x3c6d38aa	0.014478842
26	0x3c6d87ed	0.014497739
27	0x3b53d13a	0.0032320754
28	0x3caa6d85	0.020804176
29	0x3c27ae48	0.010234423
30	0x3ba01a69	0.004885961
31	0x3c824de3	0.01590628
32	0x3bb2c41e	0.005455508
33	0xb990fab4	-0.0002765261
34	0xbb861427	-0.004091758
35	0x3c35a8f7	0.011087648
36	0xbb573d51	-0.0032842944
37	0xbc3d255f	-0.0115445545
38	0xbca35ba4	-0.019941159
39	0x3be69cf0	0.0070377514
40	0x3c6dfe8f	0.0145260235
41	0x3bb280c9	0.0054474813
42	0xbc37eafe	-0.01122546
43	0x3ca8580f	0.020549802
44	0x3ca102d4	0.019654669
45	0xbb6a83f2	-0.0035784212
46	0x3c12fbda	0.008971179
47	0x3c4eada0	0.012614638
48	0x3b99ef1a	0.0046976926
49	0xbcd753f5	-0.026285151
50	0xbc529658	-0.012853228
51	0x3b7e2456	0.0038778982
52	0x3cbadcd3	0.022810375
53	0x3b3ee8ef	0.0029130538
54	0xbc340366	-0.010987138
55	0x3be7d513	0.007074961
56	0x3c1b308c	0.009472024
57	0x3b90b874	0.00441652
58	0xbce1d41a	-0.027566958
59	0xbc63ae0d	-0.013896477
60	0x3c2f5856	0.010702213
61	0x3c008898	0.0078450665
62	0xbb687ef2	-0.0035476056
63	0x3c33caeb	0.010973672
64	0x3b2f3a50	0.0026737638
65	0xbb22744e	-0.0024788561
66	0x3bd08b86	0.0063642887
67	0xbc518020	-0.012786895
68	0xbc252f34	-0.010082055
69	0xbce0ecda	-0.02745669
70	0xba2abc42	-0.0006513038
71	0xbc2f748c	-0.010708939
72	0x3b811eed	0.003940454
73	0x3c86540b	0.016397497
74	0xbc1aa7d1	-0.009439425
75	0xbd0bf65e	-0.0341705
76	0xbc9dae7e	-0.019248243
77	0x3a05a699	0.00050983723
78	0xbc620b61	-0.013796658
79	0x3c769675	0.01505052
80	0xbc2cd559	-0.010548913
81	0x3a8637dd	0.0010240037
82	0x3ca0622f	0.019578068
83	0x3cce6f82	0.025199655
84	0x3cbb3105	0.022850523
85	0xbc6d11af	-0.014469548
86	0x3b51f04a	0.0032034093
87	0xba91401d	-0.0011081729
88	0x3b453126	0.003008911
89	0x3c4a23ea	0.012337664
90	0x3ce4727d	0.027886624
91	0x3aa6c35a	0.0012723014
92	0x3a8bf6c6	0.0010678403
93	0x3b8e1351	0.004335799
94	0x3aca7026	0.00154448
95	0x3bce7850	0.0063009635
96	0xbd821eb0	-0.063535094
97	0x3d3714b6	0.044697486
98	0xbd310b21	-0.043223504
99	0xbd9a1ad6	-0.0752465
100	0xbd0f383a	-0.03496573
101	0x3d0e6b72	0.034770437
102	0xbda05fd8	-0.07830781
103	0x3d5e8314	0.054324225
104	0x3d40c4e1	0.04706276
105	0x3af82857	0.0018932921
106	0x3d064e01	0.032789234
107	0xbdcd5a4c	-0.100269884
108	0xbc28c0bf	-0.0102998605
109	0xbd1d172e	-0.038352184
110	0xbcbafb72	-0.022824977
111	0xbda32b3d	-0.079672314
112	0xbd7680e3	-0.06018151
113	0xbcf400cf	-0.029785542
114	0xbd62d1b9	-0.05537579
115	0xbd3d9b8e	-0.046290927
116	0xbd6d1219	-0.057878587
117	0xbd2afba5	-0.041743893
118	0x3cd918bf	0.026501058
119	0x3d587900	0.05284977
120	0xbd8074a9	-0.06272251
121	0x3d5a7ff2	0.053344674
122	0xbcd5d895	-0.02610425
123	0xbc9d0f75	-0.01917241
124	0xbd7ba7c2	-0.061439283
125	0xbd204000	-0.039123535
126	0xbdb1f49a	-0.08689232
127	0x3d0f6b4a	0.03501443
128	0x3cb2e3ab	0.021837076
129	0xbce819ac	-0.028332554
130	0x3d1373fd	0.035999287
131	0x3c911306	0.017709266
132	0x3c8be0de	0.017074998
133	0xbc072f3f	-0.00825101
134	0x3accde11	0.0015630146
135	0xbc8bfc6c	-0.017088138
136	0xbcf7abe4	-0.030233331
137	0xbc19d186	-0.009388333
138	0x3acca45e	0.001561295
139	0x3d088622	0.033331044
140	0x3cc83d0e	0.024443176
141	0x3cd60c1d	0.026128823
142	0xbc3728ea	-0.011179188
143	0x3cbea786	0.02327324
144	0x3ca03f11	0.019561322
145	0x3cde53f7	0.027139647
146	0x3c16cb46	0.009203738
147	0x3cb7982e	0.022411432
148	0x3d14d4f5	0.036335904
149	0x3bbd3aff	0.005774855
150	0xbc968835	-0.018375495
151	0xbd3216e2	-0.043478854
152	0x3c44519d	0.011982349
153	0xbd06402d	-0.032776047
154	0x3cd0fb4b	0.02551045
155	0x3be5431f	0.006996527
156	0x3cfab1e8	0.03060241
157	0xbbb0d7cf	-0.00539682
158	0x3cbb74fe	0.022882935
159	0xbcda15ab	-0.02662166
160	0x3c3e6a12	0.011621969
161	0xba4ecedc	-0.0007889101
162	0x3cb4bb48	0.022061959
163	0x3c19aa91	0.009379045
164	0xbc9412ec	-0.018075429
165	0xbbbd551b	-0.0057779676
166	0xba77b070	-0.00094485935
167	0x3c339048	0.010959692
168	0x3b49a4d7	0.0030768418
169	0x3cf0264c	0.029315136
170	0xbbd1c3f4	-0.0064015333
171	0x3c5b6fc4	0.013393346
172	0xba947aa0	-0.0011328049
173	0xbc2119fb	-0.009832854
174	0xba7b0d41	-0.0009576865
175	0x3bc3e82f	0.005978606
176	0xbcd04993	-0.025425708
177	0xbbddcd37	-0.0067688483
178	0xbb5ba90e	-0.0033517512
179	0x3c837cc2	0.0160507
180	0xbc4abf58	-0.0123747215
181	0x3c9dd3ac	0.019265972
182	0x3c874a73	0.016514992
183	0xbb5109e4	-0.0031896764
184	0xbba27c41	-0.00495866
185	0x3a965636	0.0011469785
186	0xbccf7932	-0.025326345
187	0xbcc08249	-0.023499625
188	0xbc9a73b3	-0.018853998
189	0xbcdb7f6a	-0.026794154
190	0xbc4a1f78	-0.012336604
191	0xbc8b3c5f	-0.01699656
192	0x3ca832b5	0.020531991
193	0xbcb1ab16	-0.021688025
194	0xbbabcc0d	-0.0052428306
195	0x39f6b6c0	0.00047056936
196	0xbbee26fa	-0.00726783
197	0x389073a5	6.8879956e-05
198	0x3c45559b	0.012044336
199	0x3c41e2ee	0.011833889
200	0xbb8074f7	-0.0039201933
201	0xbc9efcd8	-0.019407675
202	0x3bb607c4	0.005555125
203	0x3c96b1f7	0.018395407
204	0xbb942134	-0.0045205597
205	0xbbd750d9	-0.006570917
206	0x3cb5adea	0.022177655
207	0x3bab7db0	0.005233489
208	0xbc82fa00	-0.01598835
209	0x3bfa8fed	0.007646552
210	0x3c0e079f	0.008668809
211	0x3cd6a1ef	0.026200263
212	0x3cefbde4	0.029265352
213	0xb751dd5c	-1.250891e-05
214	0x3ca317a7	0.01990874
215	0xbbef645e	-0.007305666
216	0xbc1e6d0b	-0.009669553
217	0x3bf8deb3	0.007594907
218	0x3c45f745	0.012082879
219	0x3c7ca80d	0.015420926
220	0x3ca727ce	0.020404723
221	0x3b312ec4	0.002703593
222	0xbc787670	-0.015164956
223	0x3c8e435c	0.017366104
224	0x3ca80506	0.020510208
225	0xbbe2bff2	-0.0069198543
226	0xbba81d98	-0.005130481
227	0x3bbdbeea	0.005790581
228	0xbc6ed80f	-0.01457788
229	0xbcac4629	-0.021029549
230	0xbcd6eee2	-0.026236955
231	0xbb96f729	-0.0046071005
232	0x3c836e9c	0.016043954
233	0x3cb68152	0.022278462
234	0xbc3a523e	-0.011372147
235	0xbbe2b770	-0.00691884
236	0xbc4a301b	-0.012340571
237	0x3b5aeb4f	0.0033404415
238	0x3ce8d455	0.02842156
239	0x3cb288a2	0.021793667
240	0xbb2f062c	-0.002670656
241	0x3ce4715d	0.027886087
242	0x3b741d49	0.00372489
243	0x3bf328e8	0.007420648
244	0xbba54c72	-0.0050445134
245	0x3cdb8c0d	0.02680018
246	0x3c0ae6b4	0.0084778555
247	0xbc8cc6ce	-0.017184641
248	0xbb5953d3	-0.0033161535
249	0xbcd6ab3d	-0.0262047
250	0x3cd07cd9	0.025450157
251	0xbc8df758	-0.017329857
252	0xbc20bbdb	-0.009810413
253	0xbc3a667e	-0.011376975
254	0xbcc658bb	-0.024212232
255	0xbc505bac	-0.012717169

Const_7 f4 [32]
0	0xbc512b96	-0.012766739
1	0x3e8d44e9	0.27591637
2	0x3d2e0832	0.042488284
3	0x3d2f6e07	0.04282954
4	0xbda60f7c	-0.08108422
5	0x3d7a2a4e	0.0610755
6	0x3ddb7d13	0.107172154
7	0x3d6f2e10	0.058393538
8	0xbc461d15	-0.012091895
9	0xbcf27f23	-0.02960164
10	0x3e6ada80	0.22934914
11	0x3e7a1c27	0.24424802
12	0x3d8e1376	0.06937306
13	0xbcd48b01	-0.025945188
14	0x3e87bfdb	0.26513562
15	0x3cf114cd	0.029428864
16	0x3e61c515	0.22047837
17	0x3c99f81a	0.018795062
18	0x3e747fa1	0.23876812
19	0x3e61f900	0.22067642
20	0x3d640e44	0.055677667
21	0x3e5eb89c	0.2175011
22	0x3d4c946a	0.049946226
23	0xbd0669fd	-0.032815922
24	0x3c1d1320	0.009587079
25	0x3e5fddd3	0.21861963
26	0x3d40d983	0.047082435
27	0xbd4b75a7	-0.04967275
28	0xbc2e3b6b	-0.010634284
29	0x3cb9e30e	0.022691276
30	0x3e620de8	0.22075617
31	0x3d481294	0.048845842

Const_6 f4 [32]
0	0x3f7e8b12	0.99430954
1	0x3fadc51b	1.3575777
2	0x3f866f79	1.0502769
3	0x3f8b1c61	1.0868036
4	0x3f63c026	0.8896507
5	0x3f8a89fc	1.082336
6	0x3f8e592f	1.1120967
7	0x3f8811d4	1.0630441
8	0x3f7f8950	0.998189
9	0x3f79fa0c	0.97647166
10	0x3f9e19b9	1.23516
11	0x3fa26621	1.2687417
12	0x3f89315c	1.0718188
13	0x3f7676e9	0.9627519
14	0x3fa9bd33	1.3260864
15	0x3f845e04	1.0341191
16	0x3f9b098e	1.2112291
17	0x3f812c47	1.0091637
18	0x3fa0d108	1.2563791
19	0x3f9aa6e5	1.2082182
20	0x3f89fe61	1.0780755
21	0x3f9a15e7	1.2037934
22	0x3f88109d	1.063007
23	0x3f773ca3	0.965769
24	0x3f83494e	1.0256746
25	0x3f9b1389	1.2115337
26	0x3f849a10	1.0359516
27	0x3f7237f6	0.9461664
28	0x3f7ab062	0.9792539
29	0x3f84de37	1.0380315
30	0x3f9a4f6d	1.2055489
31	0x3f8a0903	1.0784

Const_5 f4 [32]
0	0xbe3d0adf	-0.18461178
1	0x3dd8851d	0.10572264
2	0xbe3dd668	-0.1853882
3	0xbd2c1d8c	-0.042020366
4	0x3e198648	0.1499263
5	0x3d96d0b2	0.07364024
6	0xbdbc37cb	-0.09190329
7	0xbdf63966	-0.12022667
8	0x3d14eebf	0.0363605
9	0xbdf2a807	-0.11848455
10	0x3d42f7af	0.04759949
11	0x3d562d5a	0.052289344
12	0xbdce0110	-0.100587964
13	0xbd19c062	-0.037536986
14	0x3ddc96b0	0.10770929
15	0x3dddb6eb	0.108259045
16	0x3e21bdc2	0.15795043
17	0x3d2d3189	0.04228357
18	0x3d464120	0.04840195
19	0x3da0a678	0.078442514
20	0x3e1b98be	0.15194985
21	0xbdb648c5	-0.089005984
22	0x3dce8bd0	0.10085261
23	0x3e22d293	0.1590064
24	0x3adf20b0	0.0017023291
25	0x3d6fd067	0.058548357
26	0x3cd5814e	0.026062634
27	0xbe27ad8b	-0.16374795
28	0xbd56f780	-0.05248213
29	0x3e06258d	0.13100262
30	0xbceb0563	-0.028689092
31	0x3e31c73c	0.17361158

Const_3 f4 [32]
0	0x3bd114f5	0.006380672
1	0x3caf9702	0.02143431
2	0xbc231d1c	-0.009955671
3	0x3cd37aa0	0.025815308
4	0xbd3786e0	-0.04480636
5	0x3bbf99e8	0.0058472045
6	0x3bee3e42	0.0072706053
7	0x3c8ffabb	0.017575612
8	0x3bd33501	0.0064455275
9	0x3c5ced59	0.0134843225
10	0x3ceee017	0.029159589
11	0x3c56384e	0.0130749475
12	0x3c5e026f	0.013550385
13	0xbc8ca6fe	-0.017169472
14	0x3c8cbaad	0.017178858
15	0x3d83ff97	0.06445234
16	0x3c0b99be	0.008520542
17	0xbc68511b	-0.014179493
18	0x3c249314	0.010044832
19	0x3d3f6fae	0.046737365
20	0x3c4e5e29	0.012595692
21	0xbc71f046	-0.014766758
22	0x3c1bb9be	0.009504734
23	0x3c8c3dff	0.017119406
24	0x3c00e50f	0.007867112
25	0x3c953f78	0.01821874
26	0xbb4a8c68	-0.0030906443
27	0xbcac0400	-0.020998001
28	0x3c64a7f9	0.013956063
29	0x3a22d5ac	0.0006211649
30	0x3c7625ee	0.015023692
31	0x3b75fa5b	0.0037533257

Const_2 f4 [32]
0	0x3f80f9de	1.0076253
1	0x3f82fc57	1.0233258
2	0x3f79f0cc	0.9763305
3	0x3f82873a	1.0197518
4	0x3f7890a2	0.9709569
5	0x3f7dbfff	0.9912109
6	0x3f821c9b	1.016498
7	0x3f80c7c0	1.0060959
8	0x3f7ece9e	0.9953402
9	0x3f7f3e4d	0.9970444
10	0x3f7e85c2	0.9942285
11	0x3f8310ba	1.023948
12	0x3f7f6fa5	0.9977973
13	0x3f7f0cca	0.9962889
14	0x3f816da0	1.011158
15	0x3f82915b	1.0200609
16	0x3f80356f	1.0016307
17	0x3f7f5d56	0.99751794
18	0x3f7995c5	0.97494155
19	0x3f8335d1	1.0250798
20	0x3f82b05a	1.0210068
21	0x3f7e1805	0.992554
22	0x3f7845b3	0.9698135
23	0x3f82ab67	1.0208558
24	0x3f810ea3	1.0082592
25	0x3f8307d8	1.0236769
26	0x3f7f3fa7	0.997065
27	0x3f7ed815	0.99548465
28	0x3f81469b	1.0099672
29	0x3f7e1c5c	0.9926202
30	0x3f802503	1.0011295
31	0x3f7caeb1	0.9870406

Const_1 f4 [32]
0	0xbc9e7cd3	-0.01934663
1	0x3b4a39f7	0.0030857304
2	0x3ba91d6f	0.0051609795
3	0xbc26d108	-0.010181673
4	0xbc941cb5	-0.018080095
5	0xbc901a58	-0.017590687
6	0x3b511c30	0.003190767
7	0x3c482608	0.012216099
8	0x3beb250c	0.007176047
9	0xbbb5ec55	-0.0055518546
10	0x3ccf4e2d	0.025305832
11	0x3a46c894	0.0007582989
12	0xbc870fc8	-0.016487017
13	0x3b0c091b	0.0021367732
14	0x3cd416ca	0.025889773
15	0x3aa986f4	0.0012933896
16	0xbc112747	-0.008859462
17	0x3c1f0c04	0.009707455
18	0xbcb99428	-0.022653654
19	0xbb8760a3	-0.004131393
20	0x3be56032	0.0069999928
21	0x3cba574d	0.022746706
22	0xbbc659d7	-0.00605319
23	0xbc57d9f9	-0.013174527
24	0x3c521f29	0.012824812
25	0xbb21a236	-0.0024663336
26	0xb989632d	-0.00026204568
27	0x3c898a8c	0.016789697
28	0xbc79b93d	-0.015241918
29	0xbc442992	-0.011972802
30	0x3c56c5a6	0.0131086465
31	0x3c7e31c1	0.015514792
