en/hal/hal_v2.onnx (onnx, 208128 bytes, 9 tensors)

model/tf.math.add_1/Add/y f4 [32]
000000 d4 36 a2 3d 16 3b c5 3d f4 32 d1 3c 9d d6 2a 3e
       0.07920614 0.096304104 0.025536992 0.16683431
000010 fd 38 9a bc e1 c2 11 3e 71 62 6f 3d 91 b4 8a 3d
       -0.018826002 0.14234497 0.05844349 0.067727216
000020 2e 6e 72 3e cf e2 0e 3e d9 60 af 3d e7 64 e0 bd
       0.23674843 0.13953708 0.08563394 -0.109567456
000030 9e 1a 0e be cd 38 d0 bc 3c 13 b5 3d 45 4d f4 3d
       -0.13877341 -0.02541771 0.08841559 0.119288005
000040 e4 f1 45 bd 4d 45 d9 3d 1d 36 e8 3d e8 bd cc bc
       -0.048326388 0.10608921 0.11338446 -0.024992898
000050 34 6d e0 bd 90 53 3e 3d 9f 48 e2 bc be 34 f3 3d
       -0.10958329 0.04646641 -0.027622519 0.11875294
000060 42 80 0d be a0 0d bb 3d af c2 cd 3d 42 87 a9 bd
       -0.13818458 0.09133458 0.100468986 -0.082777515
000070 47 c0 d1 3d 37 bf 36 be b5 80 13 3d 66 1b cf 3d
       0.10241752 -0.1784638 0.036011416 0.10112648

model/tf.math.add/Add/y f4 [32]
000000 47 27 6f 3d 6a fa 6f 3c f0 6a 49 bc c4 e8 93 bc
       0.058387067 0.014647106 -0.012293562 -0.018055327
000010 6c 5c b6 3c 90 01 d6 3c 62 24 dd 3b 2b a3 1f bc
       0.022260867 0.026123792 0.006748722 -0.009743492
000020 c4 b4 13 bb a6 49 7b 3c fb 93 93 3c e4 3d 36 3d
       -0.0022538165 0.015337383 0.018014899 0.044492617
000030 ff aa ac 3d 6b ba cf 3b 00 7b f7 bb b9 d7 8f 3d
       0.084310524 0.0063393614 -0.0075525045 0.07023568
000040 3b bf 55 3c fa 3f ad 3d 1f 0a 8b 3c 04 9f 8f 3d
       0.013046081 0.08459468 0.0169726 0.07012752
000050 4c 70 a9 3c b6 af 2c bc 2e 57 96 bc d9 6d 01 bc
       0.02068343 -0.01053994 -0.018352117 -0.007899725
000060 4e ae 5d 3c 44 98 53 3d 31 d0 a9 3c 3d 2e 24 bc
       0.013530327 0.051658884 0.020729156 -0.01002079
000070 67 0e 63 3d e6 30 8d 3d 0d 55 42 3d de 01 52 bc
       0.055433657 0.06894092 0.047444392 -0.012817828

model/layer_normalization_1/batchnorm/mul/ReadVariableOp/resource f4 [32]
000000 bb f3 a2 3f cb 53 8f 3f 97 ce 94 3f b6 90 a2 3f
       1.2730631 1.1197447 1.1625546 1.2700412
000010 fc 1c 7d 3f 90 1d ab 3f 97 a1 97 3f 75 70 97 3f
       0.9887235 1.3368397 1.1846188 1.1831194
000020 43 24 a7 3f 76 87 86 3f 47 ef 7b 3f 6c 84 ac 3f
       1.3057941 1.0510089 0.98411983 1.3477912
000030 6c 40 b6 3f d6 34 9f 3f f9 b6 63 3f cb cd ce 3f
       1.423841 1.2437999 0.8895107 1.6156553
000040 2e 03 89 3f 90 19 81 3f 29 22 a5 3f 19 25 95 3f
       1.0704095 1.0085926 1.290105 1.1651946
000050 b5 83 86 3f c9 73 9e 3f 90 e7 a9 3f cf ce 90 3f
       1.0508944 1.2379085 1.3273792 1.1313113
000060 3c 93 aa 3f d3 dd 9e 3f 4b 23 d6 3f fa fe 87 3f
       1.3326182 1.2411445 1.672952 1.0624688
000070 21 6e 9e 3f 86 32 9f 3f a8 c0 bc 3f e5 50 9a 3f
       1.2377359 1.2437294 1.4746294 1.2055937

model/layer_normalization_1/batchnorm/ReadVariableOp/resource f4 [32]
000000 74 6c ad 3e b7 8b 07 3d 74 39 d0 3c bf 7e af 3d
       0.33871806 0.033092227 0.02541802 0.08569097
000010 ab f3 83 3d 1a f8 15 3e f1 36 8c 3e 5b db 8d 3e
       0.0644296 0.14645424 0.27385667 0.27706417
000020 c5 5b a7 3e e5 e7 aa 3b 52 0d 8f 3e ec bd c2 3d
       0.32687202 0.0052156323 0.2793985 0.09508881
000030 1a 89 75 3e 40 32 a0 3e ca 89 a3 3e b4 f9 9a 3e
       0.23978081 0.31288338 0.31941062 0.30268633
000040 c1 27 5e 3c 96 69 fa 3c 77 29 a6 3e 64 e7 e0 3d
       0.013559283 0.030567925 0.3245351 0.10981634
000050 7c 2e a3 ba 29 7f 9c 3d 9a 2e a2 3e 7b 56 41 3e
       -0.0012449767 0.076414414 0.3167618 0.18880646
000060 8f d3 83 3e 0b bc ad 3e c9 08 cb bb 6c 67 72 3e
       0.25747344 0.33932528 -0.0061961156 0.23672265
000070 40 e5 04 3e 4e fe 22 3d a1 9c 51 bd 06 52 0a 3e
       0.12978077 0.039793305 -0.051174764 0.13507852

model/layer_normalization/batchnorm/mul/ReadVariableOp/resource f4 [32]
000000 fa 8b 83 3f ea a7 89 3f 92 b8 8d 3f a6 76 8e 3f
       1.0277092 1.0754368 1.1071951 1.1129959
000010 ed da 88 3f 27 1e 8a 3f fc 54 98 3f a0 e4 90 3f
       1.0691811 1.0790452 1.1900935 1.1319771
000020 4f 1c 8a 3f 71 27 80 3f 80 63 8a 3f dc ec a5 3f
       1.0789889 1.0012037 1.0811615 1.2962909
000030 1e 86 9b 3f 96 b6 9b 3f f7 1a 86 3f d6 98 88 3f
       1.2150304 1.2165096 1.0476979 1.0671642
000040 b4 9d 7e 3f 35 35 91 3f d7 2f 82 3f bd a4 87 3f
       0.99459386 1.1344362 1.017085 1.0597149
000050 00 49 53 3f 54 c3 94 3f 41 06 96 3f d9 6d 67 3f
       0.82533264 1.162211 1.1720659 0.9040199
000060 01 5a 94 3f 6e 1e c5 3f 0b e3 65 3f 6d 11 92 3f
       1.1589967 1.5399911 0.89799565 1.1411568
000070 a2 f4 85 3f 2b 12 8e 3f 46 e5 81 3f e9 49 8e 3f
       1.0465281 1.1099294 1.0148094 1.1116306

model/layer_normalization/batchnorm/ReadVariableOp/resource f4 [32]
000000 9a 80 a2 3d e6 27 35 3e db 8c 13 3e 3f f5 21 3e
       0.07934685 0.17691001 0.14409201 0.1581621
000010 88 79 29 3d cf 8f 2b 3e 39 1c be 3d 15 50 28 3e
       0.041375667 0.16754077 0.09282727 0.16436799
000020 94 51 17 3d 4b 18 22 3e 5f 00 2f 3e 45 50 0d 3e
       0.036943033 0.1582958 0.17089985 0.13800152
000030 19 92 10 3e ac 4d 36 3e ec 6b 27 3e 83 73 c6 3d
       0.14118232 0.17803067 0.16349763 0.09690001
000040 5c 8b 3f 3e 47 5f dd 3d 0c 19 42 3e 44 9d be 3d
       0.18705505 0.10809188 0.18954867 0.0930734
000050 41 30 68 3e 12 04 2b 3e d2 20 3c 3e 3e 31 83 3e
       0.22674657 0.16700771 0.18371895 0.25623506
000060 97 17 12 3e 51 68 1b 3e ba 24 89 3e e8 49 18 3e
       0.14266811 0.15176512 0.26785833 0.14871943
000070 38 f3 bd 3d b5 a1 0a 3e 95 6d 4b 3e ea 5c 69 3d
       0.09274906 0.13538249 0.19866021 0.056973375

const_fold_opt__25 f4 [32, 32]
000000 b0 9f 41 3e f5 b6 b8 3d ec e6 6a 3d b2 8c 51 bd
       0.18908572 0.09019271 0.05734913 -0.051159568
000010 b9 64 dc bc 09 24 2e 3e ac a5 f4 bc 96 ce e6 3c
       -0.026903497 0.17005934 -0.029864155 0.02817468
000020 f8 c7 77 bd 65 f3 ae 3c b6 44 ce 3d 63 a2 e0 3d
       -0.06049344 0.021356294 0.10071699 0.10968473
000030 0b c7 56 3e ea 6e 20 3d 70 ae 09 3d bf 8c 11 3e
       0.20974366 0.039168276 0.033613622 0.14213847
000040 74 a6 4d 3e 4d 56 03 3d 2f d2 a8 3d 47 ff a0 bd
       0.20083028 0.032064725 0.08243214 -0.0786119
000050 47 91 0c 3d de 8a 11 be 57 cf 07 3d c0 9c cf bc
       0.034318235 -0.1421313 0.03315672 -0.025343299
000060 ae 0c 0c 3e 2e e0 8d 3d 91 ef d9 bd b1 9b 6e 3e
       0.13676712 0.069275245 -0.10641397 0.23301579
000070 e4 f0 22 3d 01 42 8e bd 25 6d 4a 3d a0 8e 3f bc
       0.039780512 -0.06946183 0.049420495 -0.011691719
000080 a6 cc 6d 3d 67 f0 1e 3d bd c8 e3 bc 90 0e 98 3c
       0.058056496 0.038803484 -0.02780568 0.018561631
000090 5f 03 bb bc 4e cd 3d 3e 1a 5c 00 3e e6 d0 d5 3d
       -0.022828756 0.18535349 0.12535134 0.10440235
0000a0 ab 91 98 bd 5a 36 00 3c 59 45 30 3e 30 62 60 3e
       -0.07449659 0.007825458 0.17213954 0.21912456
0000b0 d4 e6 bd 3e c6 3b 26 3e 99 7b 1d 3e 32 21 e6 bb
       0.3709017 0.1623374 0.1537918 -0.007023
0000c0 3c 82 cb 3d b9 97 f0 bd a9 6c 3b 3e 8a 99 d2 3d
       0.099369496 -0.11747689 0.1830317 0.102831915
0000d0 b1 fa fd 3b bb a6 80 3e 19 46 dd bd 27 b7 c5 3d
       0.007750832 0.25127205 -0.10804386 0.09654074
0000e0 70 44 6c 3e 85 96 50 3e ec f9 4b be 1e f2 dc 3d
       0.23072982 0.20369919 -0.19919556 0.10788368
0000f0 cb bb f0 bd cc d3 7d 3e d6 e9 19 3e 26 17 92 3e
       -0.11754569 0.24787825 0.15030608 0.28533286
000100 6c 60 91 be e4 57 d6 3e 20 eb 84 3e 9c 17 11 3d
       -0.28393877 0.4186393 0.25960636 0.035422906
000110 83 ad d1 bd 7f 1a b3 3e 00 7c a6 bd 36 aa c3 bd
       -0.10238173 0.34981152 -0.0812912 -0.095539495
000120 98 d5 a3 be 39 cf 20 3e ea fc 87 39 67 b4 c9 3e
       -0.31998897 0.15704049 0.00025937642 0.3939545
000130 ce f7 24 3e e1 ea 92 ba f7 24 cf 3d 94 2c 3b 3e
       0.16110155 -0.0011208915 0.10114472 0.18278724
000140 b3 3c 60 be 29 2e 64 bd b8 8d 85 3a 40 f6 28 3e
       -0.21898155 -0.055708084 0.001018933 0.16500187
000150 96 6d 8e 3c c6 57 a8 3e 8e ac 7f 3d 9e 01 53 3e
       0.017386239 0.32879466 0.06242042 0.20606086
000160 94 08 e1 3e 24 67 d1 bd c9 9e af 3c a7 87 a5 3a
       0.43951857 -0.10224751 0.02143802 0.0012628929
000170 15 c1 33 be 9b 52 9c 3d 05 39 cf 3e dd e1 81 3e
       -0.17554124 0.07632943 0.4047319 0.25367633
000180 0f 40 ac be 78 0a 8b 3e ee a4 1e 3d fb 24 b3 3b
       -0.33642623 0.27156425 0.038731508 0.005467055
000190 80 c7 78 be b3 df 2b 3e 93 71 fc bc 15 34 46 be
       -0.24294853 0.16784553 -0.030815875 -0.19355805
0001a0 3e 78 7c be ae 3c d7 3e a6 21 8e bd ad d4 76 3e
       -0.24655244 0.42038482 -0.06940012 0.24104567
0001b0 4e 66 2c 3e 06 e3 80 be 61 4a 2e 3e da 66 a2 3e
       0.16835901 -0.25173205 0.17020561 0.31719095
0001c0 07 6d 17 3d 80 4d 16 bd 98 2b eb bd fa b9 8f 3d
       0.03696921 -0.036695004 -0.11482924 0.07017894
0001d0 cd 72 97 bd 8b 9e 5a 3e 29 62 7b be ed 41 92 3d
       -0.073949434 0.21349542 -0.24549164 0.071414806
0001e0 cc 57 6d 3e 55 61 ba be e6 59 2f 3e 5c 98 61 be
       0.23178023 -0.36402383 0.17124137 -0.22030777
0001f0 0c 47 fb 3d 4e d6 cb 3d 0a 8c 65 3b 89 f4 46 3e
       0.122694105 0.09952985 0.0035026097 0.1942922
000200 ff 85 19 be c8 7d ff 3d b8 66 59 3e f4 90 10 3e
       -0.14992522 0.12475163 0.2123059 0.14117795
000210 09 bc b3 bd 93 f6 43 3e 7a 1f c1 bd 59 16 1f be
       -0.08776099 0.1913703 -0.09429832 -0.15535869
000220 1f 0c 59 be 50 55 44 3e 1f a5 2a be 69 41 34 3e
       -0.2119603 0.19173169 -0.16664551 0.17603077
000230 10 67 83 3e a7 60 6c bd 89 e4 6d 3e d5 ae 82 3e
       0.25664568 -0.057709362 0.2323171 0.2552401
000240 cb 44 d7 3d 46 92 51 bd 70 d8 50 3d 58 6e 38 3d
       0.10511168 -0.051164888 0.05098766 0.045027107
000250 11 1f 1d 3e f5 fe c8 3d 85 8f 8f be af aa 44 3e
       0.15343882 0.09814254 -0.28039184 0.19205736
000260 56 44 20 3e 87 43 5b be 24 28 bc 3c c8 15 44 be
       0.15651068 -0.21412478 0.02296836 -0.19148934
000270 01 2e ab 3d ab 92 e4 bc 50 aa 64 3e 07 01 a2 3d
       0.08358384 -0.027901968 0.22330594 0.07910352
000280 ec 44 12 be f4 c8 d0 3d 1e 3d 8c 3d 8e 25 3b 3e
       -0.14284104 0.10194579 0.06847595 0.18276045
000290 00 d8 ee bd 46 3b a8 3e eb bf be be 43 5f 9a be
       -0.116622925 0.32857722 -0.37255797 -0.30150804
0002a0 c9 e6 c3 bd a9 d3 c4 3e 70 8d 98 bd 97 d0 1d 3d
       -0.09565503 0.38442734 -0.07448852 0.038529005
0002b0 1c a5 b1 3e 52 3d a6 bd a2 8e 0b 3e 0b ce 82 3e
       0.3469628 -0.08117165 0.13628629 0.25547823
0002c0 26 8c 31 be 1f ba ff bc d5 f6 3b be a2 fc 6f b8
       -0.17338619 -0.03121668 -0.18355878 -5.7217323e-05
0002d0 3b 9d fb 3d e7 6a 6e 3e 29 a1 34 be ac d7 94 3e
       0.12285849 0.23282968 -0.17639603 0.29070795
0002e0 66 85 93 3e c7 b1 ff bd f7 41 a9 3e 8e 01 8b be
       0.28812712 -0.1248508 0.3305814 -0.27149624
0002f0 96 fb ad bd 5c 36 a1 3e 5a 43 ea 3d 24 77 64 3d
       -0.08495252 0.31486785 0.114386275 0.055777684
000300 b5 e5 45 be 5b 93 4c 3e 45 28 22 3e f5 4f 8f bd
       -0.19325908 0.19978087 0.15835674 -0.069976725
000310 86 01 62 be a1 b5 ac 3e 23 7e 8d be fe e0 13 bd
       -0.22070894 0.33732322 -0.27635297 -0.03610324
000320 b1 03 95 bd 53 3e 29 3e 08 43 8b be 8a 6d 9c 3d
       -0.07276095 0.16527681 -0.27199578 0.076380804
000330 4d 1a 1a 3d 75 34 63 be 70 e8 8a 3e 74 15 1b 3e
       0.03762274 -0.2218798 0.2713046 0.15144902
000340 4e 11 e9 bd 72 13 2b be 73 63 a5 be 9c ce 16 be
       -0.11380254 -0.16706637 -0.32302436 -0.14727253
000350 ef 74 e2 3d ff 0f 43 3e 52 39 49 bd 18 09 50 3e
       0.110574596 0.19049071 -0.04912693 0.20315969
000360 2d 0c af 3e 75 6e 46 be 6a 29 02 3d eb d6 4a be
       0.34188977 -0.19378074 0.031777777 -0.19808547
000370 11 18 e3 3d 1d 95 2b 3e 59 00 73 3e c0 0d 79 3e
       0.11088575 0.16756101 0.23730601 0.24321651
000380 42 be a1 be 5b dc a7 3d 01 82 32 3e 9b 0c d1 3d
       -0.31590468 0.08196326 0.17432405 0.102074824
000390 84 bc 8a bd b9 b1 52 3e 3b f3 8a be 59 e1 1a bd
       -0.06774238 0.20575608 -0.27138695 -0.037812565
0003a0 87 14 a0 be 25 45 be 3e de ac 75 be 0f 6b b8 3e
       -0.3126566 0.37162128 -0.23991725 0.3601918
0003b0 47 1d 44 3e ee ec 68 be 98 b6 34 3e 69 ed 51 be
       0.19151793 -0.22746632 0.17647779 -0.20500721
0003c0 54 f1 ca bd 4b ac 9c bd 75 c3 d7 bd ea f4 ab bc
       -0.09909311 -0.0765005 -0.10535327 -0.020990808
0003d0 8d 60 ad 3d 4a c9 c4 3e 22 3c b6 bd 90 c4 79 3e
       0.08465681 0.3843482 -0.08898188 0.24391389
0003e0 c1 d2 05 3e a3 8a d1 bd 27 fb 07 3e 82 80 57 be
       0.13068677 -0.10231521 0.13279401 -0.21045116
0003f0 23 78 1d 3e 40 d0 9b 3e 9e 93 59 3e 50 0b 5d 3e
       0.1537786 0.3043232 0.21247718 0.21586347

const_fold_opt__23 f4 [32, 1]
000000 e3 99 b2 be 89 55 50 3e 1d 31 89 3e 6b 34 70 3e
       -0.3488303 0.20345129 0.26795283 0.23457496
000010 e8 ab 30 be bd 30 ba 3e ad ec c3 be 1b 87 8e be
       -0.17253077 0.3636531 -0.38266507 -0.27837452
000020 a3 fe be be e7 f7 21 3e 88 85 01 be 5a 3c 9e 3e
       -0.37303647 0.15817223 -0.12648594 0.3090542
000030 ee 25 e5 3e 0a 9a d1 be f9 82 d8 3e 5c d1 39 3f
       0.447555 -0.40937835 0.42287424 0.7258508
000040 af 4e fc bd ce 5b db bc 68 76 d1 be ee 7f 3b be
       -0.12319695 -0.026777174 -0.4091065 -0.1831052
000050 8c 72 54 bd 9a f2 96 3e 47 f5 ea be 17 93 c8 3e
       -0.051867053 0.29481965 -0.45890257 0.3917472
000060 73 78 f3 3e 50 b3 b6 be a7 4a 29 3f 65 c3 21 be
       0.47552833 -0.3568368 0.66129535 -0.15797193
000070 95 20 b3 3e 0a 92 8d 3e 6a a1 f0 3e b1 d5 a6 3e
       0.34985796 0.2765048 0.4699815 0.3258491

const_fold_opt__22 f4 [1536, 32]
000000 db c5 0b bd 57 08 58 bd 6a 69 61 bd 35 a5 d9 bd
       -0.034124237 -0.05274233 -0.05503217 -0.10627214
000010 ed 61 94 bd 19 f3 88 bd 5d 97 8d bd 3c 4b d5 bd
       -0.0724524 -0.06686992 -0.06913636 -0.104147404
000020 6d e6 72 bd e6 92 a9 bd 71 86 de bd e9 76 31 3c
       -0.059301782 -0.08279972 -0.108654864 0.010831573
000030 4b f3 7a 3c 07 85 cd bd bf 61 c1 bd ff bf a8 3a
       0.015316795 -0.100351386 -0.09442472 0.0012874602
000040 af 63 43 bd 13 53 b3 bc 2c 53 9f bd 5d 7a 8f 3b
       -0.047702488 -0.021890199 -0.07779536 0.0043786005
000050 3c d4 7c bd e5 67 38 bd f0 0f 7b bd 97 10 99 bd
       -0.06172584 -0.045020957 -0.061294496 -0.074738674
000060 f4 66 ac bd a5 27 56 3a 73 c5 c7 bd b7 d3 63 bd
       -0.08418074 0.00081693596 -0.09754457 -0.05562183
000070 de d5 9c bc 17 e4 03 bd 14 2b 9a bd da d3 77 bd
       -0.019144949 -0.032199945 -0.07527748 -0.06050477
000080 ea 5e 8c 3c 83 60 19 3d 99 56 af 3c 58 61 bf bb
       0.017135102 0.037445556 0.021403598 -0.0058404617
000090 d1 12 35 3d 3b 39 47 3d 49 a5 e4 3b 73 aa 58 3d
       0.044207398 0.048638564 0.0069777113 0.052896928
0000a0 92 01 28 3d c4 26 0b 3d b0 d9 0f 3d 18 39 49 3d
       0.041017123 0.033972517 0.035119712 0.049126714
0000b0 f4 dd 27 3d a0 ce f8 3c 75 88 10 3d 27 06 12 3d
       0.040983155 0.030371964 0.035286386 0.0356504
0000c0 9d ed 24 3d 0a ec 3e 3d 93 a3 6a 3d 6e f1 9a 3c
       0.04026567 0.046611823 0.057284903 0.01891395
0000d0 83 99 d3 3c 54 ec 4a 3d 15 ff 87 3c 54 4b 5c 3d
       0.025830036 0.049541786 0.016601125 0.053782776
0000e0 1d 69 36 3d d4 3e c1 3c cb 19 e4 3c 0a e4 09 3d
       0.044533838 0.02358953 0.02784433 0.03366474
0000f0 9d a7 dd 3c 30 09 24 3d 4c 2c 3e 3d 39 aa f4 3c
       0.027057463 0.040047824 0.046428964 0.029866325
000100 aa e1 40 3d 43 79 5a 3d e7 49 b5 3c b5 e9 60 3d
       0.04709021 0.0533383 0.022129966 0.05491038
000110 3e b2 1e bc c5 1f 05 3d 0f 61 83 3c 6a 2c 31 3c
       -0.009686051 0.032501 0.016037492 0.010813812
000120 59 bb 3f 3c 55 03 7d 3d b6 fd e8 bb b5 cd 17 bd
       0.011702382 0.061770756 -0.007110323 -0.037061412
000130 37 eb 87 bc 2d fc 44 3c 98 c8 db 3c 34 06 dc bb
       -0.016591651 0.012023014 0.026829049 -0.0067146067
000140 88 1c bd 3b 22 7f 8c bb 9c 93 25 bb a4 24 3c bc
       0.0057712235 -0.0042876163 -0.0025264984 -0.011483345
000150 8e 0d d8 3c a9 d7 27 3d 86 63 58 3c a8 aa 39 3d
       0.02637365 0.040977154 0.013207322 0.045328766
000160 da 7c 55 b8 e8 d4 9e bc 32 09 0e bb 4e c1 00 bc
       -5.0899434e-05 -0.019388631 -0.0021672961 -0.007858587
000170 24 19 09 bc a3 d1 cc bc 64 ff 9f 3c 6f b6 a5 3c
       -0.00836781 -0.025002306 0.01953096 0.020228593
000180 a3 d9 9a 3c b9 2d 83 bd 03 1d fc bd 65 ee d1 bd
       0.018902605 -0.06405205 -0.12310221 -0.10250548
000190 c9 d8 d4 bd 04 72 d8 bd e8 ed 17 be 70 20 e5 bd
       -0.10392911 -0.10568622 -0.14836848 -0.111878276
0001a0 6e a0 c1 bd 32 d2 b9 bd 86 d2 fe bd 0b 9a b1 3d
       -0.09454428 -0.09073295 -0.12442498 0.086719595
0001b0 b3 83 b2 3d 4a 00 1c be a6 ab 25 be 99 df 49 3d
       0.08716526 -0.15234485 -0.1617876 0.049285505
0001c0 fe 24 09 be ab 69 a6 3d 4c 91 0c be 37 7f 8c 3d
       -0.13393018 0.08125623 -0.13727301 0.06860202
0001d0 67 a2 21 bd 8d 40 df bd 06 cf a1 bd 7e 9f de bd
       -0.03946152 -0.10900984 -0.07900815 -0.108702645
0001e0 c7 db fe bd 25 1a e4 3d 61 e8 85 bd d9 47 e4 bd
       -0.12444263 0.11137799 -0.065384634 -0.11146516
0001f0 63 4b e5 bc 44 4d ee 3c fa 70 69 bc 12 f7 ce bd
       -0.027990049 0.029089577 -0.014248127 -0.10105719
000200 7e 7b 17 3d c9 97 14 3d d3 4b 61 3c 25 27 27 3d
       0.036983006 0.036277566 0.013750988 0.040808816
000210 ec 8c b0 3c f0 59 4f 3d 3d 5c 30 3d 98 68 24 3c
       0.021551572 0.05062288 0.043056715 0.010034703
000220 d3 09 13 3c 23 73 b2 3c 92 1e fe 3c 2f fa ce 3c
       0.00897451 0.021783417 0.031020436 0.025265781
000230 df 59 42 3d 17 a9 35 3d 0c a3 12 3d e0 93 58 3d
       0.04744899 0.04435071 0.035800025 0.0528754
000240 79 b9 3a 3d d3 91 4a 3d f5 99 15 3b 5d 76 31 3d
       0.045587037 0.049455475 0.0022827361 0.04332577
000250 29 92 04 3d 5b 76 6b 3d fa 0d 3b 3d 9f 7e 5e 3d
       0.03236595 0.05748592 0.045667626 0.054319974
000260 e1 c3 14 3d a7 f0 00 3c 90 a1 0d 3d f0 fb 03 3d
       0.036319617 0.007869876 0.034577906 0.03222269
000270 c5 59 6f 3d fb f9 87 3d a1 76 5c 3d 83 c2 45 3d
       0.05843522 0.06639477 0.05382407 0.048281204
000280 cd 94 10 3d 42 28 3c 3d 11 b4 ef 3b 14 26 1c 3d
       0.035298157 0.04593683 0.0073151668 0.03812225
000290 29 98 0a 3d 8c 58 e5 3c 40 6c 28 3a 0a 1e 2e 3d
       0.033836517 0.027996324 0.0006424822 0.042509116
0002a0 e5 01 c6 3b a0 ae a6 3c dc c1 c5 3b b9 16 42 3d
       0.0060427063 0.02034694 0.0060350727 0.04738495
0002b0 e4 28 5b 3d fa 7a fe 3c 96 78 26 3d d6 6e 4b 3d
       0.053505793 0.0310645 0.040642343 0.04966625
0002c0 0d a2 fa 3c fd 27 3b 3d 2d 0f 0c 3c 53 96 5b 3d
       0.03059485 0.045692433 0.00854854 0.053610157
0002d0 a2 3d 1d 3d cc 56 23 3d 06 b8 32 3d 2a 22 0f 3d
       0.038388856 0.039877698 0.04363253 0.03494469
0002e0 77 08 2c 3d 3c d4 14 3d c6 d7 00 3d e0 ac 16 3c
       0.04200026 0.036335215 0.031455778 0.00919649
0002f0 41 40 1b 3d 0f 6f 26 3d 9d c9 2e 3d 23 45 4c 3d
       0.037903074 0.040633257 0.042672742 0.04987062
000300 34 a5 f9 3c 11 11 18 3d cd ca fe 3c 63 3b 95 3d
       0.030474283 0.03712565 0.031102562 0.07286718
000310 44 ae 8b 3d 9e f8 aa 3d 36 38 95 3c cf 8c 3e 3d
       0.06820348 0.08348201 0.01821528 0.046521004
000320 19 ad 31 3d b7 29 4a 3d 17 0d 71 3d e4 7f 00 3d
       0.04337797 0.04935619 0.058850374 0.031371966
000330 bd 18 55 3c bc e1 83 3d 91 66 57 3d 41 37 be 3b
       0.013006386 0.0643954 0.05258805 0.0058049266
000340 d8 8d 98 3d 97 38 7e 3c d5 33 63 3d ab 80 bc bb
       0.074489295 0.015516422 0.055469353 -0.005752643
000350 48 c6 38 3d 5e 68 fe 3c 9a e1 94 3d 2c 36 95 3d
       0.04511097 0.031055626 0.072695926 0.07285723
000360 09 40 89 3d a6 f0 dd bb c0 b4 71 3d ac ce 28 3d
       0.06701667 -0.0067730723 0.059010267 0.041212723
000370 8e d0 73 3b 83 0c f5 3c 22 ea 80 3d 1d 57 14 3d
       0.0037203166 0.029913193 0.06294657 0.03621589
000380 e9 ad 07 bd 8d d2 8f bc ae 7e 95 bd 0c ee 45 bd
       -0.033124838 -0.017556453 -0.07299553 -0.048322722
000390 b9 8f 48 bd c4 56 94 bd 6b 1b be bd 18 03 96 bd
       -0.04896519 -0.07243112 -0.09282573 -0.07324809
0003a0 68 50 8a bd 17 c8 01 bd 01 dc 70 bd 8a 2e 8b 3b
       -0.067536175 -0.03168496 -0.058803562 0.0042474912
0003b0 5a bd 05 3d 94 5e d3 bd 33 58 b0 bd 4b 04 78 3b
       0.032651283 -0.10320774 -0.08610573 0.0037844356
0003c0 40 0a a2 bd f5 51 e1 3c 58 d9 ce bd 84 0b 81 b8
       -0.07912111 0.0275049 -0.10100049 -6.153344e-05
0003d0 ea 76 97 bc f3 26 a3 bd 5d c3 f3 bd 7e 8f 9f bd
       -0.01848932 -0.07966413 -0.11902497 -0.07791041
0003e0 25 28 65 bd 61 ad 5d 3c 10 71 b2 bc 5b 14 a3 bd
       -0.055946488 0.013530106 -0.021782428 -0.07962867
0003f0 fb 83 73 3c 3e c6 f8 bc 21 0b 1f bd 44 48 75 bd
       0.01486301 -0.030367967 -0.038828973 -0.05988337
