en/ultra_house/ultra_house.onnx (onnx, 205655 bytes, 9 tensors)

const_fold_opt__23 f4 [32, 1]
-0.3077614 -0.059381753 -0.35171095 0.15453547 -0.3291925 -0.0011592859 -0.32546446 0.18488766
0.122030236 -0.38117197 0.042317048 0.17630903 0.12278025 0.11243983 0.10528113 -0.31914327
0.16794293 0.24223691 0.010672621 -0.31611308 0.13260126 -0.37156013 0.20262909 0.23694785
0.17074959 -0.019136937 -0.33805233 0.0029853736 0.24583478 0.12807693 0.1675348 0.124095574
00000000: e792 9dbe 483a 73bd 7513 b4be 8c3e 1e3e
00000010: eb8b a8be 2ef3 97ba 47a3 a6be 3153 3d3e
00000020: fdea f93d f928 c3be a454 2d3d 5b8a 343e
00000030: 3674 fb3d db46 e63d a29d d73d bf66 a3be
00000040: 3bf9 2b3e f40c 783e 38dc 2e3c 93d9 a1be
00000050: a0c8 073e 213d bebe 007e 4f3e 75a2 723e
00000060: fbd8 2e3e 11c5 9cbc 3215 adbe 42a6 433b
00000070: 1dbc 7b3e 9926 033e 3e8e 2b3e d225 fe3d

const_fold_opt__22 f4 [32, 32]
0.0235862 0.105826735 -0.060420334 0.15694259 0.10180726 -0.17649378 -0.012199212 0.07814826
0.14788528 -0.18435606 0.009345666 0.15648791 0.014402399 0.101669244 -0.009186616 0.044976976
-0.07558312 0.032946125 0.07565153 -0.16974822 0.07129864 0.03513275 -0.121341035 -0.0136899045
0.009120056 -0.060049195 -0.05029249 -0.13751185 0.073490426 -0.0013298034 0.07650571 0.15774144
0.0359452 0.17253248 -0.1471134 -0.1384747 0.00209795 -0.11721001 -0.08569054 -0.17230837
0.0893028 0.081173256 -0.11657633 0.018300992 0.16164488 0.09304393 -0.026955195 0.12057955
0.041480552 -0.12654647 0.12067682 -0.06389771 0.0694368 -0.0070894454 0.10120364 -0.17965275
0.02333927 -0.14920636 -0.04961839 0.028952857 -0.09808685 -0.06840848 0.08046147 -0.05764174
0.077213764 0.10843358 0.07428812 -0.10305583 0.15564992 -0.049549427 0.13741119 0.08749093
-0.091138534 0.09894515 -0.18175468 -0.028797101 0.017564066 -0.10415947 -0.052995242 0.016535286
-0.10640111 -0.10632186 0.10804792 0.14370427 -0.10383984 -0.0040435246 0.04942707 -0.067551814
0.12563516 -0.11327258 -0.09047667 -0.017276933 0.00157077 -0.049937323 0.101849556 -0.10323566
0.0112973405 -0.06080089 -0.026664935 0.07514536 -0.06915043 -0.05887352 -0.17243111 -0.07957543
0.13806173 0.120020896 0.15573238 0.035581227 -0.12521276 -0.11183844 -0.0044268854 0.107508704
-0.096674465 0.17159441 0.041542996 -0.038936533 -0.05196688 0.12572053 -0.08431608 0.0932283
-0.13716985 -0.061167743 0.04862094 0.039802045 0.22386815 0.05026285 0.11861891 0.06396769
0.10921941 -0.037683945 -0.11675674 -0.12915465 -0.06926024 -0.13021484 -0.11848991 -0.16107379
-0.020911852 0.08785158 0.07580771 0.085177094 0.09713477 0.12245735 0.07428413 0.14175992
0.12706794 -0.08251049 0.13248716 -0.018216243 -0.13108864 -0.092929855 0.16293636 0.13245814
-0.109974235 0.013248636 -0.15544759 0.05438989 0.102711014 -0.14025779 -0.13205203 -0.1281893
0.1782582 -0.073241234 -0.099041365 -0.024404468 0.0777552 0.1237037 0.04575094 0.0042284094
0.038034968 -0.15813918 0.12032472 0.12770022 0.1587543 -0.018695148 -0.05651595 -0.0544629
0.12701422 -0.14785619 0.008906046 -0.07570795 -0.053086802 0.14362334 0.07203269 0.06676377
-0.03948063 0.07897447 0.05033668 -0.106079675 0.09409727 -0.0531038 -0.004700709 0.007159226
-0.08790122 -0.12273133 -0.04304775 -0.032731153 -0.15789482 0.084101275 -0.110722646 0.13976134
0.15770221 0.062283266 -0.12501547 0.1737158 0.04750582 0.09567542 -0.11559132 -0.035400447
0.099792436 -0.052297585 0.15244766 0.12494894 -0.046988077 -0.17936443 -0.116474554 -0.09361843
0.09169662 -0.09009783 -0.15583856 -0.14715093 -0.08790095 -0.15018775 -0.14475125 -0.11252782
0.15764916 -0.16680184 0.06164854 -0.042206958 0.062079206 0.13520274 -0.11161022 -0.10876338
0.15970212 0.107954234 0.008155484 -0.087110505 -0.028967327 0.11166571 0.12551525 -0.17352055
0.14977026 0.066048674 -0.10989073 0.16078286 -0.11954827 0.13055483 -0.017575247 0.16034788
-0.081310384 -0.090654254 -0.03063792 -0.05009774 0.07911494 -0.038681995 0.17706871 -0.013785782
00000000: d937 c13c b0bb d83d 507b 77bd 8fb5 203e
00000010: 5380 d03d c9ba 34be 34df 47bc 320c a03d
00000020: 3d6f 173e d6c7 3cbe 901e 193c 5e3e 203e
00000030: 0af8 6b3c f737 d03d 7683 16bc c739 383d
00000040: 53cb 9abd 84f2 063d 30ef 9a3d 7ad2 2dbe
00000050: 0505 923d 5ce7 0f3d a681 f8bd 9f4b 60bc
00000060: 4a6c 153c 25f6 75bd 7fff 4dbd e8cf 0cbe
00000070: 2682 963d cc4c aeba 07af 9c3d f986 213e
00000080: 463b 133d 5bac 303e e5a4 16be 50cc 0dbe
00000090: c37d 093b cd0b f0bd 867e afbd 9b71 30be
000000a0: 63e4 b63d 2a3e a63d 92bf eebd f6eb 953c
000000b0: 3c86 253e d18d be3d 24d1 dcbc 69f2 f63d
000000c0: 83e7 293d 6695 01be 6925 f73d cddc 82bd
000000d0: e234 8e3d 944e e8bb db43 cf3d e4f6 37be
000000e0: ff31 bf3c 8dc9 18be a73c 4bbd 8b2e ed3c
000000f0: c2e1 c8bd bf19 8cbd fcc8 a43d bf19 6cbd
00000100: 4022 9e3d 6d12 de3d 5f24 983d ef0e d3bd
00000110: b162 1f3e 57f4 4abd 85b5 0c3e 722e b33d
00000120: d7a6 babd c1a3 ca3d e61d 3abe e6e7 ebbc
00000130: 84e2 8f3c 8f51 d5bd 8a11 59bd 0275 873c
00000140: d3e8 d9bd 46bf d9bd 3a48 dd3d 3627 133e
00000150: fba9 d4bd 8b7f 84bb 0a74 4a3d 9b58 8abd
00000160: 81a6 003e 74fb e7bd d54b b9bd 5b88 8dbc
00000170: 4ce2 cd3a 148b 4cbd 8096 d03d 386d d3bd
00000180: 7b18 393c 5b0a 79bd 6c70 dabc cfe5 993d
00000190: be9e 8dbd 5c25 71bd c891 30be 71f8 a2bd
000001a0: 0e60 0d3e 84cd f53d 4f78 1f3e 9fbd 113d
000001b0: c637 00be 8d0b e5bd 680f 91bb 862d dc3d
000001c0: 43fd c5bd 72b6 2f3e fd28 2a3d ea7b 1fbd
000001d0: 39db 54bd e2bc 003e e9ad acbd 7bee be3d
000001e0: 4176 0cbe 078b 7abd c026 473d 7807 233d
000001f0: b13d 653e 6be0 4d3d 79ee f23d 7e01 833d
00000200: 6dae df3d 7b5a 1abd 281e efbd 1e41 04be
00000210: 50d8 8dbd 0a57 05be d7aa f2bd 87f0 24be
00000220: 554f abbc 87eb b33d 1341 9b3d 5471 ae3d
00000230: 98ee c63d ebca fa3d 4722 983d 8329 113e
00000240: 191e 023e 43fb a8bd b7aa 073e 3b3a 95bc
00000250: 1a3c 06be 0252 bebd cad8 263e 1ba3 073e
00000260: 2c3a e1bd cf10 593c a72d 1fbe efc7 5e3d
00000270: 275a d23d bd9f 0fbe a638 07be 0e44 03be
00000280: 5189 363e 80ff 95bd 33d6 cabd e1eb c7bc
00000290: 1e3e 9f3d 5e58 fd3d 5665 3b3d 788e 8a3b
000002a0: 8eca 1b3d 3def 21be cf6c f63d d9c3 023e
000002b0: 7d90 223e 9126 99bc 457d 67bd 7d14 5fbd
000002c0: 0410 023e 9d67 17be aaea 113c c50c 9bbd
000002d0: 8c71 59bd ff11 133e e085 933d 72bb 883d
000002e0: 71b6 21bd 5ebd a13d d62d 4e3d 4d40 d9bd
000002f0: 12b6 c03d 5f83 59bd 6808 9abb f197 ea3b
00000300: 8e05 b4bd 905a fbbd d652 30bd 1a11 06bd
00000310: 2eaf 21be 4a3d ac3d 8ec2 e2bd 991d 0f3e
00000320: b07c 213e bd1c 7f3d 0e04 00be 8ee2 313e
00000330: 7695 423d 79f1 c33d 24bb ecbd 0f00 11bd
00000340: fa5f cc3d fe35 56bd 3d1b 1c3e 3be5 ff3d
00000350: 9276 40bd 4fab 37be 368a eebd 05bb bfbd
00000360: 70cb bb3d 3685 b8bd 2594 1fbe bcae 16be
00000370: 6a05 b4bd d1ca 19be ac39 14be fc74 e6bd
00000380: c86e 213e 1ace 2abe 2e83 7c3d 34e1 2cbd
00000390: c446 7e3d 9672 0a3e e693 e4bd 56bf debd
000003a0: f488 233e 1c17 dd3d 949e 053c fe66 b2bd
000003b0: e34c edbc feb0 e43d 1287 003e 5faf 31be
000003c0: 605d 193e 8744 873d 640e e1bd 43a4 243e
000003d0: b9d5 f4bd 2ab0 053e f7f9 8fbc 3c32 243e
000003e0: 0f86 a6bd f0a8 b9bd 60fc fabc 4a33 4dbd
000003f0: 0307 a23d 0371 1ebd 8051 353e c3dd 61bc

const_fold_opt__21 f4 [1536, 32]
0.006532208 0.025235794 -0.027516576 -0.0006464705 0.025473565 -0.0018212525 -0.022180894 0.013629501
-0.0080680065 -0.015316971 0.02580906 0.02116132 0.011603925 0.0029233054 0.03428337 0.031369336
0.01645722 -0.0011727768 -0.01295822 0.0068181306 0.0055429805 -0.013608531 0.002624528 -0.0042465446
0.03000417 -0.017528007 0.0149706295 0.0006091437 0.009353438 0.0027263048 0.045983642 0.021101153
-0.00067074946 0.00066033157 0.00030238458 0.02426867 0.02645103 -0.015222621 -0.0010619141 -0.01807984
-0.0016654251 0.009959019 -0.01247694 -0.014016039 0.00783003 0.0107645355 0.02483892 0.016367523
0.022640351 0.014741876 -0.02101318 -0.008027212 0.019138621 0.008714423 -0.006915074 0.024365228
0.019478323 -0.016616965 -0.0061580916 -0.0015890773 -0.0023533923 0.01891749 0.018433772 0.0094846925
-0.0060454947 0.013137087 0.014947261 -0.028563298 -0.0111403 -0.036480647 -0.03448151 0.012760159
0.02903383 -0.008830348 0.020159608 0.010831126 -0.04387122 -0.0069648484 -0.029899994 -0.032214727
-0.013586219 0.05270646 0.048946053 -0.03491459 -0.023685751 -0.0468128 0.022139063 0.013705345
-0.012117999 -0.013859242 -0.01853025 -0.021973956 0.032690585 -0.052163307 -0.01714739 -0.016977685
-0.0027653396 0.004263163 0.01841476 0.014398725 -0.02338088 -0.0006268529 0.020158514 -0.013215238
0.02747996 0.00040064068 -0.03314531 0.007848191 -0.043209415 -0.03734509 -0.021113802 -0.006561883
-0.011644961 0.034802258 0.01368789 0.004021581 -0.0193805 -0.0019142897 0.013732375 -0.026986748
-0.011757525 -0.01890234 0.0065410514 -0.037273146 0.01598054 -0.0065090097 -0.025107877 0.0071642473
0.014629668 -0.0025368577 0.00093573844 0.017464435 0.04395759 0.032371834 0.0144740315 0.00867152
0.010472852 -0.033428185 0.013303316 0.040315975 0.021378208 0.006543957 0.025946302 0.05078081
0.015299893 0.0012392561 -0.030591544 0.02284281 -0.00036264717 0.0035782096 -0.0023513783 -0.0065275845
-0.0032897033 -0.012316174 0.0038028215 0.0140920505 -0.0005192475 0.0009856187 0.04205364 -0.007150966
0.013050639 0.021787789 0.00046604537 0.019677844 -0.0010230566 -6.64834e-05 0.020234426 -0.024288075
0.010891305 -0.0164552 -0.019990133 0.021791203 -0.0008624432 0.0013897714 0.013597162 -0.008959843
-0.011444856 0.006078856 -0.010921539 0.018203404 0.015649162 -0.007754278 0.02030215 -0.0025020598
0.023690613 -0.018241141 -0.008142679 0.026466407 -0.006892902 0.020174416 0.0071781804 -0.00010836951
-0.0050438773 0.020786539 0.008483853 0.006673862 0.026352936 0.019008776 0.028234726 0.011122141
0.026478546 0.00046581557 -0.0036056861 -0.012399299 0.020668693 0.010800786 0.005033444 0.024621546
0.02254154 -0.0052241175 -0.0007100307 -0.019148622 -0.011470433 -0.009167083 -0.01193367 0.018674633
-0.0147411125 -0.010927677 -0.0029150948 0.006730853 -0.010428331 0.021976462 -0.0025197403 0.021142347
0.0017613388 -0.028946858 -0.0092912465 -0.020194205 0.004313861 -0.0053971326 0.0107379975 0.002331257
-0.012101023 -0.0088484 0.0022911702 -0.0056030327 0.004581813 0.008825742 -0.023219155 -0.018459274
0.015105594 0.011563981 -0.006106318 0.0058917846 -0.014938226 0.006648674 0.005424408 0.014678573
-0.0051855417 0.028494561 0.0065567074 0.0018016271 0.0004595719 -0.03731025 0.004981122 0.006354973
00000000: 220c d63b 4cbb ce3c 716a e1bc e777 29ba
00000010: f0ad d03c 18b7 eeba b5b4 b5bc 454e 5f3c
00000020: ac2f 04bc 08f4 7abc 866d d33c 815a ad3c
00000030: 641e 3e3c ed94 3f3b b86c 0c3d 227d 003d
00000040: 4bd1 863c dcb7 99ba b74e 54bc a06a df3b
00000050: e4a1 b53b 51f6 5ebc 4600 2c3b 9926 8bbb
00000060: 4ecb f53c e596 8fbc 5f47 753c f1ae 1f3a
00000070: 2a3f 193c ceab 323b 5859 3c3d 53dc ac3c
00000080: 3cd5 2fba 1a1a 2d3a 5f89 9e39 17cf c63c
00000090: d5af d83c 4d68 79bc ed2f 8bba 2c1c 94bc
000000a0: 654a daba 272b 233c 146c 4cbc 87a3 65bc
000000b0: 8749 003c bc5d 303c fe7a cb3c 2f15 863c
000000c0: 4278 b93c e987 713c d523 acbc 9184 03bc
000000d0: 99c8 9c3c f0c6 0e3c d897 e2bb 9699 c73c
000000e0: 0191 9f3c 4d20 88bc d1c9 c9bb 9648 d0ba
000000f0: 5f3b 1abb daf8 9a3c 6c02 973c af65 1b3c
00000100: 4919 c6bb f03c 573c 5be5 743c 94fd e9bc
00000110: ce85 36bc bb6c 15bd 7c3c 0dbd fc0f 513c
00000120: 5bd8 ed3c 2aad 10bc c325 a53c 0975 313c
00000130: 4fb2 33bd 6239 e4bb d5f0 f4bc 97f3 03bd
00000140: bc98 5ebc bbe2 573d a87b 483d 9a02 0fbd
00000150: 9f08 c2bc c7be 3fbd fb5c b53c 628c 603c
00000160: 928a 46bc e011 63bc c0cc 97bc ba02 b4bc
00000170: 90e6 053d 31a9 55bd af78 8cbc c914 8bbc
00000180: b33a 35bb 01b2 8b3b 8dda 963c a1e8 6b3c
00000190: 4289 bfbc 6353 24ba 7823 a53c ba84 58bc
000001a0: a71d e13c 150d d239 60c3 07bd b395 003c
000001b0: 5bfc 30bd 2af7 18bd daf6 acbc 1005 d7bb
000001c0: 82ca 3ebc d08c 0e3d 2c43 603c 77c7 833b
000001d0: dbc3 9ebc e7e8 faba c1fd 603c 5013 ddbc
000001e0: a2a2 40bc 15d9 9abc 5156 d63b baab 18bd
000001f0: 9fe9 823c 8849 d5bb 09af cdbc 10c2 ea3b
00000200: 46b1 6f3c 6941 26bb 584c 753a 9311 8f3c
00000210: e00c 343d 5498 043d 7d24 6d3c fe12 0e3c
00000220: 5396 2b3c feeb 08bd 27f6 593c 5d22 253d
00000230: 5a21 af3c b16e d63b 578d d43c 8aff 4f3d
00000240: 67ac 7a3c 896e a23a 1e9b fabc d820 bb3c
00000250: ae21 beb9 6580 6a3b 9519 1abb 59e5 d5bb
00000260: 1098 57bb c7c9 49bc c238 793b 58e2 663c
00000270: 1c1e 08ba e02f 813a 7040 2c3d a752 eabb
00000280: 59d2 553c 4e7c b23c 8d57 f439 6e33 a13c
00000290: 1518 86ba 016d 8bb8 abc2 a53c c9f7 c6bc
000002a0: 7271 323c 0ecd 86bc 59c2 a3bc 7783 b23c
000002b0: 9515 62ba fd28 b63a a2c6 5e3c 4ecc 12bc
000002c0: 3583 3bbc 2431 c73b 41f0 32bc 4e1f 953c
000002d0: ac32 803c 9917 febb b250 a63c 99f9 23bb
000002e0: d112 c23c 726e 95bc df68 05bc 14d0 d83c
000002f0: dadd e1bb d144 a53c f136 eb3b 7044 e3b8
00000300: 1c47 a5bb 8848 aa3c dcff 0a3c 6ab0 da3b
00000310: 1de2 d73c 4bb8 9b3c 834c e73c a439 363c
00000320: 89e9 d83c b538 f439 604d 6cbb 6e26 4bbc
00000330: 6451 a93c c8f5 303c 97ef a43b 20b3 c93c
00000340: 09a9 b83c 132f abbb 5b21 3aba 92dd 9cbc
00000350: 7cee 3bbc 8831 16bc 7185 43bc 8bfb 983c
00000360: b584 71bc 000a 33bc 2d0b 3fbb 7d8e dc3b
00000370: 97db 2abc fb07 b43c 3a22 25bb b732 ad3c
00000380: b9dc e63a f621 edbc 503a 18bc 516e a5bc
00000390: 4a5b 8d3b 6eda b0bb 6dee 2f3c 01c8 183b
000003a0: 5f43 46bc e1f8 10bc 7527 163b a599 b7bb
000003b0: 0823 963b d899 103c 1936 bebc e737 97bc
000003c0: 747d 773c da76 3d3c 8217 c8bb df0f c13b
000003d0: 76bf 74bc 1fdd d93b 3bbf b13b 667e 703c
000003e0: 7aeb a9bb 6d6d e93c a6d9 d63b 9324 ec3a
000003f0: b2f2 f039 a2d2 18bd ae38 a33b 613d d03b

Const_7 f4 [32]
0.26758498 -0.06842641 0.26975653 0.12370296 0.29302666 0.0054378426 0.24949656 0.011272239
0.0059138723 0.34327817 0.0021993485 0.025748942 0.0064874743 0.00916157 0.018614277 0.26761806
-0.008438107 0.06601645 -0.008208189 0.2584368 0.016783416 0.23779385 0.07981744 0.07282402
0.0018107927 -0.06126338 0.24316366 -0.023003923 0.078722455 0.015755266 0.052966077 0.02350597
00000000: e600 893e 2523 8cbd 871d 8a3e fa57 fd3d
00000010: 9707 963e ee2f b23b 077c 7f3e 32af 383c
00000020: 28c9 c13b 28c2 af3e f222 103b 72ef d23c
00000030: e194 d43b 691a 163c f87c 983c 3c05 893e
00000040: fc3f 0abc a233 873d a47b 06bc d451 843e
00000050: 607d 893c 3b80 733e 5377 a33d c324 953d
00000060: 1f58 ed3a 4fef 7abd e5ff 783e b972 bcbc
00000070: 3d39 a13d 3011 813c f5f2 583d 988f c03c

Const_6 f4 [32]
1.2690862 0.95305336 1.3005565 1.140967 1.3409711 0.9981438 1.2309397 1.0120935
1.0128158 1.44969 1.0337331 1.0436535 1.023405 1.0237361 1.0563762 1.2762594
0.9976556 1.0883946 0.9845003 1.2506216 1.0222563 1.2181499 1.1046574 1.1017972
1.033893 0.9043355 1.2188311 0.95603716 1.0934225 1.0039762 1.09673 1.0421433
00000000: 6b71 a23f 4efb 733f a378 a63f 350b 923f
00000010: f1a4 ab3f 5a86 7f3f 6f8f 9d3f 488c 813f
00000020: f3a3 813f 718f b93f 5e51 843f 7096 853f
00000030: effe 823f c909 833f 5637 873f 785c a33f
00000040: 5b66 7f3f 8450 8b3f 3608 7c3f 5e14 a03f
00000050: 4bd9 823f 56ec 9b3f 6a65 8d3f b107 8d3f
00000060: 9b56 843f 8882 673f a802 9c3f dabe 743f
00000070: 45f5 8b3f 4b82 803f a661 8c3f f464 853f

Const_5 f4 [32]
0.0027554163 -0.14116262 -0.07860697 -0.07776507 0.05606521 0.12089227 0.008993763 -0.17456064
-0.08553451 -0.016616344 -0.13788272 0.15118054 0.16637366 0.05176654 0.13290289 0.07019732
-0.052020103 -0.03161809 -0.05461831 -0.139479 0.030364634 0.07519253 -0.15539949 0.012770398
0.018177947 -0.023930429 0.06335003 0.13610463 -0.040713113 0.16093378 0.14144023 0.10363923
00000000: 3794 343b ef8c 10be b1fc a0bd 4b43 9fbd
00000010: a2a4 653d 5e96 f73d 935a 133c 06c0 32be
00000020: b82c afbd 001f 88bc 2131 0dbe 12cf 1a3e
00000030: db5d 2a3e 2709 543d b217 083e 9dc3 8f3d
00000040: 0813 55bd f881 01bd 73b7 5fbd 95d3 0ebe
00000050: 41bf f83c 8bfe 993d 0b21 1fbe ee3a 513c
00000060: ebe9 943c bf09 c4bc a9bd 813d 035f 0b3e
00000070: cbc2 26bd d3cb 243e b5d5 103e ce40 d43d

Const_3 f4 [32]
-0.001437469 -0.0124609945 0.010952043 0.037279937 -0.015199208 -0.008510924 -0.011790732 -0.010536184
0.004642438 0.0036981883 -0.010219706 -0.020912765 0.0028552054 -0.013047784 0.0072600855 0.0073922756
-0.03640406 0.017430523 0.02493509 -0.002586859 -0.003950615 -0.01696632 0.021163246 -0.011496985
-0.0036175405 -0.0042691072 0.029266333 0.0072419783 0.026718127 -0.002008064 0.010163502 0.0055339094
00000000: 7569 bcba 3329 4cbc 3370 333c d9b2 183d
00000010: 1906 79bc 6771 0bbc ea2d 41bc f59f 2cbc
00000020: 981f 983b 4e5d 723b 8e70 27bc 3f51 abbc
00000030: 661e 3b3b 5fc6 55bc 03e6 ed3b e73a f23b
00000040: 6c1c 15bd 75ca 8e3c ad44 cc3c 4b88 29bb
00000050: 2974 81bb f4fc 8abc 8b5e ad3c da5d 3cbc
00000060: 4214 6dbb dee3 8bbb f3bf ef3c 1e4e ed3b
00000070: f9df da3c b999 03bb d184 263c cc55 b53b

Const_2 f4 [32]
1.0013357 0.995302 1.0283902 1.0496641 0.99173385 0.9831042 0.99018776 0.9951726
1.0085387 0.98906386 0.99220276 0.9799811 1.0041348 0.99664086 1.0126271 1.0082766
0.961007 1.0128825 1.077501 0.9940508 0.99500704 0.98702383 1.0485551 0.9875472
1.0356369 0.9725569 1.0341462 1.0139136 1.0058364 0.98930633 1.0267243 0.98160976
00000000: c52b 803f 1dcc 7e3f 4aa2 833f 655b 863f
00000010: 45e2 7d3f b8ac 7b3f f27c 7d3f a2c3 7e3f
00000020: cc17 813f 4a33 7d3f 0001 7e3f 0be0 7a3f
00000030: 7d87 803f db23 7f3f c49d 813f 350f 813f
00000040: 8e04 763f 22a6 813f 8eeb 893f 1d7a 7e3f
00000050: c8b8 7e3f 98ad 7c3f 0e37 863f e5cf 7c3f
00000060: c08f 843f 7df9 783f e75e 843f ecc7 813f
00000070: 3fbf 803f 2e43 7d3f b46b 833f c74a 7b3f

Const_1 f4 [32]
0.0018519879 0.0024792529 0.01760528 -0.017845778 -0.0017092844 -0.018439898 -0.013770391 0.0060951756
0.021212338 0.023175396 -0.022817561 -0.009646588 2.6594635e-05 0.010105283 -0.023683468 0.017521286
-0.01941183 0.011164453 0.015593994 -0.015069779 0.017139109 -0.022513356 0.008153424 -0.00048865797
-0.007748065 0.0039959834 0.016753184 -0.020260923 0.01151043 0.015455436 0.006653221 0.0072422638
00000000: 67be f23a f67a 223b f338 903c 4f31 92bc
00000010: 110a e0ba 450f 97bc 359d 61bc 0aba c73b
00000020: 7fc5 ad3c 54da bd3c e5eb babc b90c 1ebc
00000030: 8b17 df37 a190 253c d503 c2bc cd88 8f3c
00000040: 8f05 9fbc 1ceb 363c f47d 7f3c 3ce7 76bc
00000050: 5167 8c3c ee6d b8bc f095 053c 4819 00ba
00000060: 7be3 fdbb bdf0 823b f93d 893c 3cfa a5bc
00000070: 3e96 3c3c cc38 7d3c 4303 da3b 8350 ed3b
