en/mr_anderson/Mr._Anderson.onnx (onnx, 205656 bytes, 9 tensors)

const_fold_opt__23 f4 [32, 1]
00000000: 0cbf c23d 46c4 d6be 742a e03d 525b ce3d
00000010: 79c4 093e 432f 413d 6b08 113e cd2a bebe
00000020: 3117 3c3e a23a cd3d df72 5e3d 9718 94bd
00000030: ce33 1a3e dd66 f53d e208 1b3e bb66 ae3c
00000040: c1df 333e ae7d d5be 7185 7ebd 17c0 9f3d
00000050: 050d da3d 25e3 0c3e db9d 4fbc a9c8 bdbd
00000060: 8fd1 d1be 2f3a d93d 7fe9 58bd 9e2b babe
00000070: d3d6 bdbe cad4 0f3e dc1a 933d b61c 8d3c
0.095090955 -0.4194662 0.10945597 0.10076012 0.13453855 0.047164213 0.14163367 -0.3714203
0.18368222 0.10020949 0.05430877 -0.07231253 0.15058824 0.1198251 0.15140107 0.02128922
0.17565824 -0.41697448 -0.06213898 0.0780031 0.106470145 0.13758524 -0.012671913 -0.092667885
-0.40980193 0.10606801 -0.052957054 -0.36361402 -0.3707796 0.14046016 0.071828574 0.017225605

const_fold_opt__21 f4 [32, 32]
00000000: 973e 103e 7f69 0fbe cc0d 903d b05a dc3c
00000010: debb 69bb 22b5 61bd 8bd5 f2bd 2dc8 9ebd
00000020: e24c b73d d8de 043d 18e0 173c 426c f13d
00000030: 8d32 903d 2991 d53d bd14 f3bd 31f0 643d
00000040: b3c4 b1bc 92c5 2dbe 0769 d8bd 7f24 00be
00000050: 580c 1cbd 2d24 05be 7ad0 b63d 04b4 233c
00000060: cfba 8dbc 588a 853d 444b 483d 0f86 a33d
00000070: f5a4 90bd 5d60 2dbd 1e0d ad3d a6bc 303d
00000080: 2b54 1abe d877 08be 2b84 e6bc 59e5 a63d
00000090: 5583 473d 6290 673d ec0c 283e f0f9 903d
000000a0: 5f4a 09be 5b69 763d 0090 1f3e 3884 2a3e
000000b0: 23e6 14be 2fcf 17be 2034 123e f4f6 303e
000000c0: e124 873d bf52 123e 9ef9 16be 4fa5 87bd
000000d0: 248b d8bd e2fc 893b 3c1d b53d 7b47 c03d
000000e0: 2f2e dabd ad6e 16be 0cc0 edbd 8855 d53d
000000f0: be30 30be 93c4 ba3d e236 19be dcfb d3bd
00000100: 2c8e e63d 2e88 033e e79f 1ebd 6d5e c7bd
00000110: bbaa 32be 3081 40be 3a49 cebd 38e1 643e
00000120: 4dc3 3a3c a326 96bc c797 123e 5e3c 1bbd
00000130: d2c8 d6bd 022d ba36 56a7 36be 9ef0 93bd
00000140: ad62 13be c569 cc3b afac 72bd dad1 d4bd
00000150: b2ef fdbd af8f 60bc 151a cb3d c242 bc3d
00000160: 85f1 b73d 0291 143d d06a 0cbe b7f5 f23d
00000170: 6e73 833d eae8 97bd 6fdf 723d 1f24 efbc
00000180: 5908 703d 07ae efbd b249 c1bd efdf e73d
00000190: 2615 2e3e ea90 193e 4669 3f3d 1465 843d
000001a0: 2940 9a3d 7fff d7bc 0809 2dbd db1d 29bd
000001b0: 9221 09bd 0875 883c 33fc de3d 3e86 293e
000001c0: eedf d83d b01b 06be b218 f6bd 63b1 aa3d
000001d0: e53b fd3a 979b 263e ce0d a9bd ca65 ebbd
000001e0: c3fb 0dbd 2d0d 223e 5ce5 1bbe 13c2 ff3c
000001f0: ce62 c93d 0692 233e 07d6 fd3c ae3f 833b
00000200: 3e57 94ba 18d9 9abd fe45 5e3d 64a2 193e
00000210: 597c da3c 3477 1c3d 7822 bcbd 9287 ed3d
00000220: d9fe 4abc 1c33 143c bb51 db3c a22e 933d
00000230: 8d00 983d 2f40 f7bd dfe8 6b3d 41ad 04bc
00000240: 1d9f 2a3e 925f f8bc 570c 783c 2c54 45bd
00000250: 021a 133e 93be ae3b 5705 07be 8c74 103e
00000260: 5a5e ddbd 8cd5 0b3e 872f 263e 632d 05be
00000270: 7612 053e 8b91 543d a660 3abc f218 c6bc
00000280: 7416 13be c3bc e8bd ef58 bdbd 354e e23d
00000290: b349 203e d0cd 1d3e 9b7f 3f3e 9c1d 5a3d
000002a0: 9bf0 b6bc f5a4 c4bd 000a 1cbd 7030 31bd
000002b0: 7e56 eb3c 954c 00be 29a6 013d 5a9b 9a3d
000002c0: 7e8d 853b 7356 f63d a959 0fbe 8c1f 293d
000002d0: dba1 b43d 215d d23d d9ca 42be 6f2a fabd
000002e0: 1ab9 003e 43bd cc3b 0049 e8bd 72e9 2dbe
000002f0: ce2d 773d 1188 0b3d 3b2e 363e ee12 9d3d
00000300: 254d be3d f04f 463c 4361 c5bd d9dc 43be
00000310: e271 66bd b130 c3bc 9a9e f9bd 6a73 ce3d
00000320: 70d0 063e c0d3 75bc ab02 6a3d 88c0 3cbd
00000330: a6fd 0bbe 2481 18be 5e02 603b 53f2 ae3d
00000340: 8216 173e e682 063e e733 393d 69be 0b3c
00000350: e908 2b3c 92a1 ecbd ccb7 1abe ff4c d6bd
00000360: 9424 3dbd c138 0fbd bdc8 bd3d a658 bcbd
00000370: 8412 bfbd 7320 033e 01e6 0e3d d0c1 a43d
00000380: b9b8 bc3d 879f b63d 85c3 b3bd 3ebf 0b3e
00000390: b29e b03d 2031 fcbd 51e8 d23d 0e14 88bb
000003a0: 6b01 cb3b 04d7 813d cad0 81bd 95e6 e73d
000003b0: 2ca4 633d 2001 2a3e 7993 763c 8d52 263e
000003c0: 661d ae3d 0515 b1bd 48ca df3d f6a2 9ebd
000003d0: a3af f53d 7bba 513d c417 873d bfdb 12be
000003e0: 03e4 c5bc 9499 243d 6a80 4bbd 64e7 c4bd
000003f0: 9c1b a43d 337d 1e3e a92c 1cbd f2bc b53d
0.14086376 -0.14005087 0.070338815 0.026898712 -0.0035664956 -0.055104382 -0.11857136 -0.07753024
0.08950211 0.032439083 0.009269737 0.11788227 0.07040892 0.10428078 -0.1186919 0.055893127
-0.021700239 -0.16969898 -0.105669074 -0.12513922 -0.03809771 -0.13002081 0.089264825 0.00999165
-0.017300991 0.065205276 0.048899904 0.07984554 -0.07062713 -0.042328227 0.084497675 0.04314866
-0.1507117 -0.13326967 -0.028139194 0.08149213 0.048709232 0.05653418 0.1641118 0.07078922
-0.13407277 0.06015907 0.15582275 0.16652 -0.14540915 -0.14825128 0.14277697 0.17281705
0.06598831 0.14289378 -0.14743659 -0.06623327 -0.10573414 0.004211054 0.08843467 0.09388634
-0.1065334 -0.14690657 -0.11608896 0.104167044 -0.17206094 0.09119525 -0.14962342 -0.10350773
0.11257586 0.12844917 -0.038726714 -0.09734807 -0.17447941 -0.18799281 -0.100725606 0.22351539
0.011399102 -0.01832897 0.14315711 -0.037899368 -0.10487522 5.5484716e-06 -0.17837271 -0.072236285
-0.1439311 0.0062381946 -0.059246715 -0.103915885 -0.12399234 -0.013706132 0.09917084 0.091924205
0.08981613 0.036271103 -0.1371262 0.11863273 0.06418501 -0.07417472 0.059295114 -0.029192029
0.05860171 -0.11703115 -0.094378844 0.11322009 0.17000255 0.14996687 0.046731256 0.064645916
0.07531769 -0.026366947 -0.04224494 -0.041288238 -0.03347928 0.016657367 0.10887947 0.16555116
0.10589586 -0.130965 -0.12016429 0.08334615 0.0019320218 0.1627029 -0.08254586 -0.11494024
-0.034663927 0.15825339 -0.15224212 0.031220471 0.098332986 0.15973672 0.030985845 0.004005394
-0.0011317504 -0.075609386 0.05426597 0.15003353 0.026670622 0.03819962 -0.09186262 0.115981236
-0.012389862 0.009045389 0.02677237 0.07186629 0.0742198 -0.12072789 0.05759513 -0.008097948
0.1666226 -0.030319009 0.015139661 -0.048175976 0.1436539 0.005332777 -0.1318563 0.14106959
-0.10809012 0.1365568 0.16229068 -0.13005595 0.12995324 0.051896613 -0.011375582 -0.024181817
-0.14364034 -0.113641284 -0.09245478 0.11050073 0.15653114 0.15410542 0.18701021 0.053250894
-0.022331527 -0.096017756 -0.038095474 -0.043259084 0.028727766 -0.12529214 0.031652603 0.07549162
0.004075705 0.12028208 -0.13999046 0.04128985 0.08819934 0.10271669 -0.19022693 -0.12215125
0.1257061 0.0062481477 -0.11342049 -0.16983584 0.060346417 0.03406531 0.17791073 0.07669626
0.09292058 0.0121040195 -0.09637692 -0.19127215 -0.05626095 -0.023826929 -0.12188454 0.10080607
0.1316545 -0.015004098 0.05713145 -0.04608205 -0.13670978 -0.14893013 0.0034181098 0.085423134
0.1475468 0.13135871 0.045215514 0.008529284 0.010439136 -0.115542546 -0.15109175 -0.104639046
-0.04617746 -0.034966234 0.092668034 -0.09196596 -0.093297035 0.12805347 0.034887318 0.08044779
0.092149206 0.08917146 -0.08777527 0.13647172 0.08624019 -0.12314057 0.10298217 -0.0041527813
0.0061952374 0.06339839 -0.063386515 0.11323277 0.05557649 0.16601992 0.015049809 0.16242428
0.08501701 -0.08646587 0.10927254 -0.07745926 0.11996391 0.051203232 0.0659633 -0.14341639
-0.024156576 0.040185526 -0.049683012 -0.09614447 0.080130786 0.15477447 -0.03812853 0.08873929

const_fold_opt__20 f4 [1536, 32]
00000000: d776 1a3c 9970 7b3c bd7b c1bc 92fc 8a3a
00000010: b256 cf3c e86b 8cbc cc2b 8ebb f145 2cbc
00000020: 4717 a7b8 ccfb 4abc 05b6 b9bc 2180 84bc
00000030: defb 88bc 30bd 243c 5313 083c 6708 21bb
00000040: 2828 0a3c e48e 673c 715b 95bc 82e3 0c3c
00000050: b7a2 023d 1452 4bbc e37b e6bc 436a bbb9
00000060: 905a 76bc 7ec0 563c c8ea 43bc 84bb d1bb
00000070: b466 aabc c7b1 d93b 0d7e 27bb 66fe af3b
00000080: aefb e63c 3cf4 34bb 5f60 e13b 31fd 9bbc
00000090: dc99 fe3b 1061 703b c258 b73c 043e 4bbc
000000a0: 9087 76bb db83 bc3c 9065 db3c 53c2 a4bc
000000b0: cd2c 1c3c 96a2 1d3c ef81 243c f69e 2ebc
000000c0: ec10 193d 9877 fb3a ddac 7b3c 88c1 d43c
000000d0: 3035 03ba 320a 1b3c 2a5a 0e3b 7821 53bc
000000e0: a5ea 3abb 8eb8 b5bc 798e 3a3c 440b 30bc
000000f0: 4f47 5bbb d67d 143c 274a b83c 9e70 953b
00000100: 5799 8a3a 984a 533a 9d98 c8bb e09c 773b
00000110: 8c78 ed3c 8839 e3ba 07a1 4abc fe77 4dbc
00000120: 018c 8a3c 47ed 8f3c 2f45 36bb b839 493c
00000130: 59a9 243b 20e3 443c 3799 953b 09a8 3ebc
00000140: 1d78 ae3b c123 c6bb d34c c63b a005 82bc
00000150: a7ce 663b d481 813c dae8 b73c 0d76 043c
00000160: 50c0 88bc 8987 a03c fc81 4fbc b546 3c3c
00000170: 186c de3c c208 8ab9 e2c9 033d 563f 813c
00000180: df7c 73bd 8e58 75bc fbe0 4c3d 7f66 12bc
00000190: 6d79 1fbc 5d04 a53c 0425 ac3a ea98 57bd
000001a0: ab13 3dbc 16be 4dbc 38b6 47bd c6d3 1fbd
000001b0: 264f 37bb 204e 44bd 8ac4 703b e890 243d
000001c0: b058 e3bc c124 04bd d501 413c e006 50bd
000001d0: 95da 0dbd 3ea2 ddbc c205 473c eca2 0fbc
000001e0: c4a1 1bbd d341 1bbd d946 ccbb 1275 debb
000001f0: 61e3 b8bc 09ae 1dbc e982 b33c df79 70bd
00000200: 562d 3bbc b5db 12bb 3214 03bd b981 c03b
00000210: 36fd f63c 34b7 823c bc2e b1bb 84fd 923c
00000220: 3475 e83c c86a 033c 554f 173b c086 6e3c
00000230: 6420 7cbc 5cb4 033c d744 973c 9b1a 3ebc
00000240: 9122 2b3c 0b3d 203c eda5 b6bc a54b 953b
00000250: e40f 713b aa46 54bb 66a8 a2ba 8d27 f2bb
00000260: 2bbf 6e3c 8bd2 663b cfbe a0ba 5db5 20bc
00000270: 55b5 433d a46f 133d 9ed2 ffb8 2f5e 1a3d
00000280: dd97 933c b9ab db3b 0c69 083c c068 ca3c
00000290: 8d0b d23c 9898 37bc d038 ba3c e44a 1cbc
000002a0: 7547 3c3c 2b26 c93c a061 e53b 1abd acbc
000002b0: 49a6 123c 4235 803c 98a1 62bc ca31 0c3c
000002c0: b8d1 b6ba 1ced bc3c 3721 853c 009d a23c
000002d0: e25a bd3c d0db cb3b dbcc a03c 1e7d 42bb
000002e0: 81b6 4f3c 0756 773c 5326 4b3b 9f8a d2bb
000002f0: 1c25 b33b cf7b 3f3c bb9d 0cbb 8f92 65bc
00000300: fd82 ae3c a582 c43c 323c 5e3c 8ef5 06bb
00000310: d23e bb3c 4789 353c cdb0 ad3b f347 c3ba
00000320: c434 f8bb 63e3 0cbc a2d9 a6bc eee5 90bc
00000330: dc9c ccbb 47d3 543c beff 1abc 6d8e 9c3c
00000340: 9b89 b4bc cde8 9d3c 033b 863c cc42 06bc
00000350: 29d2 2b3c 9d75 c93c cf63 9b3c e641 ad3a
00000360: 93b9 91bc 27ee c13b 185f 77bc 7e77 a73c
00000370: b833 e3bc 397e 6bbc 3a7b febc fc88 31bc
00000380: 8d1e 10bb 0233 143d e13d 40bd cde5 783c
00000390: 6663 e1bb 51c1 fc3c dc50 43bc 6df4 07bc
000003a0: 49a7 963b c393 a6bc 2263 04bc 7973 83bc
000003b0: 61b0 3d3c 7f0e de3c 4bc1 e23a afc8 debc
000003c0: fb7a 0fba f7b4 51bc a14b c739 a416 a03c
000003d0: cdde cd3c aec7 19bc babb 9f39 86f0 61bc
000003e0: 098c be3c 789d ea3c 958e 383b 5a6b 513c
000003f0: 08fe 643c 9db2 75bb 97a2 973b 00c6 db3a
0.009427748 0.01534667 -0.023618573 0.0010603836 0.025309894 -0.017141297 -0.004338717 -0.010514722
-7.967516e-05 -0.012389135 -0.022669801 -0.016174378 -0.016721662 0.010054871 0.0083053885 -0.0024571659
0.008432426 0.014133189 -0.01823208 0.008599164 0.03189346 -0.012409706 -0.028135246 -0.0003574659
-0.01503624 0.013107417 -0.011957832 -0.0064005274 -0.020800926 0.006643507 -0.002555731 0.005370903
0.028196182 -0.0027611395 0.0068779434 -0.01904163 0.0077698063 0.0036678948 0.02238119 -0.012404922
-0.0037617423 0.023012092 0.026781827 -0.020112192 0.009532166 0.009621283 0.010040744 -0.010658016
0.037369654 0.0019185422 0.015361038 0.02597119 -0.0005005179 0.00946288 0.0021721222 -0.012886398
-0.0028521207 -0.02218273 0.011386507 -0.010744873 -0.0033459251 0.009063205 0.022496296 0.004560544
0.0010574263 0.00080601266 -0.0061217085 0.0037782714 0.028988145 -0.0017335871 -0.0123674935 -0.012540815
0.016912462 0.017569197 -0.0027812233 0.012281828 0.0025125353 0.012017041 0.004565384 -0.011636742
0.005324377 -0.0060467427 0.0060516386 -0.015871823 0.003521839 0.015808977 0.0224499 0.008084786
-0.016693264 0.019595878 -0.012665268 0.011491467 0.027151152 -0.00026327936 0.032174952 0.015777271
-0.05944526 -0.014974726 0.050019246 -0.00893557 -0.00973354 0.020143682 0.001313359 -0.052636065
-0.011540334 -0.012557527 -0.04875776 -0.039020322 -0.002797076 -0.04792607 0.003673824 0.040177256
-0.02775225 -0.032261614 0.011780222 -0.050787807 -0.034632284 -0.027054902 0.012147369 -0.008766871
-0.03799607 -0.03790457 -0.0062340316 -0.006788858 -0.02256936 -0.009624013 0.021913009 -0.058709975
-0.011424383 -0.0022408788 -0.03200168 0.005874839 0.030150037 0.015956499 -0.0054071825 0.017943151
0.0283762 0.008021064 0.0023088057 0.014558494 -0.015388582 0.0080386065 0.018465443 -0.011603023
0.010445253 0.009780179 -0.022295916 0.0045561367 0.0036783153 -0.0032390752 -0.0012409806 -0.0073899687
0.014571945 0.0035220708 -0.0012263897 -0.009808865 0.047780354 0.03599514 -0.00012198578 0.037687477
0.01801675 0.0067038205 0.008325826 0.024708152 0.025640273 -0.011205815 0.022732168 -0.00953934
0.011491646 0.024554333 0.007000163 -0.021086264 0.008950778 0.015650395 -0.013832472 0.0085567925
-0.0013947999 0.023062281 0.01625119 0.019850254 0.023114625 0.006221272 0.019628933 -0.0029676626
0.01267779 0.015096194 0.0030998185 -0.0064252163 0.0054670703 0.011687233 -0.002145632 -0.014011993
0.021302694 0.023988077 0.013564156 -0.002059314 0.022857103 0.011080093 0.0053006173 -0.0014898762
-0.0075746495 -0.008599135 -0.020367447 -0.017687764 -0.006244285 0.012989826 -0.009460388 0.019110883
-0.022038272 0.019276047 0.01638556 -0.008194637 0.010487118 0.024592215 0.01896849 0.0013218492
-0.017788684 0.0059182825 -0.015098356 0.02044272 -0.027734622 -0.014373356 -0.031064618 -0.010835882
-0.0021990866 0.036181457 -0.046934012 0.0151915075 -0.0068783043 0.0308539 -0.011921134 -0.008298022
0.0045975787 -0.02033413 -0.008080276 -0.016046273 0.011577697 0.027106522 0.0017300037 -0.027195303
-0.00054733426 -0.012799493 0.00038012586 0.019542046 0.025130654 -0.009385986 0.0003046671 -0.013790255
0.023260133 0.02863954 0.0028161157 0.012781942 0.013976581 -0.0037490495 0.0046275365 0.0016767383

Const_7 f4 [32]
00000000: bd60 57bd af29 8f3e 1e7c 9e3d 3018 8d3c
00000010: 7484 ad3d 8a9f 063d 6322 b43c 4a17 a13e
00000020: 54db cc3b 83eb 11bb 9570 423b 81c1 903c
00000030: 9439 5e3d b0a5 97bc 1593 7c3c 0643 ba3b
00000040: 88f7 9a3c a1b7 8d3e dae8 60bd e9a5 733d
00000050: 2607 463c e121 ad3c 26c6 d43a 4988 e83c
00000060: 5b25 8e3e 18e6 393c c6b4 dabb 8ed2 983e
00000070: acc4 963e 89ba a8ba 73e6 083d 248b 04bc
-0.05258249 0.2796149 0.07738517 0.017223448 0.08472529 0.032866992 0.021989053 0.3146308
0.006251732 -0.002226562 0.0029669155 0.017670395 0.05425413 -0.018511623 0.015415926 0.0056842593
0.01891686 0.2767916 -0.054909565 0.059484396 0.012086665 0.021134319 0.0016233369 0.028385298
0.27762875 0.0113463625 -0.006674382 0.2984814 0.29446924 -0.0012872975 0.0334229 -0.008089814

Const_6 f4 [32]
00000000: fb89 7a3f a8d7 a33f c8cb 8e3f 7df4 843f
00000010: c044 8c3f abfa 8b3f 4a52 873f d073 ad3f
00000020: 7601 823f 8977 803f 47b9 813f 4cf7 7f3f
00000030: d1e6 8e3f a459 7e3f 797e 833f 6a9c 803f
00000040: 75e0 813f 70fd a23f dd57 723f 220e 883f
00000050: d58e 823f 0af7 813f 131a 7f3f 27fa 803f
00000060: 8a35 a33f 8458 813f d2ad 7f3f 8f96 a73f
00000070: 6ed9 a63f 0cfa 803f 65ad 8a3f 184f 7f3f
0.9786679 1.2800188 1.1155939 1.0387112 1.0958481 1.0935873 1.0571988 1.3550968
1.0156696 1.0036479 1.0134667 0.9998672 1.116419 0.9935553 1.0272971 1.0047734
1.0146624 1.2733593 0.9466532 1.0629313 1.0199839 1.0153515 0.9964916 1.007634
1.2750714 1.0105138 0.99874604 1.3092822 1.3035104 1.0076308 1.0834166 0.9973006

Const_5 f4 [32]
00000000: 8cfd aabc 05c6 703d 7430 ecbd ecb1 7bbc
00000010: b233 543e 7305 fcb7 b75c 2f3e 4028 033e
00000020: efb9 603d 36c7 00be b94a c9bd d813 b9bc
00000030: 552e e13d 3622 c83d 2af8 b53d 0fda 90bd
00000040: 2406 18be 1056 1cbe dfe8 0fbd 7067 bb3c
00000050: afe5 0e3e 3439 a93d 99e7 133e 4cb2 bd3d
00000060: 8c69 283d 2507 24be e84b 88bd 9c4c 5bbd
00000070: 70bc 173e eb82 2f3d 62ab 4abd 5964 8f3c
-0.020872854 0.058782596 -0.11532679 -0.015362244 0.20722845 -3.0043278e-05 0.17125212 0.12808323
0.05486482 -0.12575993 -0.09828705 -0.02259247 0.10995165 0.0977215 0.08885224 -0.070728414
-0.14846092 -0.15267205 -0.035134193 0.022876471 0.13954805 0.08262864 0.14443816 0.09262523
0.041116282 -0.1601835 -0.06655103 -0.053539857 0.14817977 0.042849462 -0.04947985 0.017503904

Const_3 f4 [32]
00000000: 425f 09bb bab0 49bc da62 a73c 3f60 58bc
00000010: ff21 32bc 9d98 bd3c efd8 843b d31f 683b
00000020: e272 42bc 1266 cfb8 a191 14bc cd49 3fbc
00000030: ed20 40bc 18e4 48bb ddc2 9f3b 2e58 253c
00000040: c3a2 ad3b 0f53 2bbd 8ef5 523c ec8b ccbb
00000050: 1172 91bc a8d9 9bbc a572 6f3c 5ce9 5b3c
00000060: d049 71bc 2806 78bc c1f1 113c 0ec3 53bc
00000070: 2280 373b d862 06bb d2ac db3c fb20 c5bb
-0.002096132 -0.012310201 0.020432878 -0.013206541 -0.010872363 0.02314406 0.004054181 0.003541936
-0.0118682105 -9.889541e-05 -0.009067924 -0.01167531 -0.0117266 -0.0030653533 0.0048755244 0.010091824
0.0052989437 -0.041827258 0.012875928 -0.006242266 -0.017754586 -0.019024685 0.014614736 0.013422336
-0.014727071 -0.0151381865 0.008907736 -0.012924923 0.0027999957 -0.0020505693 0.026815806 -0.0060158945

Const_2 f4 [32]
00000000: e3d0 7e3f 6e93 7e3f 39dd 8c3f d1c9 7d3f
00000010: 4bd7 7e3f ee36 813f 7ef2 7a3f e0c7 803f
00000020: c3ff 7b3f 1110 7a3f 951e 7f3f fb70 7f3f
00000030: a27a 7f3f 3ab1 803f 8319 803f 0913 833f
00000040: 8f92 813f 1677 7b3f 56cd 803f 2eb2 7e3f
00000050: cf63 7a3f 0211 7f3f 560a 7e3f 0113 833f
00000060: 817e 7e3f 9b64 7f3f 6e54 7f3f 2acc 7e3f
00000070: 05a1 813f 7954 7e3f 2287 813f 4865 7d3f
0.99537486 0.9944371 1.1005012 0.9913607 0.9954726 1.0094888 0.98026264 1.0060997
0.98437136 0.97680765 0.9965604 0.9978177 0.997965 1.0054085 1.0007786 1.0240184
1.0122851 0.98228586 1.0062664 0.9949063 0.97808546 0.99635327 0.9923452 1.0240175
0.9941178 0.99762887 0.99738204 0.9953028 1.0127264 0.99347645 1.0119364 0.9898267

Const_1 f4 [32]
00000000: 99bf 8e3b b2dc 9bbb 8cc9 13bc 99d9 403b
00000010: 57e9 34bc 7b25 bb3c cdd5 813c 6402 323c
00000020: 7077 ad3c b1e5 0339 ce48 a53c c54d 36bc
00000030: 6137 c03c 7f43 c1bc b2bc 153c 2dd6 ae3c
00000040: 83d4 5abc ad45 8fbc 8e2b b43a 93bf 5dbc
00000050: 9942 b23c 4728 e9b8 87c9 86bb 1ac6 67bc
00000060: a3c0 eb3b 9a5e b83b 030b 19bc 726a d13b
00000070: 6779 bebc d955 083b 1c3c ba3c 6dd3 d33b
0.0043563363 -0.0047565335 -0.0090202205 0.0029426573 -0.011041961 0.02284502 0.015849018 0.010864828
0.021175116 0.000125787 0.020176318 -0.01112694 0.023463907 -0.023591755 0.009139227 0.021342361
-0.013356331 -0.017489279 0.001374589 -0.013534444 0.021760272 -0.00011117808 -0.0041133794 -0.014146352
0.007194595 0.0056265118 -0.009341004 0.006390863 -0.023251249 0.0020803122 0.02273374 0.006464413
