en/pandora/Pandora.onnx (onnx, 205647 bytes, 9 tensors)

const_fold_opt__23 f4 [32, 1]
000000 dc 7c 79 3d 5a 55 ee 3c dd 6d ae bc b7 6d 36 3d
       0.06091009 0.029093433 -0.021292621 0.044538226
000010 49 53 2d 3e bf a4 37 3e 25 f1 1a 3e 29 94 0a 3e
       0.16926302 0.1793394 0.15131052 0.13533081
000020 70 5c d8 3c bd 25 cb be 14 7f 5a 3d db a8 11 3e
       0.026411265 -0.3967723 0.053343847 0.1422457
000030 03 18 b8 be 50 23 04 3d 39 65 c1 be 7e 4d 20 3e
       -0.3595582 0.03226024 -0.3777254 0.15654561
000040 9a ab fd 3d 16 f5 12 3e 10 61 f7 3d a9 1c 74 3d
       0.12386246 0.14351305 0.1207906 0.059597645
000050 d6 01 e9 bb 7d bc 9c 3d 20 9d bf be 8c ff 1b 3e
       -0.0071108146 0.07653139 -0.37424564 0.15234202
000060 cd 1f ce be 85 45 37 3e c3 a7 33 3e 81 87 f8 3d
       -0.40258637 0.17897613 0.17544465 0.1213522
000070 20 78 bd be 19 d7 02 3e 94 ec b1 be 07 b6 81 3d
       -0.3700571 0.12777366 -0.34750807 0.06333547

const_fold_opt__22 f4 [32, 32]
000000 fa f1 19 bd 69 8a a3 3c 0a 79 0c bd 60 55 10 be
       -0.037584282 0.01996346 -0.03429512 -0.14095068
000010 71 6d 1c 3e 03 50 40 3d 0a f4 11 be 3e 48 f8 3d
       0.15276124 0.046951305 -0.1425325 0.12123154
000020 1d cb d4 3d d1 c0 9f bb d7 49 47 bc 53 35 14 3e
       0.10390303 -0.0048752804 -0.012163601 0.14473467
000030 d5 6d 18 be 3c 6b 26 3c 51 f0 0a 3e eb de 05 3d
       -0.14885648 0.010157403 0.13568236 0.032683294
000040 fe 51 41 3d 9d bc 14 bd 46 50 16 3e 02 03 e7 bd
       0.047197334 -0.03631269 0.1467906 -0.112798706
000050 58 ca a4 bd 37 cb 37 3d 5c 18 1b be 64 8a a3 3d
       -0.080464065 0.044871535 -0.15146011 0.0798538
000060 93 c1 3d 3d b4 59 c7 bd db f4 82 3d 90 4a 47 bd
       0.046327185 -0.097339064 0.06394359 -0.048655093
000070 53 9e 91 bd 3c f8 11 3e 01 ea f2 bc eb 4d 41 3d
       -0.07110276 0.1425485 -0.029652597 0.04719345
000080 d3 ef d5 bd 47 a6 4a 3d d1 ad 0c be 0a 92 2b 3d
       -0.104461335 0.04947498 -0.1373818 0.04188732
000090 c8 18 80 bc 1e bd e4 3d 20 72 ff 3d a2 5b 23 3e
       -0.015636817 0.11168884 0.124729395 0.15952924
0000a0 cb 7d ed 3c 0e 09 a2 bc 24 64 ac bd 1d f2 8c bc
       0.028990647 -0.019779708 -0.08417538 -0.017205292
0000b0 fe a4 29 3d 2f e4 1a be a5 c4 43 3d 96 46 48 3e
       0.041417114 -0.15126108 0.047794957 0.19558176
0000c0 0d 65 20 3e 95 08 c8 bd 49 ed 32 bc ab 65 a0 3d
       0.15663548 -0.09767262 -0.010920831 0.078318916
0000d0 a4 06 9c 3d f3 3c 1c 3e 70 37 19 ba 1d 94 17 3e
       0.07618454 0.15257625 -0.00058447476 0.14802594
0000e0 31 de 14 bd 75 61 40 3e 85 28 b5 3d ba c5 d9 bd
       -0.03634471 0.18787177 0.08845619 -0.106334165
0000f0 e0 36 00 3e 78 98 8d bd f9 3f b5 3d bb 3e e4 bd
       0.12520933 -0.06913847 0.088500924 -0.111447774
000100 a8 67 00 be 7c d3 0e 3e 9a 88 a8 3d 31 c9 24 be
       -0.12539542 0.13947862 0.0822918 -0.16092373
000110 02 49 cf 3d 5d 77 fd 3d 3d 0b 7b bc 00 56 a5 bd
       0.10121347 0.12376282 -0.015322504 -0.08073044
000120 1a c4 c9 bb 40 a9 d6 bd 0f c8 81 bd 59 b4 86 bd
       -0.0061574103 -0.104815006 -0.06336986 -0.06577367
000130 91 1c cf 3c 3b 5d 01 be 97 05 04 be 0a 04 27 bd
       0.025282176 -0.12633221 -0.12892757 -0.040775336
000140 5d c1 c5 bc 5b bf 14 3d f8 89 ab bd e1 75 96 3d
       -0.024140054 0.036315303 -0.08375925 0.07346702
000150 04 1f d6 bd 61 fb 84 bd 9f d9 d4 bd ab 4c 0a 3e
       -0.104551345 -0.06493259 -0.103930704 0.13505809
000160 ef 5a f8 bd 51 1f a3 3d 7c 19 e1 3d 45 23 31 3b
       -0.12126719 0.079649575 0.10991189 0.002702908
000170 11 42 e4 3d e7 9d 11 be c1 92 2f 3d 0f d3 80 3d
       0.11145414 -0.14220391 0.042864565 0.06290256
000180 c0 fe 91 bd 22 50 49 3c 0c 61 46 bd 3a ae 48 3b
       -0.07128668 0.012287172 -0.048432395 0.0030621425
000190 0f e9 a6 bc 14 02 7a bd 7a e5 0b be 0c be 09 3e
       -0.020374803 -0.061037138 -0.13661757 0.13451403
0001a0 32 d0 ed 3d 7a 1d ee bc 13 76 ce bd 20 f2 10 be
       0.11611976 -0.02906679 -0.100811146 -0.14154863
0001b0 34 e1 28 be 6c b3 16 be 64 00 88 3d 39 e0 b8 3d
       -0.16492158 -0.14716882 0.066406995 0.09027142
0001c0 69 2a 18 3e 81 a7 3c 3e 6c 8c b3 3a f4 30 7c 3c
       0.14859928 0.18423273 0.0013698465 0.015392531
0001d0 78 0a e9 3d d2 db 07 bd 2b 65 dd 3d b2 7a 5d 3e
       0.1137895 -0.03316862 0.10810312 0.21628836
0001e0 1c 44 f5 bd c1 a1 7b 3d 1a ee 8f bb 0a 9e 7b 3d
       -0.119758815 0.061433557 -0.0043923976 0.061430015
0001f0 b6 05 39 be c4 96 26 3e 33 b1 e5 3d 6f 7e 00 3e
       -0.18068585 0.1626845 0.11215439 0.1254823
000200 15 ce 99 bd a3 5d 7b bb ea e3 17 be d0 a4 b9 3c
       -0.0751001 -0.0038355372 -0.14833036 0.022661597
000210 c9 de 63 3d 6a 7d 8a 3d 57 5b d3 bc 3a 50 ec 3d
       0.055632386 0.06762202 -0.02580039 0.115387395
000220 88 c1 e2 bb 2f be 79 bd 0f 3d 02 be 66 98 7b 3d
       -0.0069200434 -0.06097239 -0.12718605 0.061424635
000230 fd d9 d2 bc 3e 87 4b bd dd de 25 be 0e 99 1b 3e
       -0.02573871 -0.049689524 -0.16198297 0.15195104
000240 ea 30 fb bd 54 19 68 bd dd c4 da bc 97 06 15 be
       -0.12265189 -0.05666478 -0.0267052 -0.14553295
000250 8b 7e 05 be 5c 5a ab bd e1 89 2b bd ac b1 38 be
       -0.13036554 -0.08366844 -0.04187954 -0.18036526
000260 69 f1 13 3e 80 1d 77 bd b6 34 ab bd 09 45 aa bc
       0.1444756 -0.060330868 -0.08359663 -0.020784872
000270 af 17 a6 bd 6c ff f4 bd 25 f0 87 bd b8 d6 1c be
       -0.08109986 -0.1196278 -0.06637601 -0.15316284
000280 0b 4f 0a 3e fd 11 40 3d f4 eb 3e be d2 9d eb bd
       0.13506715 0.046892155 -0.18644696 -0.11504711
000290 5a 46 fc 3c 56 ed da 3d bc ee e9 3d 37 97 a9 bc
       0.030795265 0.106897995 0.11422488 -0.020701988
0002a0 bc 7e f9 3d 22 fa 1d 3e 45 8c f9 bd 66 c5 1f 3e
       0.12182376 0.1542745 -0.121849574 0.15602645
0002b0 9f ab 6e bd d0 b4 11 3c 9e eb e1 3d 2a 6e b9 bd
       -0.05826914 0.008893207 0.110312685 -0.09054215
0002c0 bb b2 0d be a0 8f b5 bd a3 e6 e4 bd 99 02 25 be
       -0.13837712 -0.08865285 -0.11176803 -0.16114272
0002d0 2d 6b cb 3c 03 60 2b be 05 d1 38 3e 1b c4 51 3d
       0.024831379 -0.16735844 0.18048485 0.05121241
0002e0 9d 28 8a 3d ea ad fd 3d 08 40 d4 3d 96 7f 65 3d
       0.067460276 0.12386687 0.103637755 0.05602988
0002f0 c1 eb d5 3d 1c 55 76 bc 6e ae 8d bd a2 03 18 be
       0.10445357 -0.01503494 -0.069180354 -0.14845136
000300 0a 59 1e be 7d b3 a5 3d 94 7d 0e 3e c6 ae 12 3e
       -0.15463653 0.08090875 0.13915092 0.14324483
000310 e3 c4 0f be 8a a2 f7 bd 5b 9d 0d 3d a4 26 82 3d
       -0.1403995 -0.12091549 0.034573894 0.06355026
000320 87 8a 06 be 9e fc 4d 3d 80 ac e6 bd 7d 9c 69 bd
       -0.13138781 0.050289743 -0.112633705 -0.057034004
000330 1d 9d a8 bd ae f1 e0 3d 4e b2 d0 bd df c1 eb 3d
       -0.08233092 0.10983597 -0.10190259 0.11511587
000340 18 89 36 3e ad 4e ce 3d 3c 5a 80 3d ff b9 d5 3d
       0.17825735 0.100736 0.06267211 0.104358666
000350 78 9a af bc 5f 7a 19 3e b0 72 25 be 4a bd 2a 3e
       -0.021435961 0.14988087 -0.16157031 0.1667377
000360 c8 13 48 be 1a e3 16 be fe b1 0a 3e b8 d5 3a 3e
       -0.19538796 -0.1473507 0.13544461 0.1824559
000370 41 20 96 3d 7a 10 2f 3d 91 de 31 be 98 8c 37 3e
       0.07330371 0.042740323 -0.17370059 0.17924726
000380 f9 4e d0 3d c8 d8 15 be 12 e7 4f bc 85 91 f5 3d
       0.10171313 -0.14633477 -0.012689369 0.11990646
000390 6b 26 10 3e 3a 14 16 bd 8f 1a d0 bc f2 84 1b bd
       0.14077155 -0.036640383 -0.02540329 -0.037968583
0003a0 a8 ed 95 3d 8f 85 a6 3d 7e ff 0e bc 36 94 dc 3d
       0.0732072 0.08130943 -0.008727906 0.107704565
0003b0 30 ab 75 3d ed 96 67 3d ec 42 d9 3d 1e e5 07 3e
       0.05997771 0.05654042 0.106084675 0.13270995
0003c0 8a 3b 05 be 49 6e 4a bd 9d 11 bf 3d 93 d6 00 be
       -0.13010994 -0.049421582 0.09329531 -0.12581854
0003d0 6a 33 49 3c 51 61 be bc 34 b4 c7 bd d7 61 ed bd
       0.0122803245 -0.023239763 -0.09751168 -0.11590927
0003e0 18 f7 95 3d 5e e0 71 bd 00 ac f7 3c 0a 69 eb 3d
       0.0732252 -0.059051864 0.030233383 0.11494644
0003f0 74 05 1a 3e 2a e4 d0 bd 60 ef d2 3c ce 05 fb bd
       0.15041143 -0.10199769 0.025748909 -0.122569665

const_fold_opt__20 f4 [1536, 32]
000000 9e 13 d4 bc 9a 1f ce bc a8 08 94 38 61 eb 85 bc
       -0.02588826 -0.025161553 7.058802e-05 -0.016347589
000010 6b 62 58 bb 9c 65 9a 3c 15 91 ad bc 02 aa 0a 3b
       -0.0033017646 0.01884728 -0.021187345 0.0021158461
000020 87 42 4a 3c 58 33 e3 3c 2e 7e 9f bb e4 34 70 bc
       0.012344963 0.027734444 -0.0048673367 -0.014661048
000030 32 98 3f 3c 8f ce 99 bb df 67 2a 3b 71 a2 75 bc
       0.011694001 -0.004693813 0.0026001853 -0.014992342
000040 77 48 7d bc 51 68 93 3b 50 86 36 3c 85 59 ea 3b
       -0.0154591715 0.0044985195 0.011140421 0.007151785
000050 39 8b 11 bb f6 c8 83 ba 50 ff 3d 3b 77 c3 6f bc
       -0.0022208227 -0.0010054398 0.002899129 -0.014634005
000060 fb bf fa bc 6d a6 e1 bc da 55 79 3c 76 ec a6 bc
       -0.030609122 -0.027545178 0.0152182225 -0.020376425
000070 2d 3e 46 3a e3 02 95 bc 8c 1e 1d bc 49 c9 0f 3c
       0.00075623655 -0.018189853 -0.0095898025 0.008776017
000080 c5 84 cb 3b b9 a3 9e 3c a8 06 e2 bb 86 07 a2 bb
       0.0062108957 0.019365178 -0.006897766 -0.0049447445
000090 aa 83 88 3c 16 46 9a 3c 02 b7 95 3c 21 55 5f ba
       0.016664345 0.018832248 0.018275741 -0.000851946
0000a0 47 5b 75 3b ff 91 07 bc 1a 06 d7 3c 4c df c0 ba
       0.0037438439 -0.008274554 0.026248027 -0.0014714985
0000b0 d5 de ac bc dd e2 2b bb b8 68 4d bb c2 2b af 3c
       -0.021102348 -0.002622775 -0.0031342935 0.02138317
0000c0 25 2c 8b bc b2 f9 60 bc 64 18 81 bb ba c2 74 3a
       -0.016988823 -0.013731407 -0.003939675 0.0009336878
0000d0 04 b1 c2 bb 62 91 46 bb c7 66 1a bb 0b ab 98 3c
       -0.005941512 -0.0030299057 -0.0023559795 0.018636247
0000e0 39 3b 71 bc 7a 99 df ba 37 68 01 3c f9 dd 6e bb
       -0.014723592 -0.0017059289 0.007898382 -0.0036448224
0000f0 ad dc 98 bb e3 a7 43 bc 31 01 1e bc 8c 3b 5e bc
       -0.0046649785 -0.011941883 -0.009643839 -0.013564002
000100 c0 1c 12 3d b5 bd 2d 3a 56 76 c1 bc 0b b0 54 3b
       0.03567195 0.0006627695 -0.023615997 0.0032453563
000110 59 a9 cf bc b7 0e 73 bc 4a c3 d6 39 7c 75 9a bc
       -0.025349306 -0.014835051 0.00040962762 -0.018854849
000120 71 9e d7 bb 79 82 81 3c 42 96 1c bc 67 45 7d 3c
       -0.006580167 0.015809285 -0.009557309 0.015458441
000130 43 15 e6 bc 4a e1 fd bb 68 59 14 3b d1 d5 6b 3c
       -0.02808631 -0.007747804 0.0022636298 0.0143942395
000140 08 64 18 ba 22 e8 32 bc 44 58 5a b9 d2 c8 75 bb
       -0.00058132457 -0.010919603 -0.00020822982 -0.0037503731
000150 07 d7 28 bc f2 0b ad bc ad 3e 97 bc a2 84 33 3b
       -0.010305173 -0.02112386 -0.018462503 0.0027392288
000160 50 9c 20 3d 2d 96 dd 39 f4 3a 0c bc 14 b4 59 bc
       0.03921157 0.00042264294 -0.008558977 -0.013287563
000170 0d 30 88 3c fd 0f a2 bc 39 ce ad bc 1c d3 12 3d
       0.016624475 -0.019783014 -0.021216499 0.03584586
000180 1a ea 5b 3c 1b df 35 bd bb 75 aa bc 4d ff 11 3c
       0.013422513 -0.044402223 -0.020808091 0.008910966
000190 3d 0b ab bc 06 3f a5 ba b0 81 3f bc 36 98 6e bc
       -0.020879382 -0.0012607283 -0.011688635 -0.014562657
0001a0 3b 92 08 bc cb d6 e7 bc a9 09 2f bd 22 42 b0 bc
       -0.008335645 -0.028300663 -0.042733822 -0.02151591
0001b0 b5 cd a5 bb 17 c4 3d 3c 41 f8 8d bc 6e 3c e3 3b
       -0.0050599226 0.011582396 -0.01733029 0.006934694
0001c0 ee fc ab 3b f6 eb 22 bd 08 88 2b bc 28 55 a6 3c
       0.0052486574 -0.03977581 -0.010469444 0.020304278
0001d0 cc 8e 06 bb f4 6c 52 bd 52 c4 1b bc 7e 0a 29 3c
       -0.002053189 -0.051373437 -0.009507256 0.010317443
0001e0 f4 0e d1 bc e2 fb d7 bc a9 ce a7 bc 51 d4 90 bc
       -0.025519826 -0.026365224 -0.020484285 -0.017679365
0001f0 50 b6 09 3b 9e b0 39 3c 3c 8b 13 bc 0d 34 4a bd
       0.0021013208 0.011333613 -0.009005364 -0.049366046
000200 ef 24 77 3c 0a 6f 3e 3c 8f 56 d2 bb df a6 9f 3b
       0.015084489 0.011623153 -0.00641901 0.0048721875
000210 c2 68 d8 3c 78 d0 d5 bc 60 ce 83 bc 67 76 06 bb
       0.02641714 -0.026100382 -0.016089618 -0.002051735
000220 87 86 fa bb 73 64 34 bb 30 29 bd bb 56 61 96 3c
       -0.0076454314 -0.0027525693 -0.005772732 0.01835696
000230 d4 15 a0 3c ab f6 fb bb 3f 7e af 3b ad ef fb bb
       0.019541658 -0.007689317 0.005355626 -0.0076884837
000240 b6 4b 83 3c b8 71 8c bc 58 0d 34 3c ca 30 9a bb
       0.016027313 -0.01714407 0.0109895095 -0.004705523
000250 63 9e 36 3b 8b 15 9f 3c cc eb 85 bc 96 31 99 3c
       0.0027865402 0.019419452 -0.016347788 0.018700402
000260 24 d6 19 3b 96 ee d0 3c 50 a6 95 3c 8f 41 c9 bc
       0.0023473585 0.025504392 0.01826778 -0.024567394
000270 db 9d 96 3b d2 85 81 bc 52 7d 81 3c 16 8d 23 3d
       0.0045964546 -0.01581088 0.015806828 0.039929472
000280 11 11 91 3c 35 a3 dc bc 3f 51 93 bc be e0 63 bc
       0.017708333 -0.026933292 -0.017983077 -0.013908563
000290 e3 d3 a1 3c 54 3d a0 3c 21 d4 01 bc ba 3e c1 ba
       0.019754356 0.019560494 -0.007924111 -0.0014743425
0002a0 dd 8a 1c 3c 07 91 b3 3b 29 7b 66 bc 43 82 89 bc
       0.009554592 0.005479935 -0.01406745 -0.016785746
0002b0 42 53 32 3c 88 89 c4 3b 85 4c fe 3b 9b 01 75 3b
       0.010884108 0.0059978403 0.0077605867 0.003738499
0002c0 f4 69 8f bc 04 62 a3 bc f8 6a 01 3c 58 0a 43 3c
       -0.017506577 -0.019944198 0.0078990385 0.011904322
0002d0 7a ac 97 bb 9b a8 d6 bc 1a b0 bd bc 70 fd 9b 3c
       -0.004628715 -0.026203444 -0.02315526 0.019041747
0002e0 e5 c1 47 bc 20 99 6f 3c 82 63 bb bc be b1 b3 bc
       -0.012192224 0.01462391 -0.022874597 -0.02193534
0002f0 1f a9 e2 3b ff 59 98 bc 6a c7 b6 3c 6a f4 5a bb
       0.0069171335 -0.018597601 0.022311885 -0.0033409842
000300 ef 25 da 3c 77 8b e1 bc 0a 55 9e bc 9b ea 2d 3c
       0.026629416 -0.027532322 -0.01932766 0.010615016
000310 72 ce 23 ba 49 74 56 bc 73 8a 17 bc f5 4a bb bc
       -0.00062487193 -0.013089248 -0.009249317 -0.02286289
000320 16 aa c9 bc 3a fa 88 3c 22 11 82 bc d2 20 1f 3c
       -0.024617236 0.01672088 -0.01587731 0.009712415
000330 ca ed aa 3b 84 f6 82 bb 41 20 b6 bc c5 a6 fb 3b
       0.005216335 -0.003996672 -0.022232177 0.0076797926
000340 30 a2 92 3c da ef bf 3c 70 b5 a6 3c c0 5d 0d 3c
       0.017899603 0.0234298 0.020350188 0.008628309
000350 25 bf 7f 3c b4 d6 b9 bc b9 f0 14 39 4e 95 13 3d
       0.015609537 -0.022685386 0.00014204056 0.03603106
000360 27 cd 18 3d 8f 8e 90 bc 30 17 0a bc 8f dc c8 bc
       0.037305024 -0.017646102 -0.00842838 -0.024519233
000370 21 f2 29 3d d0 82 ed bb 5b bf 30 bc a3 cf 82 bb
       0.041490678 -0.00724826 -0.01078781 -0.0039920374
000380 92 85 71 bb 84 a4 de bc 13 f2 38 bc ed 5f 10 3b
       -0.0036853296 -0.027178057 -0.011288184 0.0022029832
000390 15 71 7c 3c fc 59 cc bb 59 82 6a bb 21 94 af bb
       0.01540782 -0.006236313 -0.003578326 -0.0053582345
0003a0 9a b1 6d bc 26 f6 62 bc e4 5b 70 bc e2 3d 84 3b
       -0.014507676 -0.013852632 -0.014670346 0.0040356973
0003b0 55 b5 1d 3b f9 08 1f bc 1e d6 3a bc 69 cd 0e bd
       0.002406438 -0.009706729 -0.011403589 -0.034863863
0003c0 7b 0f 07 bd 99 dc 12 bc 6d 61 90 3b a9 e4 5f 3b
       -0.032973748 -0.008963727 0.0044061453 0.0034163392
0003d0 6c d9 9b bc 40 20 00 3b 86 87 3a bc 48 66 bc bc
       -0.019024573 0.0019550472 -0.01138485 -0.02299799
0003e0 32 80 d8 bc 57 63 9e bc 7e 2f c3 bb df 1b fd 3b
       -0.026428316 -0.019334478 -0.0059565892 0.0077242698
0003f0 22 57 b9 bc 06 eb c0 bc 8f 53 09 bc 65 af b4 3a
       -0.022624556 -0.023549568 -0.008381738 0.0013785182

Const_7 f4 [32]
000000 bc dc b9 bc a7 34 96 3b 5c 84 98 38 80 3a 0a 3d
       -0.022688262 0.0045839134 7.272579e-05 0.033747196
000010 b4 34 ef 3c 57 a6 d2 3c da 4b e0 ba 78 51 7e 3d
       0.029199935 0.025714083 -0.0017112449 0.062089413
000020 b3 f1 9b 3c 1d 61 89 3e cc 8b 97 3b fb d3 ea bc
       0.01903615 0.26831904 0.0046248194 -0.028665533
000030 c2 cb 93 3e 03 42 d6 3b 60 79 83 3e 75 18 1a 3c
       0.28866392 0.006538631 0.2567854 0.009405245
000040 6d 5a 41 3d 1b 92 b4 3d 60 0a 73 3d d5 20 d6 3c
       0.047205377 0.0881693 0.059336066 0.026138702
000050 1a 2c 35 bb 9c ea b9 3c 7b 78 85 3e 39 82 3a 3d
       -0.0027644695 0.022694878 0.26068482 0.045534346
000060 42 c0 86 3e ba 3e 87 3b 41 63 ba 3c 1b 79 f5 3c
       0.26318556 0.0041273506 0.022752406 0.029964974
000070 d2 55 8e 3e b9 43 5b 3d 60 0b a0 3e 17 82 9b 3c
       0.2779985 0.053531382 0.31258678 0.01898293

Const_6 f4 [32]
000000 c8 48 7e 3f b1 d3 80 3f 8c 48 7f 3f 40 13 86 3f
       0.99329805 1.0064603 0.9972007 1.0474625
000010 a8 fd 83 3f 0b cd 84 3f c4 85 81 3f ca fc 88 3f
       1.0311785 1.0375074 1.0118947 1.0702145
000020 ec 7d 81 3f 21 67 a4 3f b8 8f 80 3f 21 1f 7b 3f
       1.0116553 1.2843972 1.004386 0.98094374
000030 4a 1b a8 3f f8 ad 80 3f 63 a0 9e 3f d1 ee 83 3f
       1.3133328 1.0053091 1.2392696 1.0307256
000040 c6 c1 8b 3f f8 87 90 3f 13 42 8b 3f 2a b8 85 3f
       1.091851 1.1291494 1.0879539 1.0446827
000050 ae d2 7e 3f df c3 81 3f 17 15 a0 3f 89 27 8d 3f
       0.9954022 1.01379 1.2506436 1.102769
000060 b6 89 a2 3f 3b ee 82 3f 76 bc 83 3f 61 12 85 3f
       1.2698276 1.0228952 1.0291889 1.0396234
000070 12 45 a6 3f 57 8f 8e 3f db be ae 3f e7 38 82 3f
       1.2989829 1.1137494 1.3651994 1.0173615

Const_5 f4 [32]
000000 24 20 2b be 7a 1f d0 3d 37 ed 0f 3c 3f 89 09 3e
       -0.1671148 0.10162254 0.008784584 0.13431261
000010 8f c7 e5 bd 50 47 df bd bb 7d d5 3b 15 74 09 be
       -0.112197034 -0.10902274 0.0065152324 -0.13423188
000020 9d 15 ee bc 53 9a 1e bd 23 2a bf 3d 9f a0 c0 3d
       -0.02906304 -0.038721394 0.09334209 0.09405636
000030 90 ba 2d 3e 80 2b 39 3d 95 3d 54 bd 96 1b 25 be
       0.16965699 0.0452075 -0.05181654 -0.16123804
000040 9d a2 96 bd 99 27 cc bd a5 6a 37 be 70 fd 51 3d
       -0.07355235 -0.0996849 -0.17911775 0.051267087
000050 4b 5d 06 be a3 f9 17 be 54 f0 7b 3c 52 d5 a4 bd
       -0.13121526 -0.14841323 0.015377123 -0.080485
000060 9b b1 2e 3c 63 6c 02 3e 08 a1 0d be a3 95 80 3d
       0.010662462 0.12736659 -0.1383096 0.06278541
000070 7a 30 f4 3c 07 9b 14 bd b0 10 03 3d 79 9e 10 3e
       0.029808272 -0.036280658 0.031998336 0.14122953

Const_3 f4 [32]
000000 e4 07 83 3c 2b a3 23 bc f4 33 0c bc 53 d7 e0 3c
       0.015994973 -0.009987633 -0.008557308 0.027446425
000010 33 91 3e bc 0a 6e 42 3c cc a9 da bb 60 a1 7d 3c
       -0.011631298 0.011867056 -0.0066730734 0.015480369
000020 b6 b6 95 3c c2 12 55 bc 43 69 1c bd 76 39 8c 3c
       0.0182756 -0.0130049605 -0.038186323 0.017117243
000030 31 53 01 bd ea a2 69 3c a0 3b 51 3c d6 cd bd bb
       -0.031573478 0.014260033 0.012770563 -0.00579236
000040 97 c0 02 bc 38 ae 8a bc 8c ca bf 3c 42 38 d1 3c
       -0.007980487 -0.016928777 0.023412012 0.025539521
000050 af db b0 bc 42 72 8b bc a4 f9 89 bc ce 94 3e 3b
       -0.021589128 -0.017022256 -0.01684267 0.0029080394
000060 0c a6 6d 3b ef d6 ad bc f6 e0 3e bc c1 d0 8e bc
       0.0036262302 -0.021220652 -0.011650315 -0.017433526
000070 ff 7a 53 3b ae 7e ca bb 1f 65 9d 3c 6c 2b 44 3b
       0.0032269356 -0.006179652 0.019213257 0.0029933108

Const_2 f4 [32]
000000 43 b0 76 3f 1d 92 81 3f 4b 6a 7c 3f 2f 5a 81 3f
       0.96362704 1.0122715 0.9859969 1.0105647
000010 8d 61 7b 3f d0 77 81 3f b2 97 82 3f be 26 86 3f
       0.98195726 1.0114689 1.0202544 1.0480573
000020 9a 40 79 3f f4 f6 7d 3f ea c2 7b 3f 30 3c 76 3f
       0.973642 0.99204946 0.9834429 0.9618559
000030 43 91 7c 3f d0 da 81 3f ec 6f 7c 3f ac 99 7b 3f
       0.9865915 1.0144901 0.9860828 0.9828136
000040 20 5b 7f 3f e8 b3 7e 3f d8 27 79 3f de 75 7c 3f
       0.9974842 0.99493265 0.9732642 0.9861735
000050 0e f3 7b 3f 99 07 7d 3f 12 47 7f 3f 7f e7 83 3f
       0.9841775 0.9883972 0.9971782 1.0305022
000060 45 5b 81 3f ce 1c 7b 3f 8c 45 7f 3f 49 a0 7c 3f
       1.0105978 0.9809083 0.99715495 0.98682076
000070 59 df 81 3f 08 b8 7c 3f 66 a5 7b 3f 79 cc 7d 3f
       1.0146285 0.9871831 0.98299253 0.99140126

Const_1 f4 [32]
000000 1f e8 22 3c 04 e3 70 bc 67 a5 e1 3b f8 69 b8 3b
       0.009943037 -0.014702562 0.0068861726 0.005627867
000010 68 2e c2 bc 14 99 f2 ba 87 24 5d bb 19 91 5a 3c
       -0.023703769 -0.0018508756 -0.0033743696 0.013340258
000020 13 89 32 3c cd c7 40 bc 76 7f 63 3c cf 73 99 3b
       0.010896939 -0.011766386 0.0138853695 0.004682995
000030 38 85 d3 3c a4 28 a0 bc fa af 6f 3c 48 d5 bb 3c
       0.02582036 -0.019550629 0.014629358 0.022928849
000040 79 d6 0a bb d2 60 8f bc 60 5f 52 bc 25 6b bb 3c
       -0.0021184965 -0.017502222 -0.012840122 0.022878239
000050 a7 1f c2 bc 0a 86 bf bc ed 6c b2 3a 80 43 c7 bc
       -0.023696734 -0.023379344 0.0013612785 -0.024324179
000060 13 e8 d7 bc a7 ca f3 3b f1 29 88 3b c0 f8 da 3b
       -0.026355779 0.0074399295 0.0041553904 0.0066824853
000070 8c a6 30 3c 32 e4 e1 bc c8 a7 81 bc c5 1a 8f bc
       0.010781895 -0.027574632 -0.015827075 -0.01746882
