en/hey_lisa/hey_lisa.onnx (onnx, 205649 bytes, 9 tensors)

const_fold_opt__23 f4 [32, 1]
00000000: e0f8 683e 145e 923b e9d5 a7be b114 143e
00000010: 30e5 483e 1121 343e 4dd7 e6bc 935d 323d
00000020: 9643 b03d dcc9 b6be 21f9 b5be dbf8 463e
00000030: 0c3f 9a3d 439e acbe 64ff afbe 8314 4b3e
00000040: 57d0 b6be 190e e23d c1a8 9bbe 2aad 233e
00000050: 3985 82bd 15d3 0ebd 768a 33bb 1182 ea3d
00000060: 22fb 9cbe cd60 d43d fa31 833e a706 cc3c
00000070: 844d 0e3c bab7 aebe ed93 a2be 98ab 133e
0.22751188 0.0044667814 -0.32780388 0.14461018 0.19618678 0.17590739 -0.028178835 0.04354627
0.08606641 -0.3570088 -0.35541633 0.19430868 0.075315565 -0.33714494 -0.34374535 0.19832043
-0.35705826 0.11037845 -0.30402187 0.15984026 -0.063730665 -0.034869272 -0.0027395762 0.114505894
-0.3066035 0.10370026 0.25624067 0.024905516 0.008685473 -0.34124547 -0.31753483 0.14420927

const_fold_opt__22 f4 [32, 32]
00000000: 93fd 3cbe 5359 f33c a56b 26be 9f42 94bd
00000010: 6f8c b33d 2585 d2bd 5ed3 efbd be12 d8bd
00000020: 9696 d83c b063 02be 13de 0e3e be6b 423d
00000030: c06b febc bc00 afba 8f03 893d e07b 083e
00000040: 19a3 cd3d 69bd 353e 9ea0 3abd 0040 173e
00000050: 9ef5 dabd e336 fe3c 4006 2abe 6c0d cb3d
00000060: 2b53 4a3d b5ad bfbd 96d8 423d 62f2 30be
00000070: 6d5d 0f3e 449f dcbd 705e 643d 1de8 44bd
00000080: 6262 113e 75d8 f23d 5e58 393e 586f febc
00000090: 8a95 f23d 7719 21be 7013 febd 21cd eabd
000000a0: a241 c3bd 9e14 1fbe efa8 d6bd d570 3abe
000000b0: 3154 983c 172d aa3d 5c06 273e 839c 113e
000000c0: 7022 dfbd 2d85 a0bd d274 053e b455 b3bd
000000d0: 8dc5 463e 9f40 aabd a302 02be 499a 11be
000000e0: 0db6 2b3d 71ef 263a 7b0f f0bd f85e 033e
000000f0: 8d74 0b3e 877d 18be dd93 8e3d 66a6 aebd
00000100: 0b2b 9ebc d32f 4d3d bb7c 573c 080f 043b
00000110: 1a96 2c3e 1973 083d 594b d7bd 225b fd3c
00000120: 7de1 26bd 21e8 9fbd bb31 19be 33cd e4bd
00000130: 446e 10bd b82e 333e 8949 4dbd b8ba 84bd
00000140: ef57 05be d530 03be f748 c7bd 94c3 f5bc
00000150: dea2 853d 5a3f 51bd 86e3 0cbc e21a eabc
00000160: f9a3 1c3e d0b3 29be cede 063e f319 483d
00000170: 44b0 a73d 2a33 b8bd 58e5 1fbe 09ee b4bc
00000180: e574 3ebe efb9 2cbe b876 8dbd 48c5 a93c
00000190: a341 d2bc d82b 14be 6653 fe3b 7b7c 00be
000001a0: ddc1 0abe bc13 513d 75f2 893d bc4a 64bd
000001b0: 832a 31be 528d c93a bdad b1bd 1f73 00be
000001c0: f51a a53d 09cf 4bbb 1456 b7bd cffe 63bd
000001d0: b47c c5bd 68cd 80bc d61f 85bd 4201 15be
000001e0: 6efe 053e d105 1cbe 90a7 0dbe b0a7 d73c
000001f0: dc17 0cbe 6a70 883d f6ae a4bc 5fed fdbd
00000200: d246 4f3d f8b7 cf3d 8e6f b43c 170a a2bd
00000210: 9fa4 d43d cd9c cebd a6f2 b93d 6f5a 5cbd
00000220: ff88 58bd c5d1 15bd 7c5f e6bc ba45 b23b
00000230: 386a cd3d 6698 743c 1d01 bc3d 8684 45bd
00000240: b646 85bd c145 c33d 4d8f 173e 5177 a3bd
00000250: a813 6f3d 91cc 113e 8d2b 32bb b483 68bb
00000260: d9e1 35bd 7581 b83d 4a2c 31be 5c3b 8f3d
00000270: 06a7 253d 1a83 b43d e352 cbbd d93e 123e
00000280: aec5 e6bd ea46 a13d 815d d9bd e0dc 39be
00000290: 7009 0dbe fe9e 023e 9d7a c3bd 73a0 82bd
000002a0: f904 18bc 99b8 173d c897 3dbe a9b8 fd3d
000002b0: 4daf 193e 88f2 353c 9962 813c bc2c 70bd
000002c0: 7305 c43d 99ba 923d 1004 0c3e 4396 1e3e
000002d0: 49a9 1c3c 08a7 dabc b8ff 183e b468 d73d
000002e0: c102 183e 99a6 b13d 7006 b63c ecb7 ee3b
000002f0: 3109 5f3d 829d f9bd f7f3 033e 4455 db3d
00000300: 23eb 80bd 15bd 22be 82d5 03be 21db 66bd
00000310: dd9f e4bb 6f00 42bc 719c 11bd 63dd cdbd
00000320: 04d5 923d 4c3f 45bd 23dc c2bd b09a 03bd
00000330: 6534 ccbc aa2e 1fbd 3650 f8bd dd54 703d
00000340: c9bc a5bd 2be8 ae3c 4e6d 8c3d 8906 4d3b
00000350: e8f5 9bbc 1e28 f6bd ccf8 a03d 4b4e 283e
00000360: a066 acbd 8fc7 2b3d 8b5e 233e 046f 36bd
00000370: e155 7fbc 9f68 babd 6b4e 893d e70e b23d
00000380: c68e 40bd 085b a33d a7b0 26be a089 ca3d
00000390: 4d8a 813d 96bf fdbd 10d0 6f3d 600a e13d
000003a0: e714 edbd 3fe4 353c d0e2 7f3d 980b 19be
000003b0: 3691 093e e655 f4bd fb50 31be 6af5 033e
000003c0: 36a4 febd d1db 833b cff9 a83d e214 c4bc
000003d0: 4516 b63c a8d2 b1bd 4422 fdbc f8fb 2abe
000003e0: b149 cfbd 7ed9 18be 993f a2bd 6bdd e9bd
000003f0: b211 853d 5f2a 383d b9ce 03be ecdb 863d
-0.18456106 0.029705679 -0.16252 -0.072392695 0.0876702 -0.102793016 -0.11710237 -0.1055045
0.026438992 -0.1273334 0.13951902 0.047466032 -0.031057239 -0.0013351659 0.06690132 0.13328505
0.10040874 0.17748035 -0.045563333 0.14770508 -0.10691379 0.031032031 -0.16603947 0.099146694
0.04939572 -0.09359304 0.047569834 -0.17279962 0.14000483 -0.10772565 0.055754125 -0.048072923
0.14197686 0.11857692 0.18100116 -0.031058952 0.118449286 -0.1573237 -0.12406051 -0.114649065
-0.09534003 -0.15535209 -0.1048144 -0.18207105 0.018594833 0.083093815 0.1631102 0.1421986
-0.1089524 -0.07837901 0.13032845 -0.08756581 0.19411297 -0.08313107 -0.12696318 -0.14219011
0.041921664 0.0006368077 -0.11721703 0.12829196 0.1361868 -0.14891635 0.069617964 -0.08527832
-0.019307634 0.050094437 0.013152297 0.002015056 0.16854134 0.03331289 -0.10512418 0.030927245
-0.040742386 -0.07807947 -0.14960377 -0.11171951 -0.035261407 0.1749829 -0.050118957 -0.06480926
-0.13021825 -0.12811597 -0.09730714 -0.030000485 0.06525205 -0.051085807 -0.008599168 -0.028577272
0.15296926 -0.165725 0.1317093 0.048852872 0.08187917 -0.08994134 -0.15614831 -0.02208616
-0.18599279 -0.16867803 -0.069074094 0.020723954 -0.025666064 -0.1446985 0.0077614067 -0.12547486
-0.13550515 0.05104421 0.06735698 -0.055735335 -0.17301373 0.00153772 -0.08675716 -0.12543915
0.08061782 -0.0031098744 -0.08951965 -0.055662926 -0.09642926 -0.015722945 -0.06500213 -0.14551261
0.13085338 -0.15236594 -0.13833451 0.026325077 -0.13680977 0.06662066 -0.02010296 -0.123987906
0.05060465 0.10142511 0.02202585 -0.07912081 0.103829615 -0.10088501 0.09079485 -0.05379718
-0.052865025 -0.036577005 -0.028121702 0.005440441 0.10030025 0.014928913 0.091799 -0.048222087
-0.06507628 0.09534789 0.14800759 -0.07981742 0.058368355 0.14238192 -0.0027186603 -0.0035478892
-0.04440484 0.09009067 -0.17302051 0.06993744 0.04044249 0.08814068 -0.09927919 0.14281787
-0.11268173 0.07874854 -0.106135376 -0.18150663 -0.13773131 0.12755963 -0.09544871 -0.063782595
-0.009278529 0.03704128 -0.18514931 0.12388737 0.15008278 0.011105187 0.015794085 -0.058636412
0.09571352 0.07164497 0.13673425 0.15487008 0.009561845 -0.026690975 0.14941299 0.105180174
0.148448 0.08674354 0.022219867 0.007285109 0.054452125 -0.12188245 0.12886034 0.107096225
-0.06294849 -0.15892442 -0.12874416 -0.05636132 -0.006977065 -0.011840924 -0.035549585 -0.10051992
0.07169536 -0.048156068 -0.09514644 -0.032129943 -0.024927327 -0.03886286 -0.12124674 0.058674682
-0.080926485 0.02135094 0.06856786 0.0031284413 -0.019038156 -0.120193705 0.07859954 0.16436116
-0.08418012 0.04193836 0.15954034 -0.044539467 -0.01558444 -0.09101986 0.0670441 0.08694249
-0.04701116 0.07976347 -0.16278325 0.09889531 0.06325207 -0.12390058 0.058548033 0.10988307
-0.115762524 0.011101781 0.062472165 -0.14945829 0.134343 -0.11930446 -0.17316048 0.12886587
-0.124336645 0.004024007 0.08250772 -0.023935739 0.022227416 -0.086827576 -0.030900128 -0.16697681
-0.101214774 -0.14926717 -0.079222865 -0.11419185 0.06497516 0.044962283 -0.12871827 0.065849155

const_fold_opt__21 f4 [1536, 32]
00000000: 9ee8 553c 79a1 c73a 53d6 513c fd7a 4fbc
00000010: 6619 e4bb 6716 babb c212 1abc 8cde 8e3c
00000020: 3f97 b7bc c93f acbc f3a3 c4bb fe97 d13c
00000030: f3a3 de3b 6617 03bc e256 233c 12bb 463c
00000040: a3af b83c 93d9 18bc 7e43 8ebc 4bce 613b
00000050: 6054 92bc c4a4 0e3c 86aa b53c 080b f13b
00000060: 65e1 18bc b5af 2ebc a78a 3dbc 2558 edbb
00000070: b158 833c dc05 7f3b 065e 593c ce74 b73c
00000080: cc86 273c 5fdc 23bc f11d fd39 57af d6bb
00000090: f278 4abc 08e3 b33c ff90 94bc b799 d7bc
000000a0: 156a 28bc d5dc afbb fe6d 2c3c 4ae3 073c
000000b0: e07e ce3c eea2 7f3c 64fc 073c f930 c9bc
000000c0: 47ba 9e3b ef69 88bc b7b7 503c 9ad0 41bb
000000d0: 48df 2b3c e66b 813c fd3a 903c 7747 223c
000000e0: ab3d 2fbc 5df6 47bc 18f2 963c 472c b7bc
000000f0: 2806 93bc 93e1 6d3c f8f1 9c3a 64be b23c
00000100: d218 a83c ba4b c5bc 89ca 7b3c 39aa efbc
00000110: a167 b2bc 8189 0c3d a262 063d c3bc 2ebb
00000120: 1f24 b23c ba5a 3e3b 9d09 9fbb 6022 b03b
00000130: b37e 823c 5d55 b33b 0bbe 35bc 2474 adbb
00000140: d70b 4fbc 5cfd 6abc dfaa 563c ab7d 42bc
00000150: 1a4d a6bc e98c 26bc 246d a13b 5243 0d3d
00000160: 73f2 32bb dba0 2ebc efb2 27bc fe39 143c
00000170: 4c65 6a3c a738 d1ba 6257 b53c bd16 b23c
00000180: 7676 9bbc d6e1 473c 143a eabb eda8 853c
00000190: e7e3 06bd 0f5e a03c bbfd 16bd f6aa 61bc
000001a0: b26b 5bbc 8674 17bb e91a 59b8 dba8 9f3c
000001b0: 5678 b33b ea36 233d c5fa d2bc 9bd4 6dbd
000001c0: 1eff 3dbc dc87 e13c c75f e63c 2b7c 07bd
000001d0: 1c4b 52ba 8045 26bc 9666 893c 86fd bbbc
000001e0: 2d04 18bc d4e1 2ebd cd99 193c ccb2 4c3c
000001f0: 8d7c 3cbd 09bd 863a caf7 a43b 77ff 94bc
00000200: 9cdf d73c 3cbe 8c3c c7e6 f93b 940a bebc
00000210: fde8 52bc a091 9b3c 4a66 b43c 2291 d83b
00000220: f6e6 a5bb 7bf6 7bba 0fb9 413c 472d 9f3c
00000230: 6cc7 a0bb e871 85bc 6247 62bc 5807 9e3c
00000240: 12a9 ba3c c068 7abc d066 52bc d0d8 1d3c
00000250: bf15 ae3c e166 9fbb 28e0 d7ba ea5e 003d
00000260: eeec a63c 908e 613b 496d 3939 0c90 093c
00000270: f972 6dbb 3155 51bc b325 7f3c 9382 523c
00000280: b9eb 5e3c eaf3 f63c eaf0 ea3a 4db8 2d3c
00000290: 3ff6 313c 1ea5 bbbc 043f 73bc 2c9a e2bc
000002a0: e17f 95bc afda d03c 155a e6bc 8f72 87bc
000002b0: 9f5f 643c 1d69 4fbc 4671 92bb a335 f1bb
000002c0: 99c0 50bc 40a2 88bc fc2c 703c 9955 e93b
000002d0: c726 7e3c e94f 483c e14b a33c a609 6cbc
000002e0: 7b12 a13c c2a2 cdbc cbea e53b 944a 2bbc
000002f0: 5e23 60bb 3aec 37bb 2dea e23b e7e7 d2bc
00000300: 7ab0 cc3c e0ed 09bc 4ad4 dfbb a1fd 20bd
00000310: e2d7 d2bb 7e16 1a3d e24c 9f3c 5030 c33c
00000320: 7849 823c c11b 05bc 4239 933c 3618 223d
00000330: d425 91bb ee76 0c3d ffef 26bc 0124 e93c
00000340: eeb5 6cbc fca3 02bd 838c e13b 2c49 d73c
00000350: 4e21 bfbc 1c9e 1bbc 3f13 a4bc 6c94 103d
00000360: e95c 03bc 2fe8 f23c 4aa7 52bc 744e 3c3c
00000370: 5054 c83c 818d 843c 909d 95bc 77f6 0f3d
00000380: 3d08 acbc 170e 17bc 5083 3e3c d1a2 893a
00000390: e0e9 a13b f7cb ff3b c281 79bc ab62 0bbd
000003a0: 5ae2 13bd 4f7d 07bb fd33 67bc b496 ba3b
000003b0: 8df8 36bb 1e5d 8a3c 3e28 dcbc 32e2 b8bb
000003c0: a3fa 603c 816a 4bbc 2c00 96bc 70cb b2bb
000003d0: e063 73bc 7424 a4bc b8c4 65bc de40 15bd
000003e0: 6abd d0ba c8ae a7bc f247 02bc 2b7f cd3c
000003f0: 19ab 44bc d0c8 2fbb b497 9f3c a410 b9bb
0.013055949 0.0015230618 0.0128074465 -0.0126636 -0.0069610355 -0.00567894 -0.009403886 0.017440103
-0.022410987 -0.021026509 -0.0060009896 0.02558517 0.0067944466 -0.008001184 0.009969445 0.012129562
0.022544688 -0.0093292175 -0.017366167 0.0034455236 -0.017862499 0.008706275 0.022176038 0.0073560514
-0.009331082 -0.010662009 -0.011568702 -0.0072431737 0.016033502 0.0038913405 0.013267046 0.022394564
0.010225009 -0.010001271 0.00048278228 -0.006551664 -0.012357937 0.021958843 -0.018135546 -0.026318414
-0.010279198 -0.0053669014 0.010524271 0.008293936 0.025206983 0.01560281 0.008299921 -0.024559485
0.0048439833 -0.016652076 0.0127391135 -0.00295738 0.010490246 0.01579852 0.017606253 0.009904734
-0.010695855 -0.012204734 0.018425986 -0.02235998 -0.017947271 0.014519113 0.0011973968 0.021819301
0.020519648 -0.02408396 0.015368112 -0.029255973 -0.02177793 0.03431082 0.032808907 -0.0026662804
0.02174574 0.0029045776 -0.004853441 0.0053751916 0.015929556 0.0054728226 -0.011092673 -0.005293386
-0.0126371 -0.014342632 0.013102262 -0.011870782 -0.020300437 -0.010165432 0.0049263407 0.03448803
-0.0027305156 -0.010658468 -0.010235532 0.00904703 0.014306378 -0.0015962318 0.022136394 0.021739358
-0.018977385 0.01219984 -0.0071480367 0.016315902 -0.03293219 0.0195761 -0.03686307 -0.01377367
-0.013392376 -0.0023110225 -5.1761894e-05 0.019489696 0.0054769916 0.039847292 -0.025754342 -0.058064085
-0.011596469 0.027530603 0.028121842 -0.0330774 -0.00080220564 -0.010148406 0.01677255 -0.022948038
-0.009278339 -0.042695835 0.009375048 0.0124938 -0.04601722 0.0010279726 0.0050344216 -0.018188221
0.026351742 0.017180555 0.0076263878 -0.023198403 -0.012872932 0.018990338 0.022021431 0.006609098
-0.005062933 -0.00096116186 0.011823907 0.01943077 -0.0049065854 -0.016289666 -0.013810964 0.019290611
0.022785697 -0.015283763 -0.012841895 0.009634212 0.021250604 -0.004864559 -0.0016470002 0.031340517
0.020376649 0.003441725 0.00017683687 0.00839616 -0.003623186 -0.012776659 0.015572953 0.012848514
0.013606005 0.030145604 0.0017924581 0.010603023 0.010861932 -0.022905882 -0.014846567 -0.027661406
-0.018249454 0.025494901 -0.028119126 -0.016534118 0.0139388135 -0.012659338 -0.0044690697 -0.0073611303
-0.012741231 -0.01667893 0.014659163 0.0071207997 0.015512175 0.012226083 0.019933643 -0.014406597
0.019662132 -0.025102023 0.007016515 -0.0104547925 -0.0034200768 -0.0028064386 0.0069248886 -0.025745345
0.024986494 -0.00841853 -0.0068307268 -0.03930438 -0.0064344266 0.037619106 0.01944584 0.023826748
0.015904173 -0.008124293 0.017971639 0.03957387 -0.0044295583 0.034293108 -0.010189055 0.02845955
-0.014447672 -0.03189467 0.0068832054 0.026280008 -0.02333131 -0.009498145 -0.020028709 0.035297796
-0.008017757 0.02965173 -0.012857268 0.011493314 0.024454266 0.016180756 -0.018263608 0.035147157
-0.021000022 -0.009219668 0.011627987 0.0010500794 0.00494121 0.007806297 -0.015228691 -0.034029644
-0.036104538 -0.0020674055 -0.014111516 0.0056942347 -0.0027919144 0.016890105 -0.026874658 -0.005642199
0.013731631 -0.012415529 -0.018310629 -0.0054563805 -0.014855355 -0.020036913 -0.014023952 -0.036438815
-0.001592559 -0.020469084 -0.007951723 0.025085052 -0.0120036835 -0.0026822574 0.019481517 -0.0056477357

Const_7 f4 [32]
00000000: 0684 2a3d 24bd 8bbc f1c8 823e 4fa2 72bc
00000010: ef84 333c 4ec4 0f3d 11e0 bcba 5ed8 833b
00000020: 3351 ddbc 4704 7b3e a65a 6f3e f127 543c
00000030: 9d93 0f3d 2e56 7d3e 7d60 723e 9110 ae3d
00000040: b69b 723e 848c 5e3c 9ae3 893e d311 993d
00000050: ed91 70bc b729 a43b c955 36bd 9f74 da3d
00000060: eb09 8c3e b2fd 153c 5ed2 463d 85da d83a
00000070: 0e54 73bb fc0e 8e3e a1e5 843e 34f7 173d
0.041629814 -0.017057963 0.2554393 -0.014809205 0.010956987 0.03509932 -0.0014410039 0.0040235957
-0.027016258 0.2451335 0.23374423 0.012948976 0.035052884 0.24739906 0.2366962 0.084992535
0.23692212 0.013583306 0.2693146 0.07474103 -0.014683229 0.0050098556 -0.044515405 0.10666775
0.27351317 0.009154724 0.048540466 0.0016544616 -0.0037128958 0.27745807 0.25956443 0.037100986

Const_6 f4 [32]
00000000: 544d 873f 77b1 7d3f 229a a23f f76d 803f
00000010: 59d6 843f b01e 873f 539e 7d3f 0055 823f
00000020: be63 7f3f 8f69 a03f 7e65 9b3f c38c 823f
00000030: c59b 883f 0c0e a03f 6081 9c3f 478a 8d3f
00000040: a6ae 9d3f 7657 823f 13db a53f aea8 8c3f
00000050: 04ae 7e3f 248d 7f3f bb4f 713f e276 8f3f
00000060: 5ac6 a63f b4d0 803f 5aaa 8a3f da22 803f
00000070: d0bc 7f3f 0c1c aa3f c0d2 a23f b785 853f
1.0570474 0.99098915 1.2703288 1.0033559 1.0377914 1.055624 0.9906971 1.018219
0.9976157 1.2532214 1.2140348 1.0199207 1.0672537 1.2504287 1.2226982 1.1057824
1.2318923 1.0182941 1.2957481 1.0988977 0.99484277 0.9982474 0.94262284 1.1208155
1.3029282 1.0063691 1.0833237 1.0010636 0.9989748 1.3289809 1.2720566 1.0431432

Const_5 f4 [32]
00000000: 8040 acbd 3edf a2bd 06ff 253e 3435 113d
00000010: 2f85 43be d510 8bbd a729 39be 5fe1 0f3e
00000020: 1219 af3d 8229 b3bd 2165 233e bfd7 043e
00000030: 17a3 e4bd 504d 66bd 2b55 a1bc 363d a1bd
00000040: 24c9 063d dcb8 05bd ca98 433c 7739 8fbc
00000050: 2631 49bd 7e73 bebd 6994 4fbc 711f 103e
00000060: 4d69 d0bd 7f66 f9ba 6f93 373d efb2 b4bc
00000070: 4dc8 283e 5105 05be b89b 25be d816 e03d
-0.0841074 -0.07952736 0.16210565 0.03545113 -0.19093774 -0.0679032 -0.18082295 0.14050816
0.08549704 -0.08748151 0.15956546 0.12972926 -0.111639194 -0.056226075 -0.019693932 -0.07873003
0.032906666 -0.032647 0.011938283 -0.017483456 -0.049119137 -0.09299372 -0.012669661 0.14074494
-0.101763345 -0.0019027739 0.044818338 -0.022057978 0.16482659 -0.1299031 -0.16172683 0.10941857

Const_3 f4 [32]
00000000: 53c1 17bc 9282 b63c f8b9 a9bb bc32 b93c
00000010: 11df 04bc 8fd6 023d a7a8 32ba 0e85 6abd
00000020: 5080 973b 9392 153c 9b51 5e3c 27c5 69bb
00000030: b76a c83b ca7e 073d 4a67 2bbc bd42 133b
00000040: 1898 40bc c760 213c c4f1 7c3c ce11 cdbb
00000050: d7b4 043c 574b a5bb 1eb7 5a3c 60b3 ed3a
00000060: a4c3 3abb 7e10 023c fef4 5d3c 1d22 3cbc
00000070: cda1 df3b 9620 0b3b 7526 4cbc 1b50 c93b
-0.009262401 0.022279058 -0.00517964 0.0226072 -0.008109824 0.0319429 -0.0006815292 -0.057255797
0.0046234503 0.009129184 0.013569261 -0.003567049 0.006116237 0.0330799 -0.010461638 0.00224702
-0.011755012 0.009849734 0.015438501 -0.006258226 0.008099756 -0.0050443816 0.013349323 0.0018135123
-0.0028497959 0.007938502 0.01354718 -0.011482743 0.006824708 0.002122914 -0.012460341 0.0061435825

Const_2 f4 [32]
00000000: 7ebb 7c3f 9816 803f aae7 7e3f 15da 893f
00000010: b37e 7f3f 8c22 7f3f 3128 803f 9455 733f
00000020: d262 7e3f 3239 793f 4868 793f 9512 803f
00000030: f9cb 7a3f f1f1 803f 8d68 7d3f de53 803f
00000040: 1363 7f3f abb4 803f 1903 7a3f fa89 7b3f
00000050: ab88 813f 7282 7f3f 24ac 803f 8871 803f
00000060: 361c 7d3f 2297 813f 3b2a 7f3f 0884 7f3f
00000070: f897 823f 4ae8 803f e2e9 7e3f 9436 813f
0.9872359 1.0006895 0.9957224 1.0769678 0.998027 0.9966209 1.0012265 0.95052457
0.9936954 0.973529 0.97424746 1.0005671 0.9796749 1.0073835 0.98987657 1.0025594
0.9976055 1.0055135 0.97660977 0.9825741 1.0119833 0.9980842 1.0052533 1.0034647
0.9887117 1.0124247 0.99673814 0.9981084 1.0202627 1.0070889 0.99575627 1.0094781

Const_1 f4 [32]
00000000: 7a80 b03b e24d 7cbc 3e0c 1dbb 6db3 c83c
00000010: 91de c33c f607 90bc 6a47 1d3b b42b 69bc
00000020: ea26 3c3c 9b52 083b c728 86bc 0fe8 80bc
00000030: 2587 8e3c 260d 503b aa2e aebc 5dd1 e63b
00000040: d650 c6ba 192b 71bc 784c 6c3c 833e bdbc
00000050: 3597 213a 8b0b 8c3c f908 96ba d9ec a23c
00000060: f006 7bbc 97e1 ab3c 6f04 19bb c8b9 dc3b
00000070: e311 433b 880a 363b 2c06 8f3b 9bfa e5bb
0.0053864093 -0.015399428 -0.0023963596 0.02449962 0.023909839 -0.017581921 0.0023998865 -0.014231611
0.011483887 0.002080119 -0.016376866 -0.015735654 0.017398426 0.0031746118 -0.021262486 0.007044001
-0.0015130292 -0.014719748 0.014422528 -0.023101097 0.0006164194 0.017095348 -0.0011446766 0.019888328
-0.015321478 0.020981593 -0.002334859 0.006736014 0.00297653 0.0027777273 0.0043647494 -0.0070184
