en/skynet/Skynet.onnx (onnx, 205645 bytes, 9 tensors)

const_fold_opt__23 f4 [32, 1]
000000 a9 38 a0 3d e3 40 03 be 4e 0c b2 ba e0 4b b1 be
       0.07823307 -0.12817721 -0.0013583989 -0.346282
000010 9b 46 03 3e 52 c3 9b bd 74 58 af be 65 98 2f be
       0.12819903 -0.07605614 -0.34247172 -0.17147978
000020 8d 07 fc 3d ed f9 40 3e 2a 85 81 3d 45 d9 a7 be
       0.12306128 0.18845339 0.06324227 -0.3278295
000030 76 c9 32 3e 2f 94 be be a6 48 0e 3e 8f 70 d5 3d
       0.17459664 -0.3722243 0.138949 0.104218595
000040 6d 0b b1 be cb c3 3c 3e a0 00 b3 be 70 c9 0a 3e
       -0.3457903 0.18434064 -0.34961414 0.13553405
000050 be 6a 4e bd cf 49 29 3e 63 69 15 3e f1 ec 71 be
       -0.050394766 0.16532062 0.14590983 -0.23625542
000060 be e1 bf 3d ea 8f a5 be ae df b2 be 1e 9f e5 3d
       0.09369229 -0.3233636 -0.3493628 0.1121199
000070 f4 fe bd 3d 02 bf 31 3e 24 f8 ac be 39 ec b4 be
       0.09277144 0.1735802 -0.33783066 -0.35336474

const_fold_opt__22 f4 [32, 32]
000000 c1 90 e3 bd e7 2f f6 bc 19 06 33 be 6c 11 80 3d
       -0.11111594 -0.030052138 -0.17482795 0.06253323
000010 63 6d f6 3d 06 6a 26 3e 76 2b 2e 3e 10 fd a3 bd
       0.120325826 0.16251382 0.17008767 -0.08007252
000020 f0 6c 14 be bb f9 91 bd 9d af 5b 3a f3 a6 23 3e
       -0.14494681 -0.071277104 0.00083803554 0.15981655
000030 7e 1e b0 3c 0f 79 4d 3b 38 2d a4 bd 94 67 1d 3d
       0.021498915 0.0031352674 -0.08016437 0.038428858
000040 82 9b 22 3d a3 ff 14 bd b8 6e c6 3d 42 90 a2 3d
       0.039699085 -0.036376607 0.09689087 0.07937671
000050 8a 47 e4 bd eb 9d 72 3d 4f 87 20 be a6 10 12 be
       -0.111464575 0.059232634 -0.15676616 -0.14264163
000060 32 57 05 3e 08 d8 4b 3d 23 40 41 3c fe 7d 0c be
       0.13021544 0.04976657 0.011795077 -0.13719937
000070 36 f2 a5 3d b7 9e f2 3d 27 b6 17 3e 4f 6e 50 3d
       0.08102839 0.11846679 0.1481558 0.05088645
000080 c0 8f 60 bc ba 85 5d 3d f7 b3 5a 3d cb 3a 75 3d
       -0.013706148 0.05408261 0.053394284 0.059870522
000090 f7 06 71 3d 19 5b 9e 3c 44 98 05 3e a1 20 eb 3d
       0.058844533 0.019330548 0.13046366 0.11480833
0000a0 b9 47 c0 bd 1c 56 b7 3d a9 42 c8 bd 14 13 53 3a
       -0.0938868 0.08951971 -0.097783394 0.0008051854
0000b0 92 bd 0f 3c a6 c1 24 3e ed 4f 1a 3c 20 03 0d 3e
       0.008773224 0.16089496 0.00941847 0.13770723
0000c0 c8 c5 3d bd f1 97 c7 bd cc 05 48 3e 51 74 65 be
       -0.046331197 -0.097457774 0.19533461 -0.22407652
0000d0 ee a7 04 3e 97 af 5b 3d 19 b9 3f 3d b8 b9 31 3d
       0.12954685 0.053634252 0.046807382 0.043390006
0000e0 9d c5 30 be 5f 6c 2c 3e b1 4b 18 3e 85 ce f9 ba
       -0.17262883 0.16838215 0.14872624 -0.001905874
0000f0 f9 7d 5d be 03 04 cb bd 11 7b 11 3e bb 82 d9 3d
       -0.21630086 -0.099128745 0.14207102 0.10620638
000100 3e 71 30 3e 0a 7e 62 39 c7 5b bf bd f3 e6 21 3e
       0.17230698 0.00021599993 -0.09343677 0.15810756
000110 72 cc 19 3e 40 9f 6f bd ca b4 1e 3e 89 85 ae bd
       0.15019396 -0.058501482 0.15498653 -0.085215636
000120 0e 04 0e be cc 4c b0 3d 5a b1 3c bc 15 dd d3 bd
       -0.13868734 0.08608398 -0.011516893 -0.103449024
000130 5f 27 a0 3b e9 77 32 be bb 3c 03 3e cc bf 3a bd
       0.004887506 -0.17428555 0.12816136 -0.045593068
000140 bd 89 4a 3d 68 4a 63 bd da 22 29 be 4a 74 b5 bd
       0.049447764 -0.05549088 -0.16517201 -0.08860071
000150 59 39 1d be a9 a6 26 3d e5 8e 8b bd c9 33 f0 3d
       -0.15353908 0.040686283 -0.06814364 0.11728627
000160 8c 02 aa ba f4 c0 a5 3c 6e 71 fc 3d 7e c1 0b 3e
       -0.001297073 0.020233609 0.123263225 0.1364803
000170 b2 14 15 3d 7d 19 18 3e 72 6e 0b be 9e 20 e0 3d
       0.03639669 0.14853473 -0.1361635 0.10943721
000180 80 c7 00 bd f0 fc 28 bb 93 e5 59 3c 6a e9 62 bd
       -0.031440258 -0.0025785528 0.013299364 -0.055398382
000190 70 fc ee bd 00 80 2a be 42 86 b5 bd 47 1f e4 bd
       -0.116692424 -0.1665039 -0.08863498 -0.11138778
0001a0 35 53 f5 3c f5 62 99 bc 8d da f1 3d 1a 78 92 bc
       0.029946903 -0.018723944 0.118092634 -0.017879535
0001b0 dd 5b 66 3c 60 89 51 3e b8 9b 15 be 13 9a 0b be
       0.014059988 0.2046256 -0.14610183 -0.13632993
0001c0 2e 61 01 3d c5 33 02 be ba e2 35 3d cd 7d b7 3c
       0.03158682 -0.12715061 0.044405676 0.022398854
0001d0 31 a5 16 3c cc e1 a9 bc d2 90 0d be 14 c2 36 3e
       0.009194658 -0.020737551 -0.13824776 0.17847472
0001e0 ee 05 fb bd 63 df 1b 3d 88 5c 50 3e 48 ae 21 be
       -0.122569904 0.038054835 0.20347798 -0.1578914
0001f0 6d 54 85 3d 8f f7 d7 bd c1 7b 5e 3d 85 99 aa bc
       0.065102436 -0.10545265 0.05431724 -0.020825157
000200 37 f1 92 bc 8e 5e 10 be ee 29 0e 3e 7f c5 37 bd
       -0.017937286 -0.1409857 0.13883182 -0.04486608
000210 06 e0 e9 3c 06 70 2d 3e bd 77 a4 3d 65 52 a1 bd
       0.028549206 0.16937265 0.08030651 -0.07877044
000220 dc 02 31 3e 8d 64 c7 bd e5 35 c1 3d 75 4f 16 be
       0.17286247 -0.097359754 0.09434108 -0.14678748
000230 f5 08 08 be 75 eb ec 3c c9 f0 65 bc cc f2 cd bc
       -0.13284667 0.028920868 -0.014034458 -0.025140189
000240 5f a2 4b bd 40 87 8c 3d 67 75 40 3d cb 70 b2 3d
       -0.049715396 0.068617344 0.046986964 0.0871292
000250 af 59 8c 3d 81 0c 19 3d e0 5b d0 3b ec c6 61 bd
       0.06853043 0.03736544 0.0063586086 -0.055121347
000260 1a c2 0c 3d 1d 90 43 be 6b 77 22 be a0 d4 d8 bd
       0.034364797 -0.19097944 -0.15865867 -0.1058743
000270 93 bd 27 3e 79 25 2d bc d3 20 9b 3d 84 b2 b9 3d
       0.1638091 -0.010568016 0.0757462 0.09067252
000280 8f 5a 3d 3e c3 e8 1f 3e 5c e5 e6 3d 13 73 0d 3e
       0.18491577 0.15616135 0.112742156 0.13813429
000290 ac 11 ce 3c ac c1 fc bd aa e2 2f bd 58 39 6e 3c
       0.025154911 -0.123416275 -0.042940773 0.014540039
0002a0 e4 35 7d 3d 4c 35 95 3d f9 bf a6 3b e3 ff eb 3d
       0.061818972 0.07285556 0.005088803 0.11523416
0002b0 ce 2e df 3d 95 3a 8a bd c7 16 20 bd 3e 99 31 3e
       0.10897599 -0.06749455 -0.039084222 0.17343614
0002c0 3e ac d9 bd 52 6f 21 3e 9e 38 8c bd ac 5f eb bd
       -0.10628556 0.15765122 -0.06846736 -0.11492857
0002d0 37 ef b7 3d b9 3e e5 bb 31 e8 1d 3e 9c ec f8 3d
       0.089811735 -0.0069960025 0.15420605 0.12154505
0002e0 4f 6d af bc 03 35 10 bd 6d b5 ff bd 42 87 9b bc
       -0.021414427 -0.035206806 -0.12485776 -0.018985394
0002f0 24 4d 17 3d 57 59 b3 bb 88 7d 03 be d0 11 0f be
       0.0369388 -0.0054732966 -0.12840855 -0.13971639
000300 94 40 bb bd 9e c6 4b 3c e9 da cf 3c 71 d3 28 bd
       -0.09143177 0.012437491 0.02537294 -0.04121727
000310 e9 d9 e4 bd a1 2f 1f be e2 67 60 3a de 4b d9 3d
       -0.111743756 -0.15545513 0.00085604016 0.10610174
000320 cf ba b3 3c 3a 33 ef bd 73 d9 da bd 2f 58 63 bd
       0.021939663 -0.116796926 -0.106860064 -0.05550402
000330 a7 ee a9 bb d4 30 c9 3b b6 a2 96 3d 90 9b cd 3d
       -0.0051859203 0.006139854 0.073552534 0.10039437
000340 60 17 e1 3d c9 f7 52 bd e6 49 00 be 6c 3c 54 bd
       0.109907866 -0.051505838 -0.1252819 -0.051815435
000350 89 d0 9c bd 83 27 8e bd 93 0e bf bc 6a 8d 2f bd
       -0.076569624 -0.0694113 -0.02332238 -0.042859472
000360 f0 6e 0a be 40 94 05 3e 1d 2b 09 bd 41 a1 bd bd
       -0.13518882 0.13044834 -0.03348838 -0.09259272
000370 fa a8 09 3e 02 f0 29 be 26 b4 0f ba 19 51 1c be
       0.13443366 -0.16595462 -0.00054818613 -0.15265311
000380 e4 41 45 bd 7b 82 97 3d 56 6a 19 bd e1 68 a0 3c
       -0.04815854 0.07397934 -0.037454925 0.01958126
000390 d5 ba 69 3d f2 24 b3 bd 71 7e fd bd 7c 2b 1e 3e
       0.057062943 -0.08747281 -0.123776324 0.15446275
0003a0 38 67 11 3e c8 43 d2 bd c6 34 20 3e 9e 37 35 3d
       0.14199531 -0.102668345 0.15645131 0.044242494
0003b0 72 c6 fa 3d 69 ee 9a bd 8f ad 0f 3e 64 74 71 3d
       0.12244882 -0.075650044 0.14031051 0.05894889
0003c0 8a ab ba bd 99 14 9d 3d ef 12 a8 3d 4b 94 8d bd
       -0.0911475 0.07669944 0.08206736 -0.0691305
0003d0 b0 21 22 3e 3c 46 35 3b 61 bd c6 bd 96 9f 13 3e
       0.15833163 0.002766027 -0.0970409 0.14416346
0003e0 36 9d 91 bd a8 10 af 3d 1e 6c dc bd 41 b2 87 bc
       -0.07110064 0.08548099 -0.10762809 -0.01656449
0003f0 f3 0b 40 bc 70 bf 10 3e 04 c5 78 bd 9c 36 bc bd
       -0.011721599 0.14135528 -0.060734764 -0.091901034

const_fold_opt__20 f4 [1536, 32]
000000 24 14 ed bb 67 0c b0 bc 75 17 a4 bb 07 fe 55 bc
       -0.007235067 -0.021490289 -0.005007679 -0.013061053
000010 36 6d 96 3c fc 02 f1 3a d0 8e 0e 3c fe 7f 70 bc
       0.018362623 0.001838773 0.008701041 -0.014678953
000020 22 43 52 3c 44 78 e9 3a a6 c7 db bc f8 09 14 3d
       0.0128333885 0.0017812331 -0.026828598 0.03614232
000030 6a 87 81 3c 87 45 32 bc da 16 c5 bb 9a bd 37 3c
       0.01581164 -0.010880834 -0.006014687 0.011214638
000040 19 ae 8e 3b c9 98 33 bc c4 8d 36 3c a9 85 e3 3c
       0.00435425 -0.01096172 0.011142198 0.027773695
000050 49 83 7d bc 71 03 ec 3b e4 85 96 3b ee 81 e0 3c
       -0.015473195 0.0072025587 0.0045935977 0.027405705
000060 7c c8 4a bb ba 3f c6 3c bc 0d 52 bc 54 60 09 3d
       -0.0030942252 0.024200309 -0.012820657 0.03353913
000070 1b 1e e2 3b bb b4 88 3c fd db bf 3c 1d 68 4c 3c
       0.0069005615 0.016687742 0.023420328 0.012475994
000080 d9 ad 5a bc 4a 83 82 3c cb a1 97 3c 97 60 f2 3b
       -0.013347113 0.015931744 0.018509766 0.0073967683
000090 03 56 bd 3c 9d 09 b2 3c 6c ca b8 3c 59 80 b3 bc
       0.023112303 0.0217331 0.02255746 -0.021911787
0000a0 4a 17 8d bc 23 12 b6 bc 2b 97 17 3c 61 24 d2 3c
       -0.01722302 -0.022225445 0.00925235 0.025652112
0000b0 b1 39 a6 3c 2d 16 1e bc c2 a5 59 3b 43 1e 8e 3c
       0.020291181 -0.009648842 0.0033210372 0.017348414
0000c0 71 06 93 3c 3c 95 5f ba ad 91 cd bb 27 ac 87 bc
       0.017947407 -0.00085290126 -0.0062734694 -0.01656158
0000d0 31 4c 26 bc 38 15 a1 3c 8b f0 5a b9 db 87 c6 bb
       -0.010150001 0.019663438 -0.0002087971 -0.0060586757
0000e0 f2 77 6d 3c f5 fe a8 3c db 9b bd 3c 8d 68 ec bb
       0.014493929 0.020629385 0.023145607 -0.007214612
0000f0 02 d6 27 bc f2 36 1a bc f2 cb 3f 3c 2d 53 4f 3c
       -0.0102438945 -0.009412514 0.011706339 0.012654108
000100 d1 35 35 ba 59 bc 30 3c 7b f9 d8 3b ab 4b 1b 3c
       -0.00069126213 0.010787093 0.0066215373 0.00947849
000110 e3 74 8e ba 65 6b bf bb 29 70 df bc 68 15 14 bc
       -0.0010868575 -0.00584166 -0.027275162 -0.009038307
000120 e3 c2 5d bc f3 0d 6f 3b 3a 1d 96 3c 7e 2b 09 bd
       -0.013535234 0.003647682 0.018324483 -0.033488743
000130 b7 cc fb bc 74 31 39 bc 2d 86 3b 3c 61 fa c4 3b
       -0.030737264 -0.011303294 0.011445564 0.006011293
000140 46 1b 22 bc b1 ed 4f 3c bd 80 99 3c e4 9e 15 3c
       -0.009894198 0.012690947 0.018738145 0.009132121
000150 71 b2 96 3c 57 d7 a5 bb 60 fa 29 bd d7 c9 4f bc
       0.018395634 -0.005061071 -0.04149854 -0.0126824
000160 44 f0 46 bd a4 c8 80 3c 8e dd 63 bc d8 f2 e9 bc
       -0.04856898 0.015720673 -0.013907803 -0.02855818
000170 44 3f af ba 91 66 c1 bc 3a 8d c3 bc e2 e9 e4 3b
       -0.0013370295 -0.023608478 -0.023871053 0.006985889
000180 b0 c6 80 3b 18 77 24 3d 3d 89 19 bc 48 45 d1 3c
       0.0039299354 0.04015264 -0.009371099 0.025545731
000190 0f ba 31 bc bf 2c 23 bd 95 f2 82 bd 8e e6 d6 3b
       -0.0108475825 -0.039837595 -0.06393925 0.006558246
0001a0 94 d0 43 bc ad 0f 4d 3d d6 13 6b 3d 9a 0e 54 bd
       -0.011951584 0.050063778 0.057391964 -0.051771738
0001b0 6b 43 42 bd 8f b3 71 bc b5 3b 89 3c 51 42 02 bd
       -0.047427576 -0.014752283 0.016752103 -0.031801526
0001c0 b7 53 3f bc 70 25 08 3d 21 f0 bf bb d9 c2 29 bc
       -0.011677674 0.03323883 -0.005857483 -0.010361397
0001d0 ee b7 03 3d 9b a8 bc 3c 4b e5 82 bd 23 a0 81 bd
       0.03215783 0.023029616 -0.063913904 -0.06329372
0001e0 62 b0 52 bd af 90 ff bc 5a b3 48 bd e5 a4 27 bd
       -0.051437743 -0.03119692 -0.048999168 -0.04092874
0001f0 23 31 e1 3c 5c 4f 12 bd 58 22 54 bd e2 dc a4 bb
       0.02748925 -0.035720214 -0.051790565 -0.005031214
000200 3f 35 93 bc 93 cb 2a bd 3b fe d9 bb 45 3d 38 bd
       -0.017969726 -0.04169805 -0.006652621 -0.044980306
000210 90 ad 13 3d 48 8f c6 3c d3 9e 56 bb 54 3e d8 ba
       0.036054194 0.024238244 -0.0032748475 -0.0016498067
000220 0e d1 32 bc a3 4b 92 3b 00 a6 05 bd e8 a1 9e 3c
       -0.0109141 0.004464583 -0.032629013 0.019364312
000230 ca 76 03 3d 12 4f e4 3c bf 41 fc bc cd 4a 00 3d
       0.032095708 0.027869735 -0.030793069 0.031321336
000240 1b 8d b3 38 99 cd 90 bc 4b fb fd 3b 80 ce a7 bb
       8.561668e-05 -0.017676162 0.0077509037 -0.0051210523
000250 e5 07 6f bb 0b de fe bc 6e 19 e7 3c 4f 29 1a 3d
       -0.0036473211 -0.031111738 0.028210368 0.03763705
000260 08 c7 e9 3c 4b bd eb 3c f2 ae b3 3b 04 b7 3d 3d
       0.028537288 0.028776785 0.0054835016 0.046317115
000270 8f 88 a4 bc eb 43 0d 3d f6 b3 f9 3c c0 b4 ae 3c
       -0.020084647 0.0344886 0.03048132 0.021326423
000280 0f d4 28 bc 27 e5 34 3a 47 94 63 3c 08 db b7 bc
       -0.010304465 0.00069006014 0.013890333 -0.02244331
000290 63 90 43 3c e7 8f bc 3c 49 13 37 3c 18 9c bf 3c
       0.01193628 0.023017837 0.0111740315 0.023389861
0002a0 25 33 36 3b 3e fd 4c bc 91 0d 85 3c 66 6e 85 bc
       0.002780148 -0.0125115495 0.01624182 -0.016287994
0002b0 31 b0 26 3c 91 3d cd 3c 0d 87 26 bb 54 94 39 3c
       0.010173843 0.025053771 -0.0025410086 0.011326868
0002c0 1e d6 8b bc 09 5b 90 3c 2d a7 9d 3c 5b 48 85 3c
       -0.017069872 0.017621534 0.019244755 0.016269853
0002d0 37 49 8f 3b 3d 03 6f 3a c6 d8 23 3b 5c 85 a8 3c
       0.0043727416 0.0009117609 0.0025001033 0.020571403
0002e0 41 08 1a bc b6 ed b0 bc 41 fa e0 3c 9c a3 b3 bc
       -0.009401382 -0.021597724 0.02746308 -0.021928601
0002f0 3a a2 b8 3c 5c cf f2 3c 88 af af 3c b1 4c 71 bb
       0.022538293 0.029639892 0.021446005 -0.0036819393
000300 e8 b0 61 3c 37 0a 70 bc 1b 25 f3 3b 13 c6 55 ba
       0.013775088 -0.014650873 0.007420195 -0.00081548205
000310 70 bf ae 3a d0 43 e6 3b 9d d3 82 3c db 0f f3 3a
       0.0013332199 0.007027127 0.015970046 0.0018544154
000320 ee 76 84 3c 04 32 dc bb 83 3b 1b bc 44 78 03 3c
       0.016169991 -0.0067198295 -0.009474638 0.008024279
000330 51 ea 00 bc 27 7b af bc e8 37 47 3a 87 8e 08 3b
       -0.007868365 -0.021421028 0.0007599578 0.0020836906
000340 2c b8 04 bc 45 c6 a4 3b 12 93 55 3c 52 ea 57 bc
       -0.008100551 0.0050285184 0.013035553 -0.013178425
000350 d8 2a 84 bc 67 0f b4 3c 4c e6 49 ba 24 11 c1 3c
       -0.01613371 0.02198 -0.00077018584 0.023567744
000360 4f 52 71 bc 5c 5c 0d 3c 7f be 6b bc 5f a0 df 3b
       -0.014729097 0.008627977 -0.0143886795 0.0068245376
000370 23 20 84 bc 3e 02 02 3d a9 a6 1f bc 6e 1c 41 bc
       -0.016128605 0.03174042 -0.009744325 -0.011786563
000380 62 c7 c6 3a 48 91 6f bb c3 90 4a 3c 17 6d 38 bc
       0.0015165622 -0.00365551 0.012363615 -0.011256478
000390 7c 2c 1c 3c f2 d9 2a bc 1a e2 cc 3c 83 0f ae 3c
       0.00953209 -0.010427939 0.025010157 0.021247631
0003a0 62 b3 b1 3b 3e 17 d9 bc 04 e0 29 bc 32 54 d4 bc
       0.0054229954 -0.02650034 -0.010368351 -0.025919054
0003b0 c3 c6 19 b9 bd 18 ca 3c 1e 48 d3 3b 6a ff bb 3b
       -0.00014665262 0.02467 0.006447806 0.005737235
0003c0 b9 c2 e3 3b 0a 6f c6 bb 78 d3 e3 bc 50 86 ae bc
       0.006950703 -0.0060557174 -0.027810797 -0.02130428
0003d0 6c 6d 1c bc fb 8b c7 bb a9 db 16 3c 72 1d 2e 3c
       -0.009547573 -0.006089685 0.0092076445 0.0106271375
0003e0 91 d3 5b 3c 3d d6 f6 3c 1d 1e 93 bc c9 ef a6 3b
       0.013417141 0.030131454 -0.017958695 0.0050945026
0003f0 74 bd 9c 3b 11 5f 46 bb 86 b6 bd bb 71 32 a8 3c
       0.0047833268 -0.0030269066 -0.0057895808 0.020531865

Const_7 f4 [32]
000000 a8 8f c1 3c 13 a2 34 bc 12 6c d5 3b cd d0 68 3e
       0.023628071 -0.01102497 0.006513127 0.22735901
000010 3d 95 fa 3b 76 ac 80 bd fa e6 6a 3e 9c 6d bc 3b
       0.007647185 -0.06282894 0.22939673 0.005750371
000020 6c 14 70 3d 4e ee e4 3b 99 e5 a9 b9 7a 16 71 3e
       0.058613226 0.006986416 -0.00032405255 0.2354373
000030 e4 bc fe 3c f4 47 6a 3e 96 4a a5 3c 31 41 5e 3b
       0.03109593 0.2287901 0.020177167 0.0033913369
000040 a0 13 8b 3e 76 f2 9c 3d 1a 8a 69 3e 96 39 2d 3d
       0.2716341 0.07663433 0.22806588 0.042291246
000050 ad 3f d8 3b e7 14 2b 3d 95 04 d7 3c 78 f7 ed 3d
       0.0065993876 0.04176798 0.026247302 0.116194665
000060 17 93 58 3d 1b 4b 80 3e 72 0d 7d 3e d3 4f 0e 3d
       0.05287465 0.250573 0.2471216 0.034744095
000070 ae 06 1f 3d 52 92 8a 3c ae 45 75 3e 18 f4 71 3e
       0.03882473 0.016915474 0.23952362 0.2362827

Const_6 f4 [32]
000000 45 ef 83 3f a9 e3 7b 3f f8 60 7f 3f 16 3d 9b 3f
       1.0307394 0.98394257 0.9975734 1.2128017
000010 6f 20 81 3f c8 42 70 3f e0 03 9c 3f 0c 42 81 3f
       1.0088023 0.938519 1.2188683 1.0098281
000020 07 0e 8d 3f 8b ac 83 3f 3d 65 84 3f 1d 71 9d 3f
       1.1019906 1.0287031 1.0343395 1.2300144
000030 c1 0a 85 3f 22 2c 9d 3f db ef 82 3f ab 50 80 3f
       1.0393907 1.2279093 1.0229448 1.0024618
000040 84 22 ab 3f 09 b9 8d 3f 2a f0 9b 3f 24 90 8e 3f
       1.3369908 1.1072093 1.2182667 1.1137738
000050 9d a2 80 3f 70 34 85 3f fa 60 82 3f 98 13 8d 3f
       1.0049626 1.0406628 1.0185845 1.1021605
000060 37 99 8a 3f 80 dc a2 3f 68 46 a2 3f 05 18 84 3f
       1.0828007 1.2723541 1.2677736 1.031983
000070 1f 41 89 3f a3 82 81 3f 79 25 a0 3f bd cb 9e 3f
       1.0722998 1.0117992 1.2511436 1.2405926

Const_5 f4 [32]
000000 d1 6c 51 3d 35 2b 3a bd 55 a5 cb 3c a7 0b 52 3d
       0.051129166 -0.04545136 0.02485911 0.051280644
000010 5a df 67 bd d5 13 a5 bb e0 c2 c0 3d 59 69 cb 3c
       -0.05660949 -0.0050377646 0.094121695 0.024830507
000020 62 d6 23 be 46 1e 91 bd d7 15 16 be 01 74 b0 3d
       -0.1599975 -0.07085852 -0.14656769 0.08615876
000030 a8 e8 05 bd 50 52 2b 3e a2 5a 09 3e 5d 7d 29 be
       -0.03269258 0.16730618 0.1341348 -0.16551729
000040 6b 93 e5 3c 48 03 84 bd c5 8e 60 bc 1a 59 06 bd
       0.028024396 -0.06445938 -0.013705914 -0.032799818
000050 84 43 c0 bd d5 fb 29 be f5 c6 6a bc f6 db aa bc
       -0.093878776 -0.16599973 -0.014329662 -0.020856839
000060 6c 97 67 bb 8e f7 27 3d bc 4a 21 bd e8 9e d9 3c
       -0.0035338057 0.04100757 -0.039377913 0.02656503
000070 4f 69 04 be 50 bf 1d 3e 3d c2 7e 3b f9 63 80 3d
       -0.12930797 0.15405011 0.00388731 0.06269068

Const_3 f4 [32]
000000 db d0 e4 3c f7 92 b7 3c 6d 6f 55 bc 98 41 3b 3c
       0.027931621 0.022408945 -0.013027054 0.011429213
000010 cb fd c5 3c 14 ee 01 3c 77 26 1d bc e2 10 2f bc
       0.02416887 0.007930297 -0.00959169 -0.0106851775
000020 42 ae 26 bc be 1f 91 3c 3c 4e 75 3c 07 dc cd 3b
       -0.010173382 0.017715331 0.014972266 0.006282333
000030 e6 7d d0 bb c0 d9 c4 3c a5 2b 32 3a 03 06 c1 3c
       -0.0063626645 0.024029613 0.00067966647 0.023562437
000040 3e 66 e8 3c 06 f6 ed 3c 13 af 89 3c 54 f0 17 bc
       0.028369065 0.029047977 0.016807115 -0.009273607
000050 f4 4a 5d 3c 94 7c 32 3c dc e6 25 3c 85 0f 10 3b
       0.01350664 0.01089396 0.010125842 0.0021981907
000060 32 b4 e6 bc bc 5e f4 bb 79 9a 06 3b 4c 3a e5 3b
       -0.028162096 -0.0074575823 0.002053885 0.006995475
000070 eb 6f bb 3c db 92 e1 3b bc a3 23 bb 51 d2 36 bc
       0.022880515 0.0068839616 -0.002496942 -0.011158542

Const_2 f4 [32]
000000 1d d1 7e 3f 3e 8a 83 3f f0 7c 7f 3f c3 00 7e 3f
       0.9953783 1.0276563 0.99800014 0.9921991
000010 4a 04 80 3f ab 63 80 3f 23 28 7d 3f 90 f7 7e 3f
       1.0001309 1.0030416 0.9888937 0.995965
000020 64 7f 7f 3f 2e 5c 82 3f 56 51 85 3f 0b e0 7f 3f
       0.9980376 1.0184381 1.0415447 0.9995124
000030 57 4c 80 3f 15 31 7c 3f b8 16 6f 3f 2d 46 81 3f
       1.0023297 0.98512393 0.9339404 1.0099541
000040 4d 7d 7a 3f 7c d0 81 3f 7c 28 76 3f 31 df 7e 3f
       0.97847444 1.0141749 0.96155524 0.99559313
000050 dd 8a 75 3f 05 be 81 3f 1b d9 7f 3f bd 69 80 3f
       0.95915014 1.0136114 0.9994065 1.0032269
000060 b7 c2 79 3f d9 55 7d 3f ee 1a 81 3f b4 05 7f 3f
       0.97562736 0.9895912 1.0086343 0.9961808
000070 6b 46 82 3f 5f 8a 80 3f 44 40 7f 3f 3f 53 7f 3f
       1.017774 1.0042228 0.99707437 0.997364

Const_1 f4 [32]
000000 f7 2f 21 3c 6c dd 29 3c 62 1a c9 bc 1a 0b 01 3c
       0.009838096 0.0103677325 -0.024548713 0.007876182
000010 30 0d 5d bc b2 a5 98 3c bd 6a 7a 3c e4 02 7f 3b
       -0.013491914 0.018633697 0.015284237 0.0038911635
000020 8f e1 b6 3c b9 95 37 3c 9e 8e b6 3c 5b ff df bc
       0.022324352 0.01120513 0.022284802 -0.027343443
000030 3c 4d 39 bc 6e 89 9c 3c d7 b5 c7 3c 0c 92 c3 3c
       -0.011309918 0.0191085 0.0243787 0.023873352
000040 ad 25 8a bc 50 71 a3 3c 79 21 8d 3c e3 92 b9 3b
       -0.016863668 0.019951493 0.017227875 0.005663262
000050 1c 93 a7 bc c7 23 29 b8 8a dc bc 38 c7 8a ba bb
       -0.02045589 -4.032606e-05 9.005617e-05 -0.005692813
000060 e2 77 89 bc e1 82 34 3c 2c 89 89 bc 70 f0 42 3c
       -0.016780797 0.011017532 -0.016789041 0.011898145
000070 e8 ca 98 3c 47 c0 13 bc 83 d0 0e bb cc 55 c4 3c
       0.01865144 -0.00901801 -0.0021791763 0.023966692
